<?xml version="1.0" ?>
<net name="compressed_model" version="10">
	<layers>
		<layer id="0" name="Resize_821/axis1141051594" type="Const" version="opset1">
			<data offset="0" size="16" shape="2" element_type="i64"/>
			<output>
				<port id="0" precision="I64">
					<dim>2</dim>
				</port>
			</output>
		</layer>
		<layer id="1" name="Resize_821/Add_input_port_1/value1141450769" type="Const" version="opset1">
			<data offset="16" size="4" shape="1" element_type="f32"/>
			<output>
				<port id="0" precision="FP32">
					<dim>1</dim>
				</port>
			</output>
		</layer>
		<layer id="2" name="data_add_2402624031" type="Const" version="opset1">
			<data offset="20" size="512" shape="1,256,1,1" element_type="f16"/>
			<output>
				<port id="0" precision="FP16">
					<dim>1</dim>
					<dim>256</dim>
					<dim>1</dim>
					<dim>1</dim>
				</port>
			</output>
		</layer>
		<layer id="3" name="data_add_2401824023" type="Const" version="opset1">
			<data offset="532" size="512" shape="1,256,1,1" element_type="f16"/>
			<output>
				<port id="0" precision="FP16">
					<dim>1</dim>
					<dim>256</dim>
					<dim>1</dim>
					<dim>1</dim>
				</port>
			</output>
		</layer>
		<layer id="4" name="data_add_2401024015" type="Const" version="opset1">
			<data offset="1044" size="96" shape="1,48,1,1" element_type="f16"/>
			<output>
				<port id="0" precision="FP16">
					<dim>1</dim>
					<dim>48</dim>
					<dim>1</dim>
					<dim>1</dim>
				</port>
			</output>
		</layer>
		<layer id="5" name="data_add_2359423599" type="Const" version="opset1">
			<data offset="1140" size="48" shape="1,24,1,1" element_type="f16"/>
			<output>
				<port id="0" precision="FP16">
					<dim>1</dim>
					<dim>24</dim>
					<dim>1</dim>
					<dim>1</dim>
				</port>
			</output>
		</layer>
		<layer id="6" name="Constant_67" type="Const" version="opset1">
			<data offset="1188" size="2" shape="1,1,1,1" element_type="f16"/>
			<output>
				<port id="0" precision="FP16" names="778">
					<dim>1</dim>
					<dim>1</dim>
					<dim>1</dim>
					<dim>1</dim>
				</port>
			</output>
		</layer>
		<layer id="7" name="Constant_6851585" type="Const" version="opset1">
			<data offset="1190" size="2" shape="1,1,1,1" element_type="f16"/>
			<output>
				<port id="0" precision="FP16" names="779">
					<dim>1</dim>
					<dim>1</dim>
					<dim>1</dim>
					<dim>1</dim>
				</port>
			</output>
		</layer>
		<layer id="8" name="Constant_6751519" type="Const" version="opset1">
			<data offset="1188" size="2" shape="1,1,1,1" element_type="f16"/>
			<output>
				<port id="0" precision="FP16" names="778">
					<dim>1</dim>
					<dim>1</dim>
					<dim>1</dim>
					<dim>1</dim>
				</port>
			</output>
		</layer>
		<layer id="9" name="Constant_68" type="Const" version="opset1">
			<data offset="1190" size="2" shape="1,1,1,1" element_type="f16"/>
			<output>
				<port id="0" precision="FP16" names="779">
					<dim>1</dim>
					<dim>1</dim>
					<dim>1</dim>
					<dim>1</dim>
				</port>
			</output>
		</layer>
		<layer id="10" name="data_add_2358623591" type="Const" version="opset1">
			<data offset="1192" size="192" shape="1,96,1,1" element_type="f16"/>
			<output>
				<port id="0" precision="FP16">
					<dim>1</dim>
					<dim>96</dim>
					<dim>1</dim>
					<dim>1</dim>
				</port>
			</output>
		</layer>
		<layer id="11" name="Constant_59" type="Const" version="opset1">
			<data offset="1384" size="192" shape="1,96,1,1" element_type="f16"/>
			<output>
				<port id="0" precision="FP16" names="770">
					<dim>1</dim>
					<dim>96</dim>
					<dim>1</dim>
					<dim>1</dim>
				</port>
			</output>
		</layer>
		<layer id="12" name="Constant_5951387" type="Const" version="opset1">
			<data offset="1384" size="192" shape="1,96,1,1" element_type="f16"/>
			<output>
				<port id="0" precision="FP16" names="770">
					<dim>1</dim>
					<dim>96</dim>
					<dim>1</dim>
					<dim>1</dim>
				</port>
			</output>
		</layer>
		<layer id="13" name="Constant_6051417" type="Const" version="opset1">
			<data offset="1576" size="192" shape="1,96,1,1" element_type="f16"/>
			<output>
				<port id="0" precision="FP16" names="771">
					<dim>1</dim>
					<dim>96</dim>
					<dim>1</dim>
					<dim>1</dim>
				</port>
			</output>
		</layer>
		<layer id="14" name="Constant_60" type="Const" version="opset1">
			<data offset="1576" size="192" shape="1,96,1,1" element_type="f16"/>
			<output>
				<port id="0" precision="FP16" names="771">
					<dim>1</dim>
					<dim>96</dim>
					<dim>1</dim>
					<dim>1</dim>
				</port>
			</output>
		</layer>
		<layer id="15" name="data_add_2357823583" type="Const" version="opset1">
			<data offset="1768" size="192" shape="1,96,1,1" element_type="f16"/>
			<output>
				<port id="0" precision="FP16">
					<dim>1</dim>
					<dim>96</dim>
					<dim>1</dim>
					<dim>1</dim>
				</port>
			</output>
		</layer>
		<layer id="16" name="data_add_2357023575" type="Const" version="opset1">
			<data offset="1960" size="32" shape="1,16,1,1" element_type="f16"/>
			<output>
				<port id="0" precision="FP16">
					<dim>1</dim>
					<dim>16</dim>
					<dim>1</dim>
					<dim>1</dim>
				</port>
			</output>
		</layer>
		<layer id="17" name="Constant_31" type="Const" version="opset1">
			<data offset="1188" size="2" shape="1,1,1,1" element_type="f16"/>
			<output>
				<port id="0" precision="FP16" names="733">
					<dim>1</dim>
					<dim>1</dim>
					<dim>1</dim>
					<dim>1</dim>
				</port>
			</output>
		</layer>
		<layer id="18" name="Constant_32" type="Const" version="opset1">
			<data offset="1992" size="2" shape="1,1,1,1" element_type="f16"/>
			<output>
				<port id="0" precision="FP16" names="734">
					<dim>1</dim>
					<dim>1</dim>
					<dim>1</dim>
					<dim>1</dim>
				</port>
			</output>
		</layer>
		<layer id="19" name="Constant_3151570" type="Const" version="opset1">
			<data offset="1188" size="2" shape="1,1,1,1" element_type="f16"/>
			<output>
				<port id="0" precision="FP16" names="733">
					<dim>1</dim>
					<dim>1</dim>
					<dim>1</dim>
					<dim>1</dim>
				</port>
			</output>
		</layer>
		<layer id="20" name="Constant_3250844" type="Const" version="opset1">
			<data offset="1992" size="2" shape="1,1,1,1" element_type="f16"/>
			<output>
				<port id="0" precision="FP16" names="734">
					<dim>1</dim>
					<dim>1</dim>
					<dim>1</dim>
					<dim>1</dim>
				</port>
			</output>
		</layer>
		<layer id="21" name="data_add_2356223567" type="Const" version="opset1">
			<data offset="1994" size="64" shape="1,32,1,1" element_type="f16"/>
			<output>
				<port id="0" precision="FP16">
					<dim>1</dim>
					<dim>32</dim>
					<dim>1</dim>
					<dim>1</dim>
				</port>
			</output>
		</layer>
		<layer id="22" name="Constant_8" type="Const" version="opset1">
			<data offset="2058" size="64" shape="1,32,1,1" element_type="f16"/>
			<output>
				<port id="0" precision="FP16" names="701">
					<dim>1</dim>
					<dim>32</dim>
					<dim>1</dim>
					<dim>1</dim>
				</port>
			</output>
		</layer>
		<layer id="23" name="Constant_851285" type="Const" version="opset1">
			<data offset="2058" size="64" shape="1,32,1,1" element_type="f16"/>
			<output>
				<port id="0" precision="FP16" names="701">
					<dim>1</dim>
					<dim>32</dim>
					<dim>1</dim>
					<dim>1</dim>
				</port>
			</output>
		</layer>
		<layer id="24" name="Constant_9" type="Const" version="opset1">
			<data offset="2122" size="64" shape="1,32,1,1" element_type="f16"/>
			<output>
				<port id="0" precision="FP16" names="702">
					<dim>1</dim>
					<dim>32</dim>
					<dim>1</dim>
					<dim>1</dim>
				</port>
			</output>
		</layer>
		<layer id="25" name="Constant_951264" type="Const" version="opset1">
			<data offset="2122" size="64" shape="1,32,1,1" element_type="f16"/>
			<output>
				<port id="0" precision="FP16" names="702">
					<dim>1</dim>
					<dim>32</dim>
					<dim>1</dim>
					<dim>1</dim>
				</port>
			</output>
		</layer>
		<layer id="26" name="data_add_2355423559" type="Const" version="opset1">
			<data offset="2186" size="64" shape="1,32,1,1" element_type="f16"/>
			<output>
				<port id="0" precision="FP16">
					<dim>1</dim>
					<dim>32</dim>
					<dim>1</dim>
					<dim>1</dim>
				</port>
			</output>
		</layer>
		<layer id="27" name="Constant_050691" type="Const" version="opset1">
			<data offset="2250" size="6" shape="1,3,1,1" element_type="f16"/>
			<output>
				<port id="0" precision="FP16" names="693">
					<dim>1</dim>
					<dim>3</dim>
					<dim>1</dim>
					<dim>1</dim>
				</port>
			</output>
		</layer>
		<layer id="28" name="Constant_150886" type="Const" version="opset1">
			<data offset="2256" size="6" shape="1,3,1,1" element_type="f16"/>
			<output>
				<port id="0" precision="FP16" names="694">
					<dim>1</dim>
					<dim>3</dim>
					<dim>1</dim>
					<dim>1</dim>
				</port>
			</output>
		</layer>
		<layer id="29" name="Constant_0" type="Const" version="opset1">
			<data offset="2262" size="2" shape="1,1,1,1" element_type="f16"/>
			<output>
				<port id="0" precision="FP16" names="693">
					<dim>1</dim>
					<dim>1</dim>
					<dim>1</dim>
					<dim>1</dim>
				</port>
			</output>
		</layer>
		<layer id="30" name="Constant_1" type="Const" version="opset1">
			<data offset="2264" size="2" shape="1,1,1,1" element_type="f16"/>
			<output>
				<port id="0" precision="FP16" names="694">
					<dim>1</dim>
					<dim>1</dim>
					<dim>1</dim>
					<dim>1</dim>
				</port>
			</output>
		</layer>
		<layer id="31" name="x.1" type="Parameter" version="opset1">
			<data shape="1,3,288,480" element_type="f16"/>
			<output>
				<port id="0" precision="FP16" names="x.1">
					<dim>1</dim>
					<dim>3</dim>
					<dim>288</dim>
					<dim>480</dim>
				</port>
			</output>
		</layer>
		<layer id="32" name="FakeQuantize_2" type="FakeQuantize" version="opset1">
			<data levels="256" auto_broadcast="numpy"/>
			<input>
				<port id="0">
					<dim>1</dim>
					<dim>3</dim>
					<dim>288</dim>
					<dim>480</dim>
				</port>
				<port id="1">
					<dim>1</dim>
					<dim>3</dim>
					<dim>1</dim>
					<dim>1</dim>
				</port>
				<port id="2">
					<dim>1</dim>
					<dim>3</dim>
					<dim>1</dim>
					<dim>1</dim>
				</port>
				<port id="3">
					<dim>1</dim>
					<dim>1</dim>
					<dim>1</dim>
					<dim>1</dim>
				</port>
				<port id="4">
					<dim>1</dim>
					<dim>1</dim>
					<dim>1</dim>
					<dim>1</dim>
				</port>
			</input>
			<output>
				<port id="5" precision="FP16" names="695">
					<dim>1</dim>
					<dim>3</dim>
					<dim>288</dim>
					<dim>480</dim>
				</port>
			</output>
		</layer>
		<layer id="33" name="BatchNormalization_4/mean/Fused_Mul__copy" type="Const" version="opset1">
			<data offset="2266" size="1728" shape="32,3,3,3" element_type="f16"/>
			<output>
				<port id="0" precision="FP16" names="nncf_module.backbone.features.0.0.weight">
					<dim>32</dim>
					<dim>3</dim>
					<dim>3</dim>
					<dim>3</dim>
				</port>
			</output>
		</layer>
		<layer id="34" name="Conv_3" type="Convolution" version="opset1">
			<data auto_pad="explicit" strides="2,2" dilations="1,1" pads_begin="1,1" pads_end="1,1"/>
			<input>
				<port id="0">
					<dim>1</dim>
					<dim>3</dim>
					<dim>288</dim>
					<dim>480</dim>
				</port>
				<port id="1">
					<dim>32</dim>
					<dim>3</dim>
					<dim>3</dim>
					<dim>3</dim>
				</port>
			</input>
			<output>
				<port id="2" precision="FP16">
					<dim>1</dim>
					<dim>32</dim>
					<dim>144</dim>
					<dim>240</dim>
				</port>
			</output>
		</layer>
		<layer id="35" name="BatchNormalization_4/variance/Fused_Add_" type="Add" version="opset1">
			<data auto_broadcast="numpy"/>
			<input>
				<port id="0">
					<dim>1</dim>
					<dim>32</dim>
					<dim>144</dim>
					<dim>240</dim>
				</port>
				<port id="1">
					<dim>1</dim>
					<dim>32</dim>
					<dim>1</dim>
					<dim>1</dim>
				</port>
			</input>
			<output>
				<port id="2" precision="FP16" names="697">
					<dim>1</dim>
					<dim>32</dim>
					<dim>144</dim>
					<dim>240</dim>
				</port>
			</output>
		</layer>
		<layer id="36" name="Clip_7" type="Clamp" version="opset1">
			<data max="6.0" min="0.0"/>
			<input>
				<port id="0">
					<dim>1</dim>
					<dim>32</dim>
					<dim>144</dim>
					<dim>240</dim>
				</port>
			</input>
			<output>
				<port id="1" precision="FP16" names="700">
					<dim>1</dim>
					<dim>32</dim>
					<dim>144</dim>
					<dim>240</dim>
				</port>
			</output>
		</layer>
		<layer id="37" name="FakeQuantize_10" type="FakeQuantize" version="opset1">
			<data levels="256" auto_broadcast="numpy"/>
			<input>
				<port id="0">
					<dim>1</dim>
					<dim>32</dim>
					<dim>144</dim>
					<dim>240</dim>
				</port>
				<port id="1">
					<dim>1</dim>
					<dim>32</dim>
					<dim>1</dim>
					<dim>1</dim>
				</port>
				<port id="2">
					<dim>1</dim>
					<dim>32</dim>
					<dim>1</dim>
					<dim>1</dim>
				</port>
				<port id="3">
					<dim>1</dim>
					<dim>32</dim>
					<dim>1</dim>
					<dim>1</dim>
				</port>
				<port id="4">
					<dim>1</dim>
					<dim>32</dim>
					<dim>1</dim>
					<dim>1</dim>
				</port>
			</input>
			<output>
				<port id="5" precision="FP16" names="703">
					<dim>1</dim>
					<dim>32</dim>
					<dim>144</dim>
					<dim>240</dim>
				</port>
			</output>
		</layer>
		<layer id="38" name="BatchNormalization_27/mean/Fused_Mul__copy" type="Const" version="opset1">
			<data offset="3994" size="576" shape="32,1,1,3,3" element_type="f16"/>
			<output>
				<port id="0" precision="FP16" names="nncf_module.backbone.features.1.conv.0.weight">
					<dim>32</dim>
					<dim>1</dim>
					<dim>1</dim>
					<dim>3</dim>
					<dim>3</dim>
				</port>
			</output>
		</layer>
		<layer id="39" name="Conv_26" type="GroupConvolution" version="opset1">
			<data auto_pad="explicit" strides="1,1" dilations="1,1" pads_begin="1,1" pads_end="1,1"/>
			<input>
				<port id="0">
					<dim>1</dim>
					<dim>32</dim>
					<dim>144</dim>
					<dim>240</dim>
				</port>
				<port id="1">
					<dim>32</dim>
					<dim>1</dim>
					<dim>1</dim>
					<dim>3</dim>
					<dim>3</dim>
				</port>
			</input>
			<output>
				<port id="2" precision="FP16">
					<dim>1</dim>
					<dim>32</dim>
					<dim>144</dim>
					<dim>240</dim>
				</port>
			</output>
		</layer>
		<layer id="40" name="BatchNormalization_27/variance/Fused_Add_" type="Add" version="opset1">
			<data auto_broadcast="numpy"/>
			<input>
				<port id="0">
					<dim>1</dim>
					<dim>32</dim>
					<dim>144</dim>
					<dim>240</dim>
				</port>
				<port id="1">
					<dim>1</dim>
					<dim>32</dim>
					<dim>1</dim>
					<dim>1</dim>
				</port>
			</input>
			<output>
				<port id="2" precision="FP16" names="729">
					<dim>1</dim>
					<dim>32</dim>
					<dim>144</dim>
					<dim>240</dim>
				</port>
			</output>
		</layer>
		<layer id="41" name="Clip_30" type="Clamp" version="opset1">
			<data max="6.0" min="0.0"/>
			<input>
				<port id="0">
					<dim>1</dim>
					<dim>32</dim>
					<dim>144</dim>
					<dim>240</dim>
				</port>
			</input>
			<output>
				<port id="1" precision="FP16" names="732">
					<dim>1</dim>
					<dim>32</dim>
					<dim>144</dim>
					<dim>240</dim>
				</port>
			</output>
		</layer>
		<layer id="42" name="FakeQuantize_33" type="FakeQuantize" version="opset1">
			<data levels="256" auto_broadcast="numpy"/>
			<input>
				<port id="0">
					<dim>1</dim>
					<dim>32</dim>
					<dim>144</dim>
					<dim>240</dim>
				</port>
				<port id="1">
					<dim>1</dim>
					<dim>1</dim>
					<dim>1</dim>
					<dim>1</dim>
				</port>
				<port id="2">
					<dim>1</dim>
					<dim>1</dim>
					<dim>1</dim>
					<dim>1</dim>
				</port>
				<port id="3">
					<dim>1</dim>
					<dim>1</dim>
					<dim>1</dim>
					<dim>1</dim>
				</port>
				<port id="4">
					<dim>1</dim>
					<dim>1</dim>
					<dim>1</dim>
					<dim>1</dim>
				</port>
			</input>
			<output>
				<port id="5" precision="FP16" names="735">
					<dim>1</dim>
					<dim>32</dim>
					<dim>144</dim>
					<dim>240</dim>
				</port>
			</output>
		</layer>
		<layer id="43" name="BatchNormalization_35/mean/Fused_Mul__copy" type="Const" version="opset1">
			<data offset="4570" size="1024" shape="16,32,1,1" element_type="f16"/>
			<output>
				<port id="0" precision="FP16" names="nncf_module.backbone.features.1.conv.3.weight">
					<dim>16</dim>
					<dim>32</dim>
					<dim>1</dim>
					<dim>1</dim>
				</port>
			</output>
		</layer>
		<layer id="44" name="Conv_34" type="Convolution" version="opset1">
			<data auto_pad="explicit" strides="1,1" dilations="1,1" pads_begin="0,0" pads_end="0,0"/>
			<input>
				<port id="0">
					<dim>1</dim>
					<dim>32</dim>
					<dim>144</dim>
					<dim>240</dim>
				</port>
				<port id="1">
					<dim>16</dim>
					<dim>32</dim>
					<dim>1</dim>
					<dim>1</dim>
				</port>
			</input>
			<output>
				<port id="2" precision="FP16">
					<dim>1</dim>
					<dim>16</dim>
					<dim>144</dim>
					<dim>240</dim>
				</port>
			</output>
		</layer>
		<layer id="45" name="BatchNormalization_35/variance/Fused_Add_" type="Add" version="opset1">
			<data auto_broadcast="numpy"/>
			<input>
				<port id="0">
					<dim>1</dim>
					<dim>16</dim>
					<dim>144</dim>
					<dim>240</dim>
				</port>
				<port id="1">
					<dim>1</dim>
					<dim>16</dim>
					<dim>1</dim>
					<dim>1</dim>
				</port>
			</input>
			<output>
				<port id="2" precision="FP16" names="737">
					<dim>1</dim>
					<dim>16</dim>
					<dim>144</dim>
					<dim>240</dim>
				</port>
			</output>
		</layer>
		<layer id="46" name="Constant_36" type="Const" version="opset1">
			<data offset="5594" size="2" shape="1,1,1,1" element_type="f16"/>
			<output>
				<port id="0" precision="FP16" names="738">
					<dim>1</dim>
					<dim>1</dim>
					<dim>1</dim>
					<dim>1</dim>
				</port>
			</output>
		</layer>
		<layer id="47" name="Constant_3750907" type="Const" version="opset1">
			<data offset="5596" size="2" shape="1,1,1,1" element_type="f16"/>
			<output>
				<port id="0" precision="FP16" names="739">
					<dim>1</dim>
					<dim>1</dim>
					<dim>1</dim>
					<dim>1</dim>
				</port>
			</output>
		</layer>
		<layer id="48" name="Constant_3650700" type="Const" version="opset1">
			<data offset="5594" size="2" shape="1,1,1,1" element_type="f16"/>
			<output>
				<port id="0" precision="FP16" names="738">
					<dim>1</dim>
					<dim>1</dim>
					<dim>1</dim>
					<dim>1</dim>
				</port>
			</output>
		</layer>
		<layer id="49" name="Constant_37" type="Const" version="opset1">
			<data offset="5596" size="2" shape="1,1,1,1" element_type="f16"/>
			<output>
				<port id="0" precision="FP16" names="739">
					<dim>1</dim>
					<dim>1</dim>
					<dim>1</dim>
					<dim>1</dim>
				</port>
			</output>
		</layer>
		<layer id="50" name="FakeQuantize_38" type="FakeQuantize" version="opset1">
			<data levels="256" auto_broadcast="numpy"/>
			<input>
				<port id="0">
					<dim>1</dim>
					<dim>16</dim>
					<dim>144</dim>
					<dim>240</dim>
				</port>
				<port id="1">
					<dim>1</dim>
					<dim>1</dim>
					<dim>1</dim>
					<dim>1</dim>
				</port>
				<port id="2">
					<dim>1</dim>
					<dim>1</dim>
					<dim>1</dim>
					<dim>1</dim>
				</port>
				<port id="3">
					<dim>1</dim>
					<dim>1</dim>
					<dim>1</dim>
					<dim>1</dim>
				</port>
				<port id="4">
					<dim>1</dim>
					<dim>1</dim>
					<dim>1</dim>
					<dim>1</dim>
				</port>
			</input>
			<output>
				<port id="5" precision="FP16" names="740">
					<dim>1</dim>
					<dim>16</dim>
					<dim>144</dim>
					<dim>240</dim>
				</port>
			</output>
		</layer>
		<layer id="51" name="BatchNormalization_55/mean/Fused_Mul__copy" type="Const" version="opset1">
			<data offset="5598" size="3072" shape="96,16,1,1" element_type="f16"/>
			<output>
				<port id="0" precision="FP16" names="nncf_module.backbone.features.2.conv.0.weight">
					<dim>96</dim>
					<dim>16</dim>
					<dim>1</dim>
					<dim>1</dim>
				</port>
			</output>
		</layer>
		<layer id="52" name="Conv_54" type="Convolution" version="opset1">
			<data auto_pad="explicit" strides="1,1" dilations="1,1" pads_begin="1,1" pads_end="1,1"/>
			<input>
				<port id="0">
					<dim>1</dim>
					<dim>16</dim>
					<dim>144</dim>
					<dim>240</dim>
				</port>
				<port id="1">
					<dim>96</dim>
					<dim>16</dim>
					<dim>1</dim>
					<dim>1</dim>
				</port>
			</input>
			<output>
				<port id="2" precision="FP16">
					<dim>1</dim>
					<dim>96</dim>
					<dim>146</dim>
					<dim>242</dim>
				</port>
			</output>
		</layer>
		<layer id="53" name="BatchNormalization_55/variance/Fused_Add_" type="Add" version="opset1">
			<data auto_broadcast="numpy"/>
			<input>
				<port id="0">
					<dim>1</dim>
					<dim>96</dim>
					<dim>146</dim>
					<dim>242</dim>
				</port>
				<port id="1">
					<dim>1</dim>
					<dim>96</dim>
					<dim>1</dim>
					<dim>1</dim>
				</port>
			</input>
			<output>
				<port id="2" precision="FP16" names="766">
					<dim>1</dim>
					<dim>96</dim>
					<dim>146</dim>
					<dim>242</dim>
				</port>
			</output>
		</layer>
		<layer id="54" name="Clip_58" type="Clamp" version="opset1">
			<data max="6.0" min="0.0"/>
			<input>
				<port id="0">
					<dim>1</dim>
					<dim>96</dim>
					<dim>146</dim>
					<dim>242</dim>
				</port>
			</input>
			<output>
				<port id="1" precision="FP16" names="769">
					<dim>1</dim>
					<dim>96</dim>
					<dim>146</dim>
					<dim>242</dim>
				</port>
			</output>
		</layer>
		<layer id="55" name="FakeQuantize_61" type="FakeQuantize" version="opset1">
			<data levels="256" auto_broadcast="numpy"/>
			<input>
				<port id="0">
					<dim>1</dim>
					<dim>96</dim>
					<dim>146</dim>
					<dim>242</dim>
				</port>
				<port id="1">
					<dim>1</dim>
					<dim>96</dim>
					<dim>1</dim>
					<dim>1</dim>
				</port>
				<port id="2">
					<dim>1</dim>
					<dim>96</dim>
					<dim>1</dim>
					<dim>1</dim>
				</port>
				<port id="3">
					<dim>1</dim>
					<dim>96</dim>
					<dim>1</dim>
					<dim>1</dim>
				</port>
				<port id="4">
					<dim>1</dim>
					<dim>96</dim>
					<dim>1</dim>
					<dim>1</dim>
				</port>
			</input>
			<output>
				<port id="5" precision="FP16" names="772">
					<dim>1</dim>
					<dim>96</dim>
					<dim>146</dim>
					<dim>242</dim>
				</port>
			</output>
		</layer>
		<layer id="56" name="BatchNormalization_63/mean/Fused_Mul__copy" type="Const" version="opset1">
			<data offset="8670" size="1728" shape="96,1,1,3,3" element_type="f16"/>
			<output>
				<port id="0" precision="FP16" names="nncf_module.backbone.features.2.conv.3.weight">
					<dim>96</dim>
					<dim>1</dim>
					<dim>1</dim>
					<dim>3</dim>
					<dim>3</dim>
				</port>
			</output>
		</layer>
		<layer id="57" name="Conv_62" type="GroupConvolution" version="opset1">
			<data auto_pad="explicit" strides="2,2" dilations="1,1" pads_begin="0,0" pads_end="0,0"/>
			<input>
				<port id="0">
					<dim>1</dim>
					<dim>96</dim>
					<dim>146</dim>
					<dim>242</dim>
				</port>
				<port id="1">
					<dim>96</dim>
					<dim>1</dim>
					<dim>1</dim>
					<dim>3</dim>
					<dim>3</dim>
				</port>
			</input>
			<output>
				<port id="2" precision="FP16">
					<dim>1</dim>
					<dim>96</dim>
					<dim>72</dim>
					<dim>120</dim>
				</port>
			</output>
		</layer>
		<layer id="58" name="BatchNormalization_63/variance/Fused_Add_" type="Add" version="opset1">
			<data auto_broadcast="numpy"/>
			<input>
				<port id="0">
					<dim>1</dim>
					<dim>96</dim>
					<dim>72</dim>
					<dim>120</dim>
				</port>
				<port id="1">
					<dim>1</dim>
					<dim>96</dim>
					<dim>1</dim>
					<dim>1</dim>
				</port>
			</input>
			<output>
				<port id="2" precision="FP16" names="774">
					<dim>1</dim>
					<dim>96</dim>
					<dim>72</dim>
					<dim>120</dim>
				</port>
			</output>
		</layer>
		<layer id="59" name="Clip_66" type="Clamp" version="opset1">
			<data max="6.0" min="0.0"/>
			<input>
				<port id="0">
					<dim>1</dim>
					<dim>96</dim>
					<dim>72</dim>
					<dim>120</dim>
				</port>
			</input>
			<output>
				<port id="1" precision="FP16" names="777">
					<dim>1</dim>
					<dim>96</dim>
					<dim>72</dim>
					<dim>120</dim>
				</port>
			</output>
		</layer>
		<layer id="60" name="FakeQuantize_69" type="FakeQuantize" version="opset1">
			<data levels="256" auto_broadcast="numpy"/>
			<input>
				<port id="0">
					<dim>1</dim>
					<dim>96</dim>
					<dim>72</dim>
					<dim>120</dim>
				</port>
				<port id="1">
					<dim>1</dim>
					<dim>1</dim>
					<dim>1</dim>
					<dim>1</dim>
				</port>
				<port id="2">
					<dim>1</dim>
					<dim>1</dim>
					<dim>1</dim>
					<dim>1</dim>
				</port>
				<port id="3">
					<dim>1</dim>
					<dim>1</dim>
					<dim>1</dim>
					<dim>1</dim>
				</port>
				<port id="4">
					<dim>1</dim>
					<dim>1</dim>
					<dim>1</dim>
					<dim>1</dim>
				</port>
			</input>
			<output>
				<port id="5" precision="FP16" names="780">
					<dim>1</dim>
					<dim>96</dim>
					<dim>72</dim>
					<dim>120</dim>
				</port>
			</output>
		</layer>
		<layer id="61" name="BatchNormalization_71/mean/Fused_Mul__copy" type="Const" version="opset1">
			<data offset="10398" size="4608" shape="24,96,1,1" element_type="f16"/>
			<output>
				<port id="0" precision="FP16" names="nncf_module.backbone.features.2.conv.6.weight">
					<dim>24</dim>
					<dim>96</dim>
					<dim>1</dim>
					<dim>1</dim>
				</port>
			</output>
		</layer>
		<layer id="62" name="Conv_70" type="Convolution" version="opset1">
			<data auto_pad="explicit" strides="1,1" dilations="1,1" pads_begin="0,0" pads_end="0,0"/>
			<input>
				<port id="0">
					<dim>1</dim>
					<dim>96</dim>
					<dim>72</dim>
					<dim>120</dim>
				</port>
				<port id="1">
					<dim>24</dim>
					<dim>96</dim>
					<dim>1</dim>
					<dim>1</dim>
				</port>
			</input>
			<output>
				<port id="2" precision="FP16">
					<dim>1</dim>
					<dim>24</dim>
					<dim>72</dim>
					<dim>120</dim>
				</port>
			</output>
		</layer>
		<layer id="63" name="BatchNormalization_71/variance/Fused_Add_" type="Add" version="opset1">
			<data auto_broadcast="numpy"/>
			<input>
				<port id="0">
					<dim>1</dim>
					<dim>24</dim>
					<dim>72</dim>
					<dim>120</dim>
				</port>
				<port id="1">
					<dim>1</dim>
					<dim>24</dim>
					<dim>1</dim>
					<dim>1</dim>
				</port>
			</input>
			<output>
				<port id="2" precision="FP16" names="782">
					<dim>1</dim>
					<dim>24</dim>
					<dim>72</dim>
					<dim>120</dim>
				</port>
			</output>
		</layer>
		<layer id="64" name="Constant_72" type="Const" version="opset1">
			<data offset="15006" size="2" shape="1,1,1,1" element_type="f16"/>
			<output>
				<port id="0" precision="FP16" names="783">
					<dim>1</dim>
					<dim>1</dim>
					<dim>1</dim>
					<dim>1</dim>
				</port>
			</output>
		</layer>
		<layer id="65" name="Constant_73" type="Const" version="opset1">
			<data offset="15008" size="2" shape="1,1,1,1" element_type="f16"/>
			<output>
				<port id="0" precision="FP16" names="784">
					<dim>1</dim>
					<dim>1</dim>
					<dim>1</dim>
					<dim>1</dim>
				</port>
			</output>
		</layer>
		<layer id="66" name="Constant_7251279" type="Const" version="opset1">
			<data offset="15006" size="2" shape="1,1,1,1" element_type="f16"/>
			<output>
				<port id="0" precision="FP16" names="783">
					<dim>1</dim>
					<dim>1</dim>
					<dim>1</dim>
					<dim>1</dim>
				</port>
			</output>
		</layer>
		<layer id="67" name="Constant_7351057" type="Const" version="opset1">
			<data offset="15008" size="2" shape="1,1,1,1" element_type="f16"/>
			<output>
				<port id="0" precision="FP16" names="784">
					<dim>1</dim>
					<dim>1</dim>
					<dim>1</dim>
					<dim>1</dim>
				</port>
			</output>
		</layer>
		<layer id="68" name="FakeQuantize_74" type="FakeQuantize" version="opset1">
			<data levels="256" auto_broadcast="numpy"/>
			<input>
				<port id="0">
					<dim>1</dim>
					<dim>24</dim>
					<dim>72</dim>
					<dim>120</dim>
				</port>
				<port id="1">
					<dim>1</dim>
					<dim>1</dim>
					<dim>1</dim>
					<dim>1</dim>
				</port>
				<port id="2">
					<dim>1</dim>
					<dim>1</dim>
					<dim>1</dim>
					<dim>1</dim>
				</port>
				<port id="3">
					<dim>1</dim>
					<dim>1</dim>
					<dim>1</dim>
					<dim>1</dim>
				</port>
				<port id="4">
					<dim>1</dim>
					<dim>1</dim>
					<dim>1</dim>
					<dim>1</dim>
				</port>
			</input>
			<output>
				<port id="5" precision="FP16" names="785">
					<dim>1</dim>
					<dim>24</dim>
					<dim>72</dim>
					<dim>120</dim>
				</port>
			</output>
		</layer>
		<layer id="69" name="data_add_2361823623" type="Const" version="opset1">
			<data offset="15010" size="48" shape="1,24,1,1" element_type="f16"/>
			<output>
				<port id="0" precision="FP16">
					<dim>1</dim>
					<dim>24</dim>
					<dim>1</dim>
					<dim>1</dim>
				</port>
			</output>
		</layer>
		<layer id="70" name="Constant_10351471" type="Const" version="opset1">
			<data offset="1188" size="2" shape="1,1,1,1" element_type="f16"/>
			<output>
				<port id="0" precision="FP16" names="823">
					<dim>1</dim>
					<dim>1</dim>
					<dim>1</dim>
					<dim>1</dim>
				</port>
			</output>
		</layer>
		<layer id="71" name="Constant_104" type="Const" version="opset1">
			<data offset="15058" size="2" shape="1,1,1,1" element_type="f16"/>
			<output>
				<port id="0" precision="FP16" names="824">
					<dim>1</dim>
					<dim>1</dim>
					<dim>1</dim>
					<dim>1</dim>
				</port>
			</output>
		</layer>
		<layer id="72" name="Constant_103" type="Const" version="opset1">
			<data offset="1188" size="2" shape="1,1,1,1" element_type="f16"/>
			<output>
				<port id="0" precision="FP16" names="823">
					<dim>1</dim>
					<dim>1</dim>
					<dim>1</dim>
					<dim>1</dim>
				</port>
			</output>
		</layer>
		<layer id="73" name="Constant_10451561" type="Const" version="opset1">
			<data offset="15058" size="2" shape="1,1,1,1" element_type="f16"/>
			<output>
				<port id="0" precision="FP16" names="824">
					<dim>1</dim>
					<dim>1</dim>
					<dim>1</dim>
					<dim>1</dim>
				</port>
			</output>
		</layer>
		<layer id="74" name="data_add_2361023615" type="Const" version="opset1">
			<data offset="15060" size="288" shape="1,144,1,1" element_type="f16"/>
			<output>
				<port id="0" precision="FP16">
					<dim>1</dim>
					<dim>144</dim>
					<dim>1</dim>
					<dim>1</dim>
				</port>
			</output>
		</layer>
		<layer id="75" name="Constant_95" type="Const" version="opset1">
			<data offset="15348" size="288" shape="1,144,1,1" element_type="f16"/>
			<output>
				<port id="0" precision="FP16" names="815">
					<dim>1</dim>
					<dim>144</dim>
					<dim>1</dim>
					<dim>1</dim>
				</port>
			</output>
		</layer>
		<layer id="76" name="Constant_9550856" type="Const" version="opset1">
			<data offset="15348" size="288" shape="1,144,1,1" element_type="f16"/>
			<output>
				<port id="0" precision="FP16" names="815">
					<dim>1</dim>
					<dim>144</dim>
					<dim>1</dim>
					<dim>1</dim>
				</port>
			</output>
		</layer>
		<layer id="77" name="Constant_96" type="Const" version="opset1">
			<data offset="15636" size="288" shape="1,144,1,1" element_type="f16"/>
			<output>
				<port id="0" precision="FP16" names="816">
					<dim>1</dim>
					<dim>144</dim>
					<dim>1</dim>
					<dim>1</dim>
				</port>
			</output>
		</layer>
		<layer id="78" name="Constant_9651243" type="Const" version="opset1">
			<data offset="15636" size="288" shape="1,144,1,1" element_type="f16"/>
			<output>
				<port id="0" precision="FP16" names="816">
					<dim>1</dim>
					<dim>144</dim>
					<dim>1</dim>
					<dim>1</dim>
				</port>
			</output>
		</layer>
		<layer id="79" name="data_add_2360223607" type="Const" version="opset1">
			<data offset="15924" size="288" shape="1,144,1,1" element_type="f16"/>
			<output>
				<port id="0" precision="FP16">
					<dim>1</dim>
					<dim>144</dim>
					<dim>1</dim>
					<dim>1</dim>
				</port>
			</output>
		</layer>
		<layer id="80" name="BatchNormalization_91/mean/Fused_Mul__copy" type="Const" version="opset1">
			<data offset="16212" size="6912" shape="144,24,1,1" element_type="f16"/>
			<output>
				<port id="0" precision="FP16" names="nncf_module.backbone.features.3.conv.0.weight">
					<dim>144</dim>
					<dim>24</dim>
					<dim>1</dim>
					<dim>1</dim>
				</port>
			</output>
		</layer>
		<layer id="81" name="Conv_90" type="Convolution" version="opset1">
			<data auto_pad="explicit" strides="1,1" dilations="1,1" pads_begin="1,1" pads_end="1,1"/>
			<input>
				<port id="0">
					<dim>1</dim>
					<dim>24</dim>
					<dim>72</dim>
					<dim>120</dim>
				</port>
				<port id="1">
					<dim>144</dim>
					<dim>24</dim>
					<dim>1</dim>
					<dim>1</dim>
				</port>
			</input>
			<output>
				<port id="2" precision="FP16">
					<dim>1</dim>
					<dim>144</dim>
					<dim>74</dim>
					<dim>122</dim>
				</port>
			</output>
		</layer>
		<layer id="82" name="BatchNormalization_91/variance/Fused_Add_" type="Add" version="opset1">
			<data auto_broadcast="numpy"/>
			<input>
				<port id="0">
					<dim>1</dim>
					<dim>144</dim>
					<dim>74</dim>
					<dim>122</dim>
				</port>
				<port id="1">
					<dim>1</dim>
					<dim>144</dim>
					<dim>1</dim>
					<dim>1</dim>
				</port>
			</input>
			<output>
				<port id="2" precision="FP16" names="811">
					<dim>1</dim>
					<dim>144</dim>
					<dim>74</dim>
					<dim>122</dim>
				</port>
			</output>
		</layer>
		<layer id="83" name="Clip_94" type="Clamp" version="opset1">
			<data max="6.0" min="0.0"/>
			<input>
				<port id="0">
					<dim>1</dim>
					<dim>144</dim>
					<dim>74</dim>
					<dim>122</dim>
				</port>
			</input>
			<output>
				<port id="1" precision="FP16" names="814">
					<dim>1</dim>
					<dim>144</dim>
					<dim>74</dim>
					<dim>122</dim>
				</port>
			</output>
		</layer>
		<layer id="84" name="FakeQuantize_97" type="FakeQuantize" version="opset1">
			<data levels="256" auto_broadcast="numpy"/>
			<input>
				<port id="0">
					<dim>1</dim>
					<dim>144</dim>
					<dim>74</dim>
					<dim>122</dim>
				</port>
				<port id="1">
					<dim>1</dim>
					<dim>144</dim>
					<dim>1</dim>
					<dim>1</dim>
				</port>
				<port id="2">
					<dim>1</dim>
					<dim>144</dim>
					<dim>1</dim>
					<dim>1</dim>
				</port>
				<port id="3">
					<dim>1</dim>
					<dim>144</dim>
					<dim>1</dim>
					<dim>1</dim>
				</port>
				<port id="4">
					<dim>1</dim>
					<dim>144</dim>
					<dim>1</dim>
					<dim>1</dim>
				</port>
			</input>
			<output>
				<port id="5" precision="FP16" names="817">
					<dim>1</dim>
					<dim>144</dim>
					<dim>74</dim>
					<dim>122</dim>
				</port>
			</output>
		</layer>
		<layer id="85" name="BatchNormalization_99/mean/Fused_Mul__copy" type="Const" version="opset1">
			<data offset="23124" size="2592" shape="144,1,1,3,3" element_type="f16"/>
			<output>
				<port id="0" precision="FP16" names="nncf_module.backbone.features.3.conv.3.weight">
					<dim>144</dim>
					<dim>1</dim>
					<dim>1</dim>
					<dim>3</dim>
					<dim>3</dim>
				</port>
			</output>
		</layer>
		<layer id="86" name="Conv_98" type="GroupConvolution" version="opset1">
			<data auto_pad="explicit" strides="1,1" dilations="1,1" pads_begin="0,0" pads_end="0,0"/>
			<input>
				<port id="0">
					<dim>1</dim>
					<dim>144</dim>
					<dim>74</dim>
					<dim>122</dim>
				</port>
				<port id="1">
					<dim>144</dim>
					<dim>1</dim>
					<dim>1</dim>
					<dim>3</dim>
					<dim>3</dim>
				</port>
			</input>
			<output>
				<port id="2" precision="FP16">
					<dim>1</dim>
					<dim>144</dim>
					<dim>72</dim>
					<dim>120</dim>
				</port>
			</output>
		</layer>
		<layer id="87" name="BatchNormalization_99/variance/Fused_Add_" type="Add" version="opset1">
			<data auto_broadcast="numpy"/>
			<input>
				<port id="0">
					<dim>1</dim>
					<dim>144</dim>
					<dim>72</dim>
					<dim>120</dim>
				</port>
				<port id="1">
					<dim>1</dim>
					<dim>144</dim>
					<dim>1</dim>
					<dim>1</dim>
				</port>
			</input>
			<output>
				<port id="2" precision="FP16" names="819">
					<dim>1</dim>
					<dim>144</dim>
					<dim>72</dim>
					<dim>120</dim>
				</port>
			</output>
		</layer>
		<layer id="88" name="Clip_102" type="Clamp" version="opset1">
			<data max="6.0" min="0.0"/>
			<input>
				<port id="0">
					<dim>1</dim>
					<dim>144</dim>
					<dim>72</dim>
					<dim>120</dim>
				</port>
			</input>
			<output>
				<port id="1" precision="FP16" names="822">
					<dim>1</dim>
					<dim>144</dim>
					<dim>72</dim>
					<dim>120</dim>
				</port>
			</output>
		</layer>
		<layer id="89" name="FakeQuantize_105" type="FakeQuantize" version="opset1">
			<data levels="256" auto_broadcast="numpy"/>
			<input>
				<port id="0">
					<dim>1</dim>
					<dim>144</dim>
					<dim>72</dim>
					<dim>120</dim>
				</port>
				<port id="1">
					<dim>1</dim>
					<dim>1</dim>
					<dim>1</dim>
					<dim>1</dim>
				</port>
				<port id="2">
					<dim>1</dim>
					<dim>1</dim>
					<dim>1</dim>
					<dim>1</dim>
				</port>
				<port id="3">
					<dim>1</dim>
					<dim>1</dim>
					<dim>1</dim>
					<dim>1</dim>
				</port>
				<port id="4">
					<dim>1</dim>
					<dim>1</dim>
					<dim>1</dim>
					<dim>1</dim>
				</port>
			</input>
			<output>
				<port id="5" precision="FP16" names="825">
					<dim>1</dim>
					<dim>144</dim>
					<dim>72</dim>
					<dim>120</dim>
				</port>
			</output>
		</layer>
		<layer id="90" name="BatchNormalization_107/mean/Fused_Mul__copy" type="Const" version="opset1">
			<data offset="25716" size="6912" shape="24,144,1,1" element_type="f16"/>
			<output>
				<port id="0" precision="FP16" names="nncf_module.backbone.features.3.conv.6.weight">
					<dim>24</dim>
					<dim>144</dim>
					<dim>1</dim>
					<dim>1</dim>
				</port>
			</output>
		</layer>
		<layer id="91" name="Conv_106" type="Convolution" version="opset1">
			<data auto_pad="explicit" strides="1,1" dilations="1,1" pads_begin="0,0" pads_end="0,0"/>
			<input>
				<port id="0">
					<dim>1</dim>
					<dim>144</dim>
					<dim>72</dim>
					<dim>120</dim>
				</port>
				<port id="1">
					<dim>24</dim>
					<dim>144</dim>
					<dim>1</dim>
					<dim>1</dim>
				</port>
			</input>
			<output>
				<port id="2" precision="FP16">
					<dim>1</dim>
					<dim>24</dim>
					<dim>72</dim>
					<dim>120</dim>
				</port>
			</output>
		</layer>
		<layer id="92" name="BatchNormalization_107/variance/Fused_Add_" type="Add" version="opset1">
			<data auto_broadcast="numpy"/>
			<input>
				<port id="0">
					<dim>1</dim>
					<dim>24</dim>
					<dim>72</dim>
					<dim>120</dim>
				</port>
				<port id="1">
					<dim>1</dim>
					<dim>24</dim>
					<dim>1</dim>
					<dim>1</dim>
				</port>
			</input>
			<output>
				<port id="2" precision="FP16" names="827">
					<dim>1</dim>
					<dim>24</dim>
					<dim>72</dim>
					<dim>120</dim>
				</port>
			</output>
		</layer>
		<layer id="93" name="Constant_108" type="Const" version="opset1">
			<data offset="32628" size="2" shape="1,1,1,1" element_type="f16"/>
			<output>
				<port id="0" precision="FP16" names="828">
					<dim>1</dim>
					<dim>1</dim>
					<dim>1</dim>
					<dim>1</dim>
				</port>
			</output>
		</layer>
		<layer id="94" name="Constant_109" type="Const" version="opset1">
			<data offset="32630" size="2" shape="1,1,1,1" element_type="f16"/>
			<output>
				<port id="0" precision="FP16" names="829">
					<dim>1</dim>
					<dim>1</dim>
					<dim>1</dim>
					<dim>1</dim>
				</port>
			</output>
		</layer>
		<layer id="95" name="Constant_10851207" type="Const" version="opset1">
			<data offset="32628" size="2" shape="1,1,1,1" element_type="f16"/>
			<output>
				<port id="0" precision="FP16" names="828">
					<dim>1</dim>
					<dim>1</dim>
					<dim>1</dim>
					<dim>1</dim>
				</port>
			</output>
		</layer>
		<layer id="96" name="Constant_10951126" type="Const" version="opset1">
			<data offset="32630" size="2" shape="1,1,1,1" element_type="f16"/>
			<output>
				<port id="0" precision="FP16" names="829">
					<dim>1</dim>
					<dim>1</dim>
					<dim>1</dim>
					<dim>1</dim>
				</port>
			</output>
		</layer>
		<layer id="97" name="FakeQuantize_110" type="FakeQuantize" version="opset1">
			<data levels="256" auto_broadcast="numpy"/>
			<input>
				<port id="0">
					<dim>1</dim>
					<dim>24</dim>
					<dim>72</dim>
					<dim>120</dim>
				</port>
				<port id="1">
					<dim>1</dim>
					<dim>1</dim>
					<dim>1</dim>
					<dim>1</dim>
				</port>
				<port id="2">
					<dim>1</dim>
					<dim>1</dim>
					<dim>1</dim>
					<dim>1</dim>
				</port>
				<port id="3">
					<dim>1</dim>
					<dim>1</dim>
					<dim>1</dim>
					<dim>1</dim>
				</port>
				<port id="4">
					<dim>1</dim>
					<dim>1</dim>
					<dim>1</dim>
					<dim>1</dim>
				</port>
			</input>
			<output>
				<port id="5" precision="FP16" names="830">
					<dim>1</dim>
					<dim>24</dim>
					<dim>72</dim>
					<dim>120</dim>
				</port>
			</output>
		</layer>
		<layer id="98" name="Add_111" type="Add" version="opset1">
			<data auto_broadcast="numpy"/>
			<input>
				<port id="0">
					<dim>1</dim>
					<dim>24</dim>
					<dim>72</dim>
					<dim>120</dim>
				</port>
				<port id="1">
					<dim>1</dim>
					<dim>24</dim>
					<dim>72</dim>
					<dim>120</dim>
				</port>
			</input>
			<output>
				<port id="2" precision="FP16" names="831">
					<dim>1</dim>
					<dim>24</dim>
					<dim>72</dim>
					<dim>120</dim>
				</port>
			</output>
		</layer>
		<layer id="99" name="Constant_112" type="Const" version="opset1">
			<data offset="32632" size="2" shape="1,1,1,1" element_type="f16"/>
			<output>
				<port id="0" precision="FP16" names="832">
					<dim>1</dim>
					<dim>1</dim>
					<dim>1</dim>
					<dim>1</dim>
				</port>
			</output>
		</layer>
		<layer id="100" name="Constant_11351540" type="Const" version="opset1">
			<data offset="32634" size="2" shape="1,1,1,1" element_type="f16"/>
			<output>
				<port id="0" precision="FP16" names="833">
					<dim>1</dim>
					<dim>1</dim>
					<dim>1</dim>
					<dim>1</dim>
				</port>
			</output>
		</layer>
		<layer id="101" name="Constant_11251027" type="Const" version="opset1">
			<data offset="32632" size="2" shape="1,1,1,1" element_type="f16"/>
			<output>
				<port id="0" precision="FP16" names="832">
					<dim>1</dim>
					<dim>1</dim>
					<dim>1</dim>
					<dim>1</dim>
				</port>
			</output>
		</layer>
		<layer id="102" name="Constant_113" type="Const" version="opset1">
			<data offset="32634" size="2" shape="1,1,1,1" element_type="f16"/>
			<output>
				<port id="0" precision="FP16" names="833">
					<dim>1</dim>
					<dim>1</dim>
					<dim>1</dim>
					<dim>1</dim>
				</port>
			</output>
		</layer>
		<layer id="103" name="FakeQuantize_114" type="FakeQuantize" version="opset1">
			<data levels="256" auto_broadcast="numpy"/>
			<input>
				<port id="0">
					<dim>1</dim>
					<dim>24</dim>
					<dim>72</dim>
					<dim>120</dim>
				</port>
				<port id="1">
					<dim>1</dim>
					<dim>1</dim>
					<dim>1</dim>
					<dim>1</dim>
				</port>
				<port id="2">
					<dim>1</dim>
					<dim>1</dim>
					<dim>1</dim>
					<dim>1</dim>
				</port>
				<port id="3">
					<dim>1</dim>
					<dim>1</dim>
					<dim>1</dim>
					<dim>1</dim>
				</port>
				<port id="4">
					<dim>1</dim>
					<dim>1</dim>
					<dim>1</dim>
					<dim>1</dim>
				</port>
			</input>
			<output>
				<port id="5" precision="FP16" names="834">
					<dim>1</dim>
					<dim>24</dim>
					<dim>72</dim>
					<dim>120</dim>
				</port>
			</output>
		</layer>
		<layer id="104" name="Constant_742/quantized4294550469" type="Const" version="opset1">
			<data offset="32636" size="1152" shape="48,24,1,1" element_type="i8"/>
			<output>
				<port id="0" precision="I8">
					<dim>48</dim>
					<dim>24</dim>
					<dim>1</dim>
					<dim>1</dim>
				</port>
			</output>
		</layer>
		<layer id="105" name="Constant_742/quantized/to_f16" type="Convert" version="opset1">
			<data destination_type="f16"/>
			<input>
				<port id="0">
					<dim>48</dim>
					<dim>24</dim>
					<dim>1</dim>
					<dim>1</dim>
				</port>
			</input>
			<output>
				<port id="1" precision="FP16">
					<dim>48</dim>
					<dim>24</dim>
					<dim>1</dim>
					<dim>1</dim>
				</port>
			</output>
		</layer>
		<layer id="106" name="FakeQuantize_745/zero_point4296450349" type="Const" version="opset1">
			<data offset="33788" size="96" shape="48,1,1,1" element_type="f16"/>
			<output>
				<port id="0" precision="FP16">
					<dim>48</dim>
					<dim>1</dim>
					<dim>1</dim>
					<dim>1</dim>
				</port>
			</output>
		</layer>
		<layer id="107" name="FakeQuantize_745/minus_zp" type="Subtract" version="opset1">
			<data auto_broadcast="numpy"/>
			<input>
				<port id="0">
					<dim>48</dim>
					<dim>24</dim>
					<dim>1</dim>
					<dim>1</dim>
				</port>
				<port id="1">
					<dim>48</dim>
					<dim>1</dim>
					<dim>1</dim>
					<dim>1</dim>
				</port>
			</input>
			<output>
				<port id="2" precision="FP16">
					<dim>48</dim>
					<dim>24</dim>
					<dim>1</dim>
					<dim>1</dim>
				</port>
			</output>
		</layer>
		<layer id="108" name="FakeQuantize_745/scale4295351033" type="Const" version="opset1">
			<data offset="33884" size="96" shape="48,1,1,1" element_type="f16"/>
			<output>
				<port id="0" precision="FP16">
					<dim>48</dim>
					<dim>1</dim>
					<dim>1</dim>
					<dim>1</dim>
				</port>
			</output>
		</layer>
		<layer id="109" name="FakeQuantize_745/mulpiply_by_scale" type="Multiply" version="opset1">
			<data auto_broadcast="numpy"/>
			<input>
				<port id="0">
					<dim>48</dim>
					<dim>24</dim>
					<dim>1</dim>
					<dim>1</dim>
				</port>
				<port id="1">
					<dim>48</dim>
					<dim>1</dim>
					<dim>1</dim>
					<dim>1</dim>
				</port>
			</input>
			<output>
				<port id="2" precision="FP16" names="1591">
					<dim>48</dim>
					<dim>24</dim>
					<dim>1</dim>
					<dim>1</dim>
				</port>
			</output>
		</layer>
		<layer id="110" name="Conv_746" type="Convolution" version="opset1">
			<data auto_pad="explicit" strides="1,1" dilations="1,1" pads_begin="0,0" pads_end="0,0"/>
			<input>
				<port id="0">
					<dim>1</dim>
					<dim>24</dim>
					<dim>72</dim>
					<dim>120</dim>
				</port>
				<port id="1">
					<dim>48</dim>
					<dim>24</dim>
					<dim>1</dim>
					<dim>1</dim>
				</port>
			</input>
			<output>
				<port id="2" precision="FP16">
					<dim>1</dim>
					<dim>48</dim>
					<dim>72</dim>
					<dim>120</dim>
				</port>
			</output>
		</layer>
		<layer id="111" name="BatchNormalization_747/variance/Fused_Add_" type="Add" version="opset1">
			<data auto_broadcast="numpy"/>
			<input>
				<port id="0">
					<dim>1</dim>
					<dim>48</dim>
					<dim>72</dim>
					<dim>120</dim>
				</port>
				<port id="1">
					<dim>1</dim>
					<dim>48</dim>
					<dim>1</dim>
					<dim>1</dim>
				</port>
			</input>
			<output>
				<port id="2" precision="FP16" names="1593">
					<dim>1</dim>
					<dim>48</dim>
					<dim>72</dim>
					<dim>120</dim>
				</port>
			</output>
		</layer>
		<layer id="112" name="Constant_749" type="Const" version="opset1">
			<data offset="1188" size="2" shape="1,1,1,1" element_type="f16"/>
			<output>
				<port id="0" precision="FP16" names="1595">
					<dim>1</dim>
					<dim>1</dim>
					<dim>1</dim>
					<dim>1</dim>
				</port>
			</output>
		</layer>
		<layer id="113" name="Constant_750" type="Const" version="opset1">
			<data offset="33980" size="2" shape="1,1,1,1" element_type="f16"/>
			<output>
				<port id="0" precision="FP16" names="1596">
					<dim>1</dim>
					<dim>1</dim>
					<dim>1</dim>
					<dim>1</dim>
				</port>
			</output>
		</layer>
		<layer id="114" name="Constant_74951579" type="Const" version="opset1">
			<data offset="1188" size="2" shape="1,1,1,1" element_type="f16"/>
			<output>
				<port id="0" precision="FP16" names="1595">
					<dim>1</dim>
					<dim>1</dim>
					<dim>1</dim>
					<dim>1</dim>
				</port>
			</output>
		</layer>
		<layer id="115" name="Constant_75050925" type="Const" version="opset1">
			<data offset="33980" size="2" shape="1,1,1,1" element_type="f16"/>
			<output>
				<port id="0" precision="FP16" names="1596">
					<dim>1</dim>
					<dim>1</dim>
					<dim>1</dim>
					<dim>1</dim>
				</port>
			</output>
		</layer>
		<layer id="116" name="FakeQuantize_751" type="FakeQuantize" version="opset1">
			<data levels="256" auto_broadcast="numpy"/>
			<input>
				<port id="0">
					<dim>1</dim>
					<dim>48</dim>
					<dim>72</dim>
					<dim>120</dim>
				</port>
				<port id="1">
					<dim>1</dim>
					<dim>1</dim>
					<dim>1</dim>
					<dim>1</dim>
				</port>
				<port id="2">
					<dim>1</dim>
					<dim>1</dim>
					<dim>1</dim>
					<dim>1</dim>
				</port>
				<port id="3">
					<dim>1</dim>
					<dim>1</dim>
					<dim>1</dim>
					<dim>1</dim>
				</port>
				<port id="4">
					<dim>1</dim>
					<dim>1</dim>
					<dim>1</dim>
					<dim>1</dim>
				</port>
			</input>
			<output>
				<port id="5" precision="FP16" names="1597">
					<dim>1</dim>
					<dim>48</dim>
					<dim>72</dim>
					<dim>120</dim>
				</port>
			</output>
		</layer>
		<layer id="117" name="Resize_770/axis1137850430" type="Const" version="opset1">
			<data offset="0" size="16" shape="2" element_type="i64"/>
			<output>
				<port id="0" precision="I64">
					<dim>2</dim>
				</port>
			</output>
		</layer>
		<layer id="118" name="Resize_770/Add_input_port_1/value1138251177" type="Const" version="opset1">
			<data offset="16" size="4" shape="1" element_type="f32"/>
			<output>
				<port id="0" precision="FP32">
					<dim>1</dim>
				</port>
			</output>
		</layer>
		<layer id="119" name="data_add_2400224007" type="Const" version="opset1">
			<data offset="33982" size="512" shape="1,256,1,1" element_type="f16"/>
			<output>
				<port id="0" precision="FP16">
					<dim>1</dim>
					<dim>256</dim>
					<dim>1</dim>
					<dim>1</dim>
				</port>
			</output>
		</layer>
		<layer id="120" name="data_add_2399423999" type="Const" version="opset1">
			<data offset="34494" size="512" shape="1,256,1,1" element_type="f16"/>
			<output>
				<port id="0" precision="FP16">
					<dim>1</dim>
					<dim>256</dim>
					<dim>1</dim>
					<dim>1</dim>
				</port>
			</output>
		</layer>
		<layer id="121" name="data_add_2395423959" type="Const" version="opset1">
			<data offset="35006" size="640" shape="1,320,1,1" element_type="f16"/>
			<output>
				<port id="0" precision="FP16">
					<dim>1</dim>
					<dim>320</dim>
					<dim>1</dim>
					<dim>1</dim>
				</port>
			</output>
		</layer>
		<layer id="122" name="Constant_647" type="Const" version="opset1">
			<data offset="1188" size="2" shape="1,1,1,1" element_type="f16"/>
			<output>
				<port id="0" precision="FP16" names="1493">
					<dim>1</dim>
					<dim>1</dim>
					<dim>1</dim>
					<dim>1</dim>
				</port>
			</output>
		</layer>
		<layer id="123" name="Constant_64850880" type="Const" version="opset1">
			<data offset="35646" size="2" shape="1,1,1,1" element_type="f16"/>
			<output>
				<port id="0" precision="FP16" names="1494">
					<dim>1</dim>
					<dim>1</dim>
					<dim>1</dim>
					<dim>1</dim>
				</port>
			</output>
		</layer>
		<layer id="124" name="Constant_64751462" type="Const" version="opset1">
			<data offset="1188" size="2" shape="1,1,1,1" element_type="f16"/>
			<output>
				<port id="0" precision="FP16" names="1493">
					<dim>1</dim>
					<dim>1</dim>
					<dim>1</dim>
					<dim>1</dim>
				</port>
			</output>
		</layer>
		<layer id="125" name="Constant_648" type="Const" version="opset1">
			<data offset="35646" size="2" shape="1,1,1,1" element_type="f16"/>
			<output>
				<port id="0" precision="FP16" names="1494">
					<dim>1</dim>
					<dim>1</dim>
					<dim>1</dim>
					<dim>1</dim>
				</port>
			</output>
		</layer>
		<layer id="126" name="data_add_2394623951" type="Const" version="opset1">
			<data offset="35648" size="1920" shape="1,960,1,1" element_type="f16"/>
			<output>
				<port id="0" precision="FP16">
					<dim>1</dim>
					<dim>960</dim>
					<dim>1</dim>
					<dim>1</dim>
				</port>
			</output>
		</layer>
		<layer id="127" name="Constant_63950868" type="Const" version="opset1">
			<data offset="37568" size="1920" shape="1,960,1,1" element_type="f16"/>
			<output>
				<port id="0" precision="FP16" names="1485">
					<dim>1</dim>
					<dim>960</dim>
					<dim>1</dim>
					<dim>1</dim>
				</port>
			</output>
		</layer>
		<layer id="128" name="Constant_639" type="Const" version="opset1">
			<data offset="37568" size="1920" shape="1,960,1,1" element_type="f16"/>
			<output>
				<port id="0" precision="FP16" names="1485">
					<dim>1</dim>
					<dim>960</dim>
					<dim>1</dim>
					<dim>1</dim>
				</port>
			</output>
		</layer>
		<layer id="129" name="Constant_640" type="Const" version="opset1">
			<data offset="39488" size="1920" shape="1,960,1,1" element_type="f16"/>
			<output>
				<port id="0" precision="FP16" names="1486">
					<dim>1</dim>
					<dim>960</dim>
					<dim>1</dim>
					<dim>1</dim>
				</port>
			</output>
		</layer>
		<layer id="130" name="Constant_64051162" type="Const" version="opset1">
			<data offset="39488" size="1920" shape="1,960,1,1" element_type="f16"/>
			<output>
				<port id="0" precision="FP16" names="1486">
					<dim>1</dim>
					<dim>960</dim>
					<dim>1</dim>
					<dim>1</dim>
				</port>
			</output>
		</layer>
		<layer id="131" name="data_add_2393823943" type="Const" version="opset1">
			<data offset="41408" size="1920" shape="1,960,1,1" element_type="f16"/>
			<output>
				<port id="0" precision="FP16">
					<dim>1</dim>
					<dim>960</dim>
					<dim>1</dim>
					<dim>1</dim>
				</port>
			</output>
		</layer>
		<layer id="132" name="data_add_2388223887" type="Const" version="opset1">
			<data offset="43328" size="320" shape="1,160,1,1" element_type="f16"/>
			<output>
				<port id="0" precision="FP16">
					<dim>1</dim>
					<dim>160</dim>
					<dim>1</dim>
					<dim>1</dim>
				</port>
			</output>
		</layer>
		<layer id="133" name="Constant_531" type="Const" version="opset1">
			<data offset="1188" size="2" shape="1,1,1,1" element_type="f16"/>
			<output>
				<port id="0" precision="FP16" names="1350">
					<dim>1</dim>
					<dim>1</dim>
					<dim>1</dim>
					<dim>1</dim>
				</port>
			</output>
		</layer>
		<layer id="134" name="Constant_532" type="Const" version="opset1">
			<data offset="43648" size="2" shape="1,1,1,1" element_type="f16"/>
			<output>
				<port id="0" precision="FP16" names="1351">
					<dim>1</dim>
					<dim>1</dim>
					<dim>1</dim>
					<dim>1</dim>
				</port>
			</output>
		</layer>
		<layer id="135" name="Constant_53150973" type="Const" version="opset1">
			<data offset="1188" size="2" shape="1,1,1,1" element_type="f16"/>
			<output>
				<port id="0" precision="FP16" names="1350">
					<dim>1</dim>
					<dim>1</dim>
					<dim>1</dim>
					<dim>1</dim>
				</port>
			</output>
		</layer>
		<layer id="136" name="Constant_53251300" type="Const" version="opset1">
			<data offset="43648" size="2" shape="1,1,1,1" element_type="f16"/>
			<output>
				<port id="0" precision="FP16" names="1351">
					<dim>1</dim>
					<dim>1</dim>
					<dim>1</dim>
					<dim>1</dim>
				</port>
			</output>
		</layer>
		<layer id="137" name="data_add_2387423879" type="Const" version="opset1">
			<data offset="43650" size="1152" shape="1,576,1,1" element_type="f16"/>
			<output>
				<port id="0" precision="FP16">
					<dim>1</dim>
					<dim>576</dim>
					<dim>1</dim>
					<dim>1</dim>
				</port>
			</output>
		</layer>
		<layer id="138" name="Constant_52351288" type="Const" version="opset1">
			<data offset="44802" size="1152" shape="1,576,1,1" element_type="f16"/>
			<output>
				<port id="0" precision="FP16" names="1342">
					<dim>1</dim>
					<dim>576</dim>
					<dim>1</dim>
					<dim>1</dim>
				</port>
			</output>
		</layer>
		<layer id="139" name="Constant_523" type="Const" version="opset1">
			<data offset="44802" size="1152" shape="1,576,1,1" element_type="f16"/>
			<output>
				<port id="0" precision="FP16" names="1342">
					<dim>1</dim>
					<dim>576</dim>
					<dim>1</dim>
					<dim>1</dim>
				</port>
			</output>
		</layer>
		<layer id="140" name="Constant_52451219" type="Const" version="opset1">
			<data offset="45954" size="1152" shape="1,576,1,1" element_type="f16"/>
			<output>
				<port id="0" precision="FP16" names="1343">
					<dim>1</dim>
					<dim>576</dim>
					<dim>1</dim>
					<dim>1</dim>
				</port>
			</output>
		</layer>
		<layer id="141" name="Constant_524" type="Const" version="opset1">
			<data offset="45954" size="1152" shape="1,576,1,1" element_type="f16"/>
			<output>
				<port id="0" precision="FP16" names="1343">
					<dim>1</dim>
					<dim>576</dim>
					<dim>1</dim>
					<dim>1</dim>
				</port>
			</output>
		</layer>
		<layer id="142" name="data_add_2386623871" type="Const" version="opset1">
			<data offset="47106" size="1152" shape="1,576,1,1" element_type="f16"/>
			<output>
				<port id="0" precision="FP16">
					<dim>1</dim>
					<dim>576</dim>
					<dim>1</dim>
					<dim>1</dim>
				</port>
			</output>
		</layer>
		<layer id="143" name="data_add_2381023815" type="Const" version="opset1">
			<data offset="48258" size="192" shape="1,96,1,1" element_type="f16"/>
			<output>
				<port id="0" precision="FP16">
					<dim>1</dim>
					<dim>96</dim>
					<dim>1</dim>
					<dim>1</dim>
				</port>
			</output>
		</layer>
		<layer id="144" name="Constant_41551543" type="Const" version="opset1">
			<data offset="1188" size="2" shape="1,1,1,1" element_type="f16"/>
			<output>
				<port id="0" precision="FP16" names="1207">
					<dim>1</dim>
					<dim>1</dim>
					<dim>1</dim>
					<dim>1</dim>
				</port>
			</output>
		</layer>
		<layer id="145" name="Constant_416" type="Const" version="opset1">
			<data offset="48450" size="2" shape="1,1,1,1" element_type="f16"/>
			<output>
				<port id="0" precision="FP16" names="1208">
					<dim>1</dim>
					<dim>1</dim>
					<dim>1</dim>
					<dim>1</dim>
				</port>
			</output>
		</layer>
		<layer id="146" name="Constant_415" type="Const" version="opset1">
			<data offset="1188" size="2" shape="1,1,1,1" element_type="f16"/>
			<output>
				<port id="0" precision="FP16" names="1207">
					<dim>1</dim>
					<dim>1</dim>
					<dim>1</dim>
					<dim>1</dim>
				</port>
			</output>
		</layer>
		<layer id="147" name="Constant_41651381" type="Const" version="opset1">
			<data offset="48450" size="2" shape="1,1,1,1" element_type="f16"/>
			<output>
				<port id="0" precision="FP16" names="1208">
					<dim>1</dim>
					<dim>1</dim>
					<dim>1</dim>
					<dim>1</dim>
				</port>
			</output>
		</layer>
		<layer id="148" name="data_add_2380223807" type="Const" version="opset1">
			<data offset="48452" size="768" shape="1,384,1,1" element_type="f16"/>
			<output>
				<port id="0" precision="FP16">
					<dim>1</dim>
					<dim>384</dim>
					<dim>1</dim>
					<dim>1</dim>
				</port>
			</output>
		</layer>
		<layer id="149" name="Constant_40750997" type="Const" version="opset1">
			<data offset="49220" size="768" shape="1,384,1,1" element_type="f16"/>
			<output>
				<port id="0" precision="FP16" names="1199">
					<dim>1</dim>
					<dim>384</dim>
					<dim>1</dim>
					<dim>1</dim>
				</port>
			</output>
		</layer>
		<layer id="150" name="Constant_407" type="Const" version="opset1">
			<data offset="49220" size="768" shape="1,384,1,1" element_type="f16"/>
			<output>
				<port id="0" precision="FP16" names="1199">
					<dim>1</dim>
					<dim>384</dim>
					<dim>1</dim>
					<dim>1</dim>
				</port>
			</output>
		</layer>
		<layer id="151" name="Constant_40850697" type="Const" version="opset1">
			<data offset="49988" size="768" shape="1,384,1,1" element_type="f16"/>
			<output>
				<port id="0" precision="FP16" names="1200">
					<dim>1</dim>
					<dim>384</dim>
					<dim>1</dim>
					<dim>1</dim>
				</port>
			</output>
		</layer>
		<layer id="152" name="Constant_408" type="Const" version="opset1">
			<data offset="49988" size="768" shape="1,384,1,1" element_type="f16"/>
			<output>
				<port id="0" precision="FP16" names="1200">
					<dim>1</dim>
					<dim>384</dim>
					<dim>1</dim>
					<dim>1</dim>
				</port>
			</output>
		</layer>
		<layer id="153" name="data_add_2379423799" type="Const" version="opset1">
			<data offset="50756" size="768" shape="1,384,1,1" element_type="f16"/>
			<output>
				<port id="0" precision="FP16">
					<dim>1</dim>
					<dim>384</dim>
					<dim>1</dim>
					<dim>1</dim>
				</port>
			</output>
		</layer>
		<layer id="154" name="data_add_2371423719" type="Const" version="opset1">
			<data offset="51524" size="128" shape="1,64,1,1" element_type="f16"/>
			<output>
				<port id="0" precision="FP16">
					<dim>1</dim>
					<dim>64</dim>
					<dim>1</dim>
					<dim>1</dim>
				</port>
			</output>
		</layer>
		<layer id="155" name="Constant_25950808" type="Const" version="opset1">
			<data offset="1188" size="2" shape="1,1,1,1" element_type="f16"/>
			<output>
				<port id="0" precision="FP16" names="1015">
					<dim>1</dim>
					<dim>1</dim>
					<dim>1</dim>
					<dim>1</dim>
				</port>
			</output>
		</layer>
		<layer id="156" name="Constant_260" type="Const" version="opset1">
			<data offset="51652" size="2" shape="1,1,1,1" element_type="f16"/>
			<output>
				<port id="0" precision="FP16" names="1016">
					<dim>1</dim>
					<dim>1</dim>
					<dim>1</dim>
					<dim>1</dim>
				</port>
			</output>
		</layer>
		<layer id="157" name="Constant_259" type="Const" version="opset1">
			<data offset="1188" size="2" shape="1,1,1,1" element_type="f16"/>
			<output>
				<port id="0" precision="FP16" names="1015">
					<dim>1</dim>
					<dim>1</dim>
					<dim>1</dim>
					<dim>1</dim>
				</port>
			</output>
		</layer>
		<layer id="158" name="Constant_26051486" type="Const" version="opset1">
			<data offset="51652" size="2" shape="1,1,1,1" element_type="f16"/>
			<output>
				<port id="0" precision="FP16" names="1016">
					<dim>1</dim>
					<dim>1</dim>
					<dim>1</dim>
					<dim>1</dim>
				</port>
			</output>
		</layer>
		<layer id="159" name="data_add_2370623711" type="Const" version="opset1">
			<data offset="51654" size="384" shape="1,192,1,1" element_type="f16"/>
			<output>
				<port id="0" precision="FP16">
					<dim>1</dim>
					<dim>192</dim>
					<dim>1</dim>
					<dim>1</dim>
				</port>
			</output>
		</layer>
		<layer id="160" name="Constant_25151360" type="Const" version="opset1">
			<data offset="52038" size="384" shape="1,192,1,1" element_type="f16"/>
			<output>
				<port id="0" precision="FP16" names="1007">
					<dim>1</dim>
					<dim>192</dim>
					<dim>1</dim>
					<dim>1</dim>
				</port>
			</output>
		</layer>
		<layer id="161" name="Constant_251" type="Const" version="opset1">
			<data offset="52038" size="384" shape="1,192,1,1" element_type="f16"/>
			<output>
				<port id="0" precision="FP16" names="1007">
					<dim>1</dim>
					<dim>192</dim>
					<dim>1</dim>
					<dim>1</dim>
				</port>
			</output>
		</layer>
		<layer id="162" name="Constant_25251450" type="Const" version="opset1">
			<data offset="52422" size="384" shape="1,192,1,1" element_type="f16"/>
			<output>
				<port id="0" precision="FP16" names="1008">
					<dim>1</dim>
					<dim>192</dim>
					<dim>1</dim>
					<dim>1</dim>
				</port>
			</output>
		</layer>
		<layer id="163" name="Constant_252" type="Const" version="opset1">
			<data offset="52422" size="384" shape="1,192,1,1" element_type="f16"/>
			<output>
				<port id="0" precision="FP16" names="1008">
					<dim>1</dim>
					<dim>192</dim>
					<dim>1</dim>
					<dim>1</dim>
				</port>
			</output>
		</layer>
		<layer id="164" name="data_add_2369823703" type="Const" version="opset1">
			<data offset="52806" size="384" shape="1,192,1,1" element_type="f16"/>
			<output>
				<port id="0" precision="FP16">
					<dim>1</dim>
					<dim>192</dim>
					<dim>1</dim>
					<dim>1</dim>
				</port>
			</output>
		</layer>
		<layer id="165" name="data_add_2364223647" type="Const" version="opset1">
			<data offset="53190" size="64" shape="1,32,1,1" element_type="f16"/>
			<output>
				<port id="0" precision="FP16">
					<dim>1</dim>
					<dim>32</dim>
					<dim>1</dim>
					<dim>1</dim>
				</port>
			</output>
		</layer>
		<layer id="166" name="Constant_143" type="Const" version="opset1">
			<data offset="1188" size="2" shape="1,1,1,1" element_type="f16"/>
			<output>
				<port id="0" precision="FP16" names="872">
					<dim>1</dim>
					<dim>1</dim>
					<dim>1</dim>
					<dim>1</dim>
				</port>
			</output>
		</layer>
		<layer id="167" name="Constant_144" type="Const" version="opset1">
			<data offset="53254" size="2" shape="1,1,1,1" element_type="f16"/>
			<output>
				<port id="0" precision="FP16" names="873">
					<dim>1</dim>
					<dim>1</dim>
					<dim>1</dim>
					<dim>1</dim>
				</port>
			</output>
		</layer>
		<layer id="168" name="Constant_14351393" type="Const" version="opset1">
			<data offset="1188" size="2" shape="1,1,1,1" element_type="f16"/>
			<output>
				<port id="0" precision="FP16" names="872">
					<dim>1</dim>
					<dim>1</dim>
					<dim>1</dim>
					<dim>1</dim>
				</port>
			</output>
		</layer>
		<layer id="169" name="Constant_14451030" type="Const" version="opset1">
			<data offset="53254" size="2" shape="1,1,1,1" element_type="f16"/>
			<output>
				<port id="0" precision="FP16" names="873">
					<dim>1</dim>
					<dim>1</dim>
					<dim>1</dim>
					<dim>1</dim>
				</port>
			</output>
		</layer>
		<layer id="170" name="data_add_2363423639" type="Const" version="opset1">
			<data offset="53256" size="288" shape="1,144,1,1" element_type="f16"/>
			<output>
				<port id="0" precision="FP16">
					<dim>1</dim>
					<dim>144</dim>
					<dim>1</dim>
					<dim>1</dim>
				</port>
			</output>
		</layer>
		<layer id="171" name="Constant_13550304" type="Const" version="opset1">
			<data offset="15348" size="288" shape="1,144,1,1" element_type="f16"/>
			<output>
				<port id="0" precision="FP16" names="864">
					<dim>1</dim>
					<dim>144</dim>
					<dim>1</dim>
					<dim>1</dim>
				</port>
			</output>
		</layer>
		<layer id="172" name="Constant_135" type="Const" version="opset1">
			<data offset="15348" size="288" shape="1,144,1,1" element_type="f16"/>
			<output>
				<port id="0" precision="FP16" names="864">
					<dim>1</dim>
					<dim>144</dim>
					<dim>1</dim>
					<dim>1</dim>
				</port>
			</output>
		</layer>
		<layer id="173" name="Constant_13650661" type="Const" version="opset1">
			<data offset="53544" size="288" shape="1,144,1,1" element_type="f16"/>
			<output>
				<port id="0" precision="FP16" names="865">
					<dim>1</dim>
					<dim>144</dim>
					<dim>1</dim>
					<dim>1</dim>
				</port>
			</output>
		</layer>
		<layer id="174" name="Constant_136" type="Const" version="opset1">
			<data offset="53544" size="288" shape="1,144,1,1" element_type="f16"/>
			<output>
				<port id="0" precision="FP16" names="865">
					<dim>1</dim>
					<dim>144</dim>
					<dim>1</dim>
					<dim>1</dim>
				</port>
			</output>
		</layer>
		<layer id="175" name="data_add_2362623631" type="Const" version="opset1">
			<data offset="53832" size="288" shape="1,144,1,1" element_type="f16"/>
			<output>
				<port id="0" precision="FP16">
					<dim>1</dim>
					<dim>144</dim>
					<dim>1</dim>
					<dim>1</dim>
				</port>
			</output>
		</layer>
		<layer id="176" name="BatchNormalization_131/mean/Fused_Mul__copy" type="Const" version="opset1">
			<data offset="54120" size="6912" shape="144,24,1,1" element_type="f16"/>
			<output>
				<port id="0" precision="FP16" names="nncf_module.backbone.features.4.conv.0.weight">
					<dim>144</dim>
					<dim>24</dim>
					<dim>1</dim>
					<dim>1</dim>
				</port>
			</output>
		</layer>
		<layer id="177" name="Conv_130" type="Convolution" version="opset1">
			<data auto_pad="explicit" strides="1,1" dilations="1,1" pads_begin="1,1" pads_end="1,1"/>
			<input>
				<port id="0">
					<dim>1</dim>
					<dim>24</dim>
					<dim>72</dim>
					<dim>120</dim>
				</port>
				<port id="1">
					<dim>144</dim>
					<dim>24</dim>
					<dim>1</dim>
					<dim>1</dim>
				</port>
			</input>
			<output>
				<port id="2" precision="FP16">
					<dim>1</dim>
					<dim>144</dim>
					<dim>74</dim>
					<dim>122</dim>
				</port>
			</output>
		</layer>
		<layer id="178" name="BatchNormalization_131/variance/Fused_Add_" type="Add" version="opset1">
			<data auto_broadcast="numpy"/>
			<input>
				<port id="0">
					<dim>1</dim>
					<dim>144</dim>
					<dim>74</dim>
					<dim>122</dim>
				</port>
				<port id="1">
					<dim>1</dim>
					<dim>144</dim>
					<dim>1</dim>
					<dim>1</dim>
				</port>
			</input>
			<output>
				<port id="2" precision="FP16" names="860">
					<dim>1</dim>
					<dim>144</dim>
					<dim>74</dim>
					<dim>122</dim>
				</port>
			</output>
		</layer>
		<layer id="179" name="Clip_134" type="Clamp" version="opset1">
			<data max="6.0" min="0.0"/>
			<input>
				<port id="0">
					<dim>1</dim>
					<dim>144</dim>
					<dim>74</dim>
					<dim>122</dim>
				</port>
			</input>
			<output>
				<port id="1" precision="FP16" names="863">
					<dim>1</dim>
					<dim>144</dim>
					<dim>74</dim>
					<dim>122</dim>
				</port>
			</output>
		</layer>
		<layer id="180" name="FakeQuantize_137" type="FakeQuantize" version="opset1">
			<data levels="256" auto_broadcast="numpy"/>
			<input>
				<port id="0">
					<dim>1</dim>
					<dim>144</dim>
					<dim>74</dim>
					<dim>122</dim>
				</port>
				<port id="1">
					<dim>1</dim>
					<dim>144</dim>
					<dim>1</dim>
					<dim>1</dim>
				</port>
				<port id="2">
					<dim>1</dim>
					<dim>144</dim>
					<dim>1</dim>
					<dim>1</dim>
				</port>
				<port id="3">
					<dim>1</dim>
					<dim>144</dim>
					<dim>1</dim>
					<dim>1</dim>
				</port>
				<port id="4">
					<dim>1</dim>
					<dim>144</dim>
					<dim>1</dim>
					<dim>1</dim>
				</port>
			</input>
			<output>
				<port id="5" precision="FP16" names="866">
					<dim>1</dim>
					<dim>144</dim>
					<dim>74</dim>
					<dim>122</dim>
				</port>
			</output>
		</layer>
		<layer id="181" name="BatchNormalization_139/mean/Fused_Mul__copy" type="Const" version="opset1">
			<data offset="61032" size="2592" shape="144,1,1,3,3" element_type="f16"/>
			<output>
				<port id="0" precision="FP16" names="nncf_module.backbone.features.4.conv.3.weight">
					<dim>144</dim>
					<dim>1</dim>
					<dim>1</dim>
					<dim>3</dim>
					<dim>3</dim>
				</port>
			</output>
		</layer>
		<layer id="182" name="Conv_138" type="GroupConvolution" version="opset1">
			<data auto_pad="explicit" strides="2,2" dilations="1,1" pads_begin="0,0" pads_end="0,0"/>
			<input>
				<port id="0">
					<dim>1</dim>
					<dim>144</dim>
					<dim>74</dim>
					<dim>122</dim>
				</port>
				<port id="1">
					<dim>144</dim>
					<dim>1</dim>
					<dim>1</dim>
					<dim>3</dim>
					<dim>3</dim>
				</port>
			</input>
			<output>
				<port id="2" precision="FP16">
					<dim>1</dim>
					<dim>144</dim>
					<dim>36</dim>
					<dim>60</dim>
				</port>
			</output>
		</layer>
		<layer id="183" name="BatchNormalization_139/variance/Fused_Add_" type="Add" version="opset1">
			<data auto_broadcast="numpy"/>
			<input>
				<port id="0">
					<dim>1</dim>
					<dim>144</dim>
					<dim>36</dim>
					<dim>60</dim>
				</port>
				<port id="1">
					<dim>1</dim>
					<dim>144</dim>
					<dim>1</dim>
					<dim>1</dim>
				</port>
			</input>
			<output>
				<port id="2" precision="FP16" names="868">
					<dim>1</dim>
					<dim>144</dim>
					<dim>36</dim>
					<dim>60</dim>
				</port>
			</output>
		</layer>
		<layer id="184" name="Clip_142" type="Clamp" version="opset1">
			<data max="6.0" min="0.0"/>
			<input>
				<port id="0">
					<dim>1</dim>
					<dim>144</dim>
					<dim>36</dim>
					<dim>60</dim>
				</port>
			</input>
			<output>
				<port id="1" precision="FP16" names="871">
					<dim>1</dim>
					<dim>144</dim>
					<dim>36</dim>
					<dim>60</dim>
				</port>
			</output>
		</layer>
		<layer id="185" name="FakeQuantize_145" type="FakeQuantize" version="opset1">
			<data levels="256" auto_broadcast="numpy"/>
			<input>
				<port id="0">
					<dim>1</dim>
					<dim>144</dim>
					<dim>36</dim>
					<dim>60</dim>
				</port>
				<port id="1">
					<dim>1</dim>
					<dim>1</dim>
					<dim>1</dim>
					<dim>1</dim>
				</port>
				<port id="2">
					<dim>1</dim>
					<dim>1</dim>
					<dim>1</dim>
					<dim>1</dim>
				</port>
				<port id="3">
					<dim>1</dim>
					<dim>1</dim>
					<dim>1</dim>
					<dim>1</dim>
				</port>
				<port id="4">
					<dim>1</dim>
					<dim>1</dim>
					<dim>1</dim>
					<dim>1</dim>
				</port>
			</input>
			<output>
				<port id="5" precision="FP16" names="874">
					<dim>1</dim>
					<dim>144</dim>
					<dim>36</dim>
					<dim>60</dim>
				</port>
			</output>
		</layer>
		<layer id="186" name="BatchNormalization_147/mean/Fused_Mul__copy" type="Const" version="opset1">
			<data offset="63624" size="9216" shape="32,144,1,1" element_type="f16"/>
			<output>
				<port id="0" precision="FP16" names="nncf_module.backbone.features.4.conv.6.weight">
					<dim>32</dim>
					<dim>144</dim>
					<dim>1</dim>
					<dim>1</dim>
				</port>
			</output>
		</layer>
		<layer id="187" name="Conv_146" type="Convolution" version="opset1">
			<data auto_pad="explicit" strides="1,1" dilations="1,1" pads_begin="0,0" pads_end="0,0"/>
			<input>
				<port id="0">
					<dim>1</dim>
					<dim>144</dim>
					<dim>36</dim>
					<dim>60</dim>
				</port>
				<port id="1">
					<dim>32</dim>
					<dim>144</dim>
					<dim>1</dim>
					<dim>1</dim>
				</port>
			</input>
			<output>
				<port id="2" precision="FP16">
					<dim>1</dim>
					<dim>32</dim>
					<dim>36</dim>
					<dim>60</dim>
				</port>
			</output>
		</layer>
		<layer id="188" name="BatchNormalization_147/variance/Fused_Add_" type="Add" version="opset1">
			<data auto_broadcast="numpy"/>
			<input>
				<port id="0">
					<dim>1</dim>
					<dim>32</dim>
					<dim>36</dim>
					<dim>60</dim>
				</port>
				<port id="1">
					<dim>1</dim>
					<dim>32</dim>
					<dim>1</dim>
					<dim>1</dim>
				</port>
			</input>
			<output>
				<port id="2" precision="FP16" names="876">
					<dim>1</dim>
					<dim>32</dim>
					<dim>36</dim>
					<dim>60</dim>
				</port>
			</output>
		</layer>
		<layer id="189" name="Constant_14851600" type="Const" version="opset1">
			<data offset="72840" size="2" shape="1,1,1,1" element_type="f16"/>
			<output>
				<port id="0" precision="FP16" names="877">
					<dim>1</dim>
					<dim>1</dim>
					<dim>1</dim>
					<dim>1</dim>
				</port>
			</output>
		</layer>
		<layer id="190" name="Constant_14951315" type="Const" version="opset1">
			<data offset="72842" size="2" shape="1,1,1,1" element_type="f16"/>
			<output>
				<port id="0" precision="FP16" names="878">
					<dim>1</dim>
					<dim>1</dim>
					<dim>1</dim>
					<dim>1</dim>
				</port>
			</output>
		</layer>
		<layer id="191" name="Constant_148" type="Const" version="opset1">
			<data offset="72840" size="2" shape="1,1,1,1" element_type="f16"/>
			<output>
				<port id="0" precision="FP16" names="877">
					<dim>1</dim>
					<dim>1</dim>
					<dim>1</dim>
					<dim>1</dim>
				</port>
			</output>
		</layer>
		<layer id="192" name="Constant_149" type="Const" version="opset1">
			<data offset="72842" size="2" shape="1,1,1,1" element_type="f16"/>
			<output>
				<port id="0" precision="FP16" names="878">
					<dim>1</dim>
					<dim>1</dim>
					<dim>1</dim>
					<dim>1</dim>
				</port>
			</output>
		</layer>
		<layer id="193" name="FakeQuantize_150" type="FakeQuantize" version="opset1">
			<data levels="256" auto_broadcast="numpy"/>
			<input>
				<port id="0">
					<dim>1</dim>
					<dim>32</dim>
					<dim>36</dim>
					<dim>60</dim>
				</port>
				<port id="1">
					<dim>1</dim>
					<dim>1</dim>
					<dim>1</dim>
					<dim>1</dim>
				</port>
				<port id="2">
					<dim>1</dim>
					<dim>1</dim>
					<dim>1</dim>
					<dim>1</dim>
				</port>
				<port id="3">
					<dim>1</dim>
					<dim>1</dim>
					<dim>1</dim>
					<dim>1</dim>
				</port>
				<port id="4">
					<dim>1</dim>
					<dim>1</dim>
					<dim>1</dim>
					<dim>1</dim>
				</port>
			</input>
			<output>
				<port id="5" precision="FP16" names="879">
					<dim>1</dim>
					<dim>32</dim>
					<dim>36</dim>
					<dim>60</dim>
				</port>
			</output>
		</layer>
		<layer id="194" name="data_add_2366623671" type="Const" version="opset1">
			<data offset="72844" size="64" shape="1,32,1,1" element_type="f16"/>
			<output>
				<port id="0" precision="FP16">
					<dim>1</dim>
					<dim>32</dim>
					<dim>1</dim>
					<dim>1</dim>
				</port>
			</output>
		</layer>
		<layer id="195" name="Constant_17951558" type="Const" version="opset1">
			<data offset="1188" size="2" shape="1,1,1,1" element_type="f16"/>
			<output>
				<port id="0" precision="FP16" names="917">
					<dim>1</dim>
					<dim>1</dim>
					<dim>1</dim>
					<dim>1</dim>
				</port>
			</output>
		</layer>
		<layer id="196" name="Constant_18051405" type="Const" version="opset1">
			<data offset="72908" size="2" shape="1,1,1,1" element_type="f16"/>
			<output>
				<port id="0" precision="FP16" names="918">
					<dim>1</dim>
					<dim>1</dim>
					<dim>1</dim>
					<dim>1</dim>
				</port>
			</output>
		</layer>
		<layer id="197" name="Constant_179" type="Const" version="opset1">
			<data offset="1188" size="2" shape="1,1,1,1" element_type="f16"/>
			<output>
				<port id="0" precision="FP16" names="917">
					<dim>1</dim>
					<dim>1</dim>
					<dim>1</dim>
					<dim>1</dim>
				</port>
			</output>
		</layer>
		<layer id="198" name="Constant_180" type="Const" version="opset1">
			<data offset="72908" size="2" shape="1,1,1,1" element_type="f16"/>
			<output>
				<port id="0" precision="FP16" names="918">
					<dim>1</dim>
					<dim>1</dim>
					<dim>1</dim>
					<dim>1</dim>
				</port>
			</output>
		</layer>
		<layer id="199" name="data_add_2365823663" type="Const" version="opset1">
			<data offset="72910" size="384" shape="1,192,1,1" element_type="f16"/>
			<output>
				<port id="0" precision="FP16">
					<dim>1</dim>
					<dim>192</dim>
					<dim>1</dim>
					<dim>1</dim>
				</port>
			</output>
		</layer>
		<layer id="200" name="Constant_17151504" type="Const" version="opset1">
			<data offset="52038" size="384" shape="1,192,1,1" element_type="f16"/>
			<output>
				<port id="0" precision="FP16" names="909">
					<dim>1</dim>
					<dim>192</dim>
					<dim>1</dim>
					<dim>1</dim>
				</port>
			</output>
		</layer>
		<layer id="201" name="Constant_171" type="Const" version="opset1">
			<data offset="52038" size="384" shape="1,192,1,1" element_type="f16"/>
			<output>
				<port id="0" precision="FP16" names="909">
					<dim>1</dim>
					<dim>192</dim>
					<dim>1</dim>
					<dim>1</dim>
				</port>
			</output>
		</layer>
		<layer id="202" name="Constant_17251072" type="Const" version="opset1">
			<data offset="73294" size="384" shape="1,192,1,1" element_type="f16"/>
			<output>
				<port id="0" precision="FP16" names="910">
					<dim>1</dim>
					<dim>192</dim>
					<dim>1</dim>
					<dim>1</dim>
				</port>
			</output>
		</layer>
		<layer id="203" name="Constant_172" type="Const" version="opset1">
			<data offset="73294" size="384" shape="1,192,1,1" element_type="f16"/>
			<output>
				<port id="0" precision="FP16" names="910">
					<dim>1</dim>
					<dim>192</dim>
					<dim>1</dim>
					<dim>1</dim>
				</port>
			</output>
		</layer>
		<layer id="204" name="data_add_2365023655" type="Const" version="opset1">
			<data offset="73678" size="384" shape="1,192,1,1" element_type="f16"/>
			<output>
				<port id="0" precision="FP16">
					<dim>1</dim>
					<dim>192</dim>
					<dim>1</dim>
					<dim>1</dim>
				</port>
			</output>
		</layer>
		<layer id="205" name="BatchNormalization_167/mean/Fused_Mul__copy" type="Const" version="opset1">
			<data offset="74062" size="12288" shape="192,32,1,1" element_type="f16"/>
			<output>
				<port id="0" precision="FP16" names="nncf_module.backbone.features.5.conv.0.weight">
					<dim>192</dim>
					<dim>32</dim>
					<dim>1</dim>
					<dim>1</dim>
				</port>
			</output>
		</layer>
		<layer id="206" name="Conv_166" type="Convolution" version="opset1">
			<data auto_pad="explicit" strides="1,1" dilations="1,1" pads_begin="1,1" pads_end="1,1"/>
			<input>
				<port id="0">
					<dim>1</dim>
					<dim>32</dim>
					<dim>36</dim>
					<dim>60</dim>
				</port>
				<port id="1">
					<dim>192</dim>
					<dim>32</dim>
					<dim>1</dim>
					<dim>1</dim>
				</port>
			</input>
			<output>
				<port id="2" precision="FP16">
					<dim>1</dim>
					<dim>192</dim>
					<dim>38</dim>
					<dim>62</dim>
				</port>
			</output>
		</layer>
		<layer id="207" name="BatchNormalization_167/variance/Fused_Add_" type="Add" version="opset1">
			<data auto_broadcast="numpy"/>
			<input>
				<port id="0">
					<dim>1</dim>
					<dim>192</dim>
					<dim>38</dim>
					<dim>62</dim>
				</port>
				<port id="1">
					<dim>1</dim>
					<dim>192</dim>
					<dim>1</dim>
					<dim>1</dim>
				</port>
			</input>
			<output>
				<port id="2" precision="FP16" names="905">
					<dim>1</dim>
					<dim>192</dim>
					<dim>38</dim>
					<dim>62</dim>
				</port>
			</output>
		</layer>
		<layer id="208" name="Clip_170" type="Clamp" version="opset1">
			<data max="6.0" min="0.0"/>
			<input>
				<port id="0">
					<dim>1</dim>
					<dim>192</dim>
					<dim>38</dim>
					<dim>62</dim>
				</port>
			</input>
			<output>
				<port id="1" precision="FP16" names="908">
					<dim>1</dim>
					<dim>192</dim>
					<dim>38</dim>
					<dim>62</dim>
				</port>
			</output>
		</layer>
		<layer id="209" name="FakeQuantize_173" type="FakeQuantize" version="opset1">
			<data levels="256" auto_broadcast="numpy"/>
			<input>
				<port id="0">
					<dim>1</dim>
					<dim>192</dim>
					<dim>38</dim>
					<dim>62</dim>
				</port>
				<port id="1">
					<dim>1</dim>
					<dim>192</dim>
					<dim>1</dim>
					<dim>1</dim>
				</port>
				<port id="2">
					<dim>1</dim>
					<dim>192</dim>
					<dim>1</dim>
					<dim>1</dim>
				</port>
				<port id="3">
					<dim>1</dim>
					<dim>192</dim>
					<dim>1</dim>
					<dim>1</dim>
				</port>
				<port id="4">
					<dim>1</dim>
					<dim>192</dim>
					<dim>1</dim>
					<dim>1</dim>
				</port>
			</input>
			<output>
				<port id="5" precision="FP16" names="911">
					<dim>1</dim>
					<dim>192</dim>
					<dim>38</dim>
					<dim>62</dim>
				</port>
			</output>
		</layer>
		<layer id="210" name="BatchNormalization_175/mean/Fused_Mul__copy" type="Const" version="opset1">
			<data offset="86350" size="3456" shape="192,1,1,3,3" element_type="f16"/>
			<output>
				<port id="0" precision="FP16" names="nncf_module.backbone.features.5.conv.3.weight">
					<dim>192</dim>
					<dim>1</dim>
					<dim>1</dim>
					<dim>3</dim>
					<dim>3</dim>
				</port>
			</output>
		</layer>
		<layer id="211" name="Conv_174" type="GroupConvolution" version="opset1">
			<data auto_pad="explicit" strides="1,1" dilations="1,1" pads_begin="0,0" pads_end="0,0"/>
			<input>
				<port id="0">
					<dim>1</dim>
					<dim>192</dim>
					<dim>38</dim>
					<dim>62</dim>
				</port>
				<port id="1">
					<dim>192</dim>
					<dim>1</dim>
					<dim>1</dim>
					<dim>3</dim>
					<dim>3</dim>
				</port>
			</input>
			<output>
				<port id="2" precision="FP16">
					<dim>1</dim>
					<dim>192</dim>
					<dim>36</dim>
					<dim>60</dim>
				</port>
			</output>
		</layer>
		<layer id="212" name="BatchNormalization_175/variance/Fused_Add_" type="Add" version="opset1">
			<data auto_broadcast="numpy"/>
			<input>
				<port id="0">
					<dim>1</dim>
					<dim>192</dim>
					<dim>36</dim>
					<dim>60</dim>
				</port>
				<port id="1">
					<dim>1</dim>
					<dim>192</dim>
					<dim>1</dim>
					<dim>1</dim>
				</port>
			</input>
			<output>
				<port id="2" precision="FP16" names="913">
					<dim>1</dim>
					<dim>192</dim>
					<dim>36</dim>
					<dim>60</dim>
				</port>
			</output>
		</layer>
		<layer id="213" name="Clip_178" type="Clamp" version="opset1">
			<data max="6.0" min="0.0"/>
			<input>
				<port id="0">
					<dim>1</dim>
					<dim>192</dim>
					<dim>36</dim>
					<dim>60</dim>
				</port>
			</input>
			<output>
				<port id="1" precision="FP16" names="916">
					<dim>1</dim>
					<dim>192</dim>
					<dim>36</dim>
					<dim>60</dim>
				</port>
			</output>
		</layer>
		<layer id="214" name="FakeQuantize_181" type="FakeQuantize" version="opset1">
			<data levels="256" auto_broadcast="numpy"/>
			<input>
				<port id="0">
					<dim>1</dim>
					<dim>192</dim>
					<dim>36</dim>
					<dim>60</dim>
				</port>
				<port id="1">
					<dim>1</dim>
					<dim>1</dim>
					<dim>1</dim>
					<dim>1</dim>
				</port>
				<port id="2">
					<dim>1</dim>
					<dim>1</dim>
					<dim>1</dim>
					<dim>1</dim>
				</port>
				<port id="3">
					<dim>1</dim>
					<dim>1</dim>
					<dim>1</dim>
					<dim>1</dim>
				</port>
				<port id="4">
					<dim>1</dim>
					<dim>1</dim>
					<dim>1</dim>
					<dim>1</dim>
				</port>
			</input>
			<output>
				<port id="5" precision="FP16" names="919">
					<dim>1</dim>
					<dim>192</dim>
					<dim>36</dim>
					<dim>60</dim>
				</port>
			</output>
		</layer>
		<layer id="215" name="BatchNormalization_183/mean/Fused_Mul__copy" type="Const" version="opset1">
			<data offset="89806" size="12288" shape="32,192,1,1" element_type="f16"/>
			<output>
				<port id="0" precision="FP16" names="nncf_module.backbone.features.5.conv.6.weight">
					<dim>32</dim>
					<dim>192</dim>
					<dim>1</dim>
					<dim>1</dim>
				</port>
			</output>
		</layer>
		<layer id="216" name="Conv_182" type="Convolution" version="opset1">
			<data auto_pad="explicit" strides="1,1" dilations="1,1" pads_begin="0,0" pads_end="0,0"/>
			<input>
				<port id="0">
					<dim>1</dim>
					<dim>192</dim>
					<dim>36</dim>
					<dim>60</dim>
				</port>
				<port id="1">
					<dim>32</dim>
					<dim>192</dim>
					<dim>1</dim>
					<dim>1</dim>
				</port>
			</input>
			<output>
				<port id="2" precision="FP16">
					<dim>1</dim>
					<dim>32</dim>
					<dim>36</dim>
					<dim>60</dim>
				</port>
			</output>
		</layer>
		<layer id="217" name="BatchNormalization_183/variance/Fused_Add_" type="Add" version="opset1">
			<data auto_broadcast="numpy"/>
			<input>
				<port id="0">
					<dim>1</dim>
					<dim>32</dim>
					<dim>36</dim>
					<dim>60</dim>
				</port>
				<port id="1">
					<dim>1</dim>
					<dim>32</dim>
					<dim>1</dim>
					<dim>1</dim>
				</port>
			</input>
			<output>
				<port id="2" precision="FP16" names="921">
					<dim>1</dim>
					<dim>32</dim>
					<dim>36</dim>
					<dim>60</dim>
				</port>
			</output>
		</layer>
		<layer id="218" name="Constant_184" type="Const" version="opset1">
			<data offset="102094" size="2" shape="1,1,1,1" element_type="f16"/>
			<output>
				<port id="0" precision="FP16" names="922">
					<dim>1</dim>
					<dim>1</dim>
					<dim>1</dim>
					<dim>1</dim>
				</port>
			</output>
		</layer>
		<layer id="219" name="Constant_185" type="Const" version="opset1">
			<data offset="102096" size="2" shape="1,1,1,1" element_type="f16"/>
			<output>
				<port id="0" precision="FP16" names="923">
					<dim>1</dim>
					<dim>1</dim>
					<dim>1</dim>
					<dim>1</dim>
				</port>
			</output>
		</layer>
		<layer id="220" name="Constant_18450640" type="Const" version="opset1">
			<data offset="102094" size="2" shape="1,1,1,1" element_type="f16"/>
			<output>
				<port id="0" precision="FP16" names="922">
					<dim>1</dim>
					<dim>1</dim>
					<dim>1</dim>
					<dim>1</dim>
				</port>
			</output>
		</layer>
		<layer id="221" name="Constant_18551513" type="Const" version="opset1">
			<data offset="102096" size="2" shape="1,1,1,1" element_type="f16"/>
			<output>
				<port id="0" precision="FP16" names="923">
					<dim>1</dim>
					<dim>1</dim>
					<dim>1</dim>
					<dim>1</dim>
				</port>
			</output>
		</layer>
		<layer id="222" name="FakeQuantize_186" type="FakeQuantize" version="opset1">
			<data levels="256" auto_broadcast="numpy"/>
			<input>
				<port id="0">
					<dim>1</dim>
					<dim>32</dim>
					<dim>36</dim>
					<dim>60</dim>
				</port>
				<port id="1">
					<dim>1</dim>
					<dim>1</dim>
					<dim>1</dim>
					<dim>1</dim>
				</port>
				<port id="2">
					<dim>1</dim>
					<dim>1</dim>
					<dim>1</dim>
					<dim>1</dim>
				</port>
				<port id="3">
					<dim>1</dim>
					<dim>1</dim>
					<dim>1</dim>
					<dim>1</dim>
				</port>
				<port id="4">
					<dim>1</dim>
					<dim>1</dim>
					<dim>1</dim>
					<dim>1</dim>
				</port>
			</input>
			<output>
				<port id="5" precision="FP16" names="924">
					<dim>1</dim>
					<dim>32</dim>
					<dim>36</dim>
					<dim>60</dim>
				</port>
			</output>
		</layer>
		<layer id="223" name="Add_187" type="Add" version="opset1">
			<data auto_broadcast="numpy"/>
			<input>
				<port id="0">
					<dim>1</dim>
					<dim>32</dim>
					<dim>36</dim>
					<dim>60</dim>
				</port>
				<port id="1">
					<dim>1</dim>
					<dim>32</dim>
					<dim>36</dim>
					<dim>60</dim>
				</port>
			</input>
			<output>
				<port id="2" precision="FP16" names="925">
					<dim>1</dim>
					<dim>32</dim>
					<dim>36</dim>
					<dim>60</dim>
				</port>
			</output>
		</layer>
		<layer id="224" name="Constant_18850841" type="Const" version="opset1">
			<data offset="102098" size="2" shape="1,1,1,1" element_type="f16"/>
			<output>
				<port id="0" precision="FP16" names="926">
					<dim>1</dim>
					<dim>1</dim>
					<dim>1</dim>
					<dim>1</dim>
				</port>
			</output>
		</layer>
		<layer id="225" name="Constant_189" type="Const" version="opset1">
			<data offset="102100" size="2" shape="1,1,1,1" element_type="f16"/>
			<output>
				<port id="0" precision="FP16" names="927">
					<dim>1</dim>
					<dim>1</dim>
					<dim>1</dim>
					<dim>1</dim>
				</port>
			</output>
		</layer>
		<layer id="226" name="Constant_188" type="Const" version="opset1">
			<data offset="102098" size="2" shape="1,1,1,1" element_type="f16"/>
			<output>
				<port id="0" precision="FP16" names="926">
					<dim>1</dim>
					<dim>1</dim>
					<dim>1</dim>
					<dim>1</dim>
				</port>
			</output>
		</layer>
		<layer id="227" name="Constant_18950439" type="Const" version="opset1">
			<data offset="102100" size="2" shape="1,1,1,1" element_type="f16"/>
			<output>
				<port id="0" precision="FP16" names="927">
					<dim>1</dim>
					<dim>1</dim>
					<dim>1</dim>
					<dim>1</dim>
				</port>
			</output>
		</layer>
		<layer id="228" name="FakeQuantize_190" type="FakeQuantize" version="opset1">
			<data levels="256" auto_broadcast="numpy"/>
			<input>
				<port id="0">
					<dim>1</dim>
					<dim>32</dim>
					<dim>36</dim>
					<dim>60</dim>
				</port>
				<port id="1">
					<dim>1</dim>
					<dim>1</dim>
					<dim>1</dim>
					<dim>1</dim>
				</port>
				<port id="2">
					<dim>1</dim>
					<dim>1</dim>
					<dim>1</dim>
					<dim>1</dim>
				</port>
				<port id="3">
					<dim>1</dim>
					<dim>1</dim>
					<dim>1</dim>
					<dim>1</dim>
				</port>
				<port id="4">
					<dim>1</dim>
					<dim>1</dim>
					<dim>1</dim>
					<dim>1</dim>
				</port>
			</input>
			<output>
				<port id="5" precision="FP16" names="928">
					<dim>1</dim>
					<dim>32</dim>
					<dim>36</dim>
					<dim>60</dim>
				</port>
			</output>
		</layer>
		<layer id="229" name="data_add_2369023695" type="Const" version="opset1">
			<data offset="102102" size="64" shape="1,32,1,1" element_type="f16"/>
			<output>
				<port id="0" precision="FP16">
					<dim>1</dim>
					<dim>32</dim>
					<dim>1</dim>
					<dim>1</dim>
				</port>
			</output>
		</layer>
		<layer id="230" name="Constant_219" type="Const" version="opset1">
			<data offset="1188" size="2" shape="1,1,1,1" element_type="f16"/>
			<output>
				<port id="0" precision="FP16" names="966">
					<dim>1</dim>
					<dim>1</dim>
					<dim>1</dim>
					<dim>1</dim>
				</port>
			</output>
		</layer>
		<layer id="231" name="Constant_22051528" type="Const" version="opset1">
			<data offset="102166" size="2" shape="1,1,1,1" element_type="f16"/>
			<output>
				<port id="0" precision="FP16" names="967">
					<dim>1</dim>
					<dim>1</dim>
					<dim>1</dim>
					<dim>1</dim>
				</port>
			</output>
		</layer>
		<layer id="232" name="Constant_21951495" type="Const" version="opset1">
			<data offset="1188" size="2" shape="1,1,1,1" element_type="f16"/>
			<output>
				<port id="0" precision="FP16" names="966">
					<dim>1</dim>
					<dim>1</dim>
					<dim>1</dim>
					<dim>1</dim>
				</port>
			</output>
		</layer>
		<layer id="233" name="Constant_220" type="Const" version="opset1">
			<data offset="102166" size="2" shape="1,1,1,1" element_type="f16"/>
			<output>
				<port id="0" precision="FP16" names="967">
					<dim>1</dim>
					<dim>1</dim>
					<dim>1</dim>
					<dim>1</dim>
				</port>
			</output>
		</layer>
		<layer id="234" name="data_add_2368223687" type="Const" version="opset1">
			<data offset="102168" size="384" shape="1,192,1,1" element_type="f16"/>
			<output>
				<port id="0" precision="FP16">
					<dim>1</dim>
					<dim>192</dim>
					<dim>1</dim>
					<dim>1</dim>
				</port>
			</output>
		</layer>
		<layer id="235" name="Constant_211" type="Const" version="opset1">
			<data offset="52038" size="384" shape="1,192,1,1" element_type="f16"/>
			<output>
				<port id="0" precision="FP16" names="958">
					<dim>1</dim>
					<dim>192</dim>
					<dim>1</dim>
					<dim>1</dim>
				</port>
			</output>
		</layer>
		<layer id="236" name="Constant_21151402" type="Const" version="opset1">
			<data offset="52038" size="384" shape="1,192,1,1" element_type="f16"/>
			<output>
				<port id="0" precision="FP16" names="958">
					<dim>1</dim>
					<dim>192</dim>
					<dim>1</dim>
					<dim>1</dim>
				</port>
			</output>
		</layer>
		<layer id="237" name="Constant_212" type="Const" version="opset1">
			<data offset="102552" size="384" shape="1,192,1,1" element_type="f16"/>
			<output>
				<port id="0" precision="FP16" names="959">
					<dim>1</dim>
					<dim>192</dim>
					<dim>1</dim>
					<dim>1</dim>
				</port>
			</output>
		</layer>
		<layer id="238" name="Constant_21251438" type="Const" version="opset1">
			<data offset="102552" size="384" shape="1,192,1,1" element_type="f16"/>
			<output>
				<port id="0" precision="FP16" names="959">
					<dim>1</dim>
					<dim>192</dim>
					<dim>1</dim>
					<dim>1</dim>
				</port>
			</output>
		</layer>
		<layer id="239" name="data_add_2367423679" type="Const" version="opset1">
			<data offset="102936" size="384" shape="1,192,1,1" element_type="f16"/>
			<output>
				<port id="0" precision="FP16">
					<dim>1</dim>
					<dim>192</dim>
					<dim>1</dim>
					<dim>1</dim>
				</port>
			</output>
		</layer>
		<layer id="240" name="BatchNormalization_207/mean/Fused_Mul__copy" type="Const" version="opset1">
			<data offset="103320" size="12288" shape="192,32,1,1" element_type="f16"/>
			<output>
				<port id="0" precision="FP16" names="nncf_module.backbone.features.6.conv.0.weight">
					<dim>192</dim>
					<dim>32</dim>
					<dim>1</dim>
					<dim>1</dim>
				</port>
			</output>
		</layer>
		<layer id="241" name="Conv_206" type="Convolution" version="opset1">
			<data auto_pad="explicit" strides="1,1" dilations="1,1" pads_begin="1,1" pads_end="1,1"/>
			<input>
				<port id="0">
					<dim>1</dim>
					<dim>32</dim>
					<dim>36</dim>
					<dim>60</dim>
				</port>
				<port id="1">
					<dim>192</dim>
					<dim>32</dim>
					<dim>1</dim>
					<dim>1</dim>
				</port>
			</input>
			<output>
				<port id="2" precision="FP16">
					<dim>1</dim>
					<dim>192</dim>
					<dim>38</dim>
					<dim>62</dim>
				</port>
			</output>
		</layer>
		<layer id="242" name="BatchNormalization_207/variance/Fused_Add_" type="Add" version="opset1">
			<data auto_broadcast="numpy"/>
			<input>
				<port id="0">
					<dim>1</dim>
					<dim>192</dim>
					<dim>38</dim>
					<dim>62</dim>
				</port>
				<port id="1">
					<dim>1</dim>
					<dim>192</dim>
					<dim>1</dim>
					<dim>1</dim>
				</port>
			</input>
			<output>
				<port id="2" precision="FP16" names="954">
					<dim>1</dim>
					<dim>192</dim>
					<dim>38</dim>
					<dim>62</dim>
				</port>
			</output>
		</layer>
		<layer id="243" name="Clip_210" type="Clamp" version="opset1">
			<data max="6.0" min="0.0"/>
			<input>
				<port id="0">
					<dim>1</dim>
					<dim>192</dim>
					<dim>38</dim>
					<dim>62</dim>
				</port>
			</input>
			<output>
				<port id="1" precision="FP16" names="957">
					<dim>1</dim>
					<dim>192</dim>
					<dim>38</dim>
					<dim>62</dim>
				</port>
			</output>
		</layer>
		<layer id="244" name="FakeQuantize_213" type="FakeQuantize" version="opset1">
			<data levels="256" auto_broadcast="numpy"/>
			<input>
				<port id="0">
					<dim>1</dim>
					<dim>192</dim>
					<dim>38</dim>
					<dim>62</dim>
				</port>
				<port id="1">
					<dim>1</dim>
					<dim>192</dim>
					<dim>1</dim>
					<dim>1</dim>
				</port>
				<port id="2">
					<dim>1</dim>
					<dim>192</dim>
					<dim>1</dim>
					<dim>1</dim>
				</port>
				<port id="3">
					<dim>1</dim>
					<dim>192</dim>
					<dim>1</dim>
					<dim>1</dim>
				</port>
				<port id="4">
					<dim>1</dim>
					<dim>192</dim>
					<dim>1</dim>
					<dim>1</dim>
				</port>
			</input>
			<output>
				<port id="5" precision="FP16" names="960">
					<dim>1</dim>
					<dim>192</dim>
					<dim>38</dim>
					<dim>62</dim>
				</port>
			</output>
		</layer>
		<layer id="245" name="BatchNormalization_215/mean/Fused_Mul__copy" type="Const" version="opset1">
			<data offset="115608" size="3456" shape="192,1,1,3,3" element_type="f16"/>
			<output>
				<port id="0" precision="FP16" names="nncf_module.backbone.features.6.conv.3.weight">
					<dim>192</dim>
					<dim>1</dim>
					<dim>1</dim>
					<dim>3</dim>
					<dim>3</dim>
				</port>
			</output>
		</layer>
		<layer id="246" name="Conv_214" type="GroupConvolution" version="opset1">
			<data auto_pad="explicit" strides="1,1" dilations="1,1" pads_begin="0,0" pads_end="0,0"/>
			<input>
				<port id="0">
					<dim>1</dim>
					<dim>192</dim>
					<dim>38</dim>
					<dim>62</dim>
				</port>
				<port id="1">
					<dim>192</dim>
					<dim>1</dim>
					<dim>1</dim>
					<dim>3</dim>
					<dim>3</dim>
				</port>
			</input>
			<output>
				<port id="2" precision="FP16">
					<dim>1</dim>
					<dim>192</dim>
					<dim>36</dim>
					<dim>60</dim>
				</port>
			</output>
		</layer>
		<layer id="247" name="BatchNormalization_215/variance/Fused_Add_" type="Add" version="opset1">
			<data auto_broadcast="numpy"/>
			<input>
				<port id="0">
					<dim>1</dim>
					<dim>192</dim>
					<dim>36</dim>
					<dim>60</dim>
				</port>
				<port id="1">
					<dim>1</dim>
					<dim>192</dim>
					<dim>1</dim>
					<dim>1</dim>
				</port>
			</input>
			<output>
				<port id="2" precision="FP16" names="962">
					<dim>1</dim>
					<dim>192</dim>
					<dim>36</dim>
					<dim>60</dim>
				</port>
			</output>
		</layer>
		<layer id="248" name="Clip_218" type="Clamp" version="opset1">
			<data max="6.0" min="0.0"/>
			<input>
				<port id="0">
					<dim>1</dim>
					<dim>192</dim>
					<dim>36</dim>
					<dim>60</dim>
				</port>
			</input>
			<output>
				<port id="1" precision="FP16" names="965">
					<dim>1</dim>
					<dim>192</dim>
					<dim>36</dim>
					<dim>60</dim>
				</port>
			</output>
		</layer>
		<layer id="249" name="FakeQuantize_221" type="FakeQuantize" version="opset1">
			<data levels="256" auto_broadcast="numpy"/>
			<input>
				<port id="0">
					<dim>1</dim>
					<dim>192</dim>
					<dim>36</dim>
					<dim>60</dim>
				</port>
				<port id="1">
					<dim>1</dim>
					<dim>1</dim>
					<dim>1</dim>
					<dim>1</dim>
				</port>
				<port id="2">
					<dim>1</dim>
					<dim>1</dim>
					<dim>1</dim>
					<dim>1</dim>
				</port>
				<port id="3">
					<dim>1</dim>
					<dim>1</dim>
					<dim>1</dim>
					<dim>1</dim>
				</port>
				<port id="4">
					<dim>1</dim>
					<dim>1</dim>
					<dim>1</dim>
					<dim>1</dim>
				</port>
			</input>
			<output>
				<port id="5" precision="FP16" names="968">
					<dim>1</dim>
					<dim>192</dim>
					<dim>36</dim>
					<dim>60</dim>
				</port>
			</output>
		</layer>
		<layer id="250" name="BatchNormalization_223/mean/Fused_Mul__copy" type="Const" version="opset1">
			<data offset="119064" size="12288" shape="32,192,1,1" element_type="f16"/>
			<output>
				<port id="0" precision="FP16" names="nncf_module.backbone.features.6.conv.6.weight">
					<dim>32</dim>
					<dim>192</dim>
					<dim>1</dim>
					<dim>1</dim>
				</port>
			</output>
		</layer>
		<layer id="251" name="Conv_222" type="Convolution" version="opset1">
			<data auto_pad="explicit" strides="1,1" dilations="1,1" pads_begin="0,0" pads_end="0,0"/>
			<input>
				<port id="0">
					<dim>1</dim>
					<dim>192</dim>
					<dim>36</dim>
					<dim>60</dim>
				</port>
				<port id="1">
					<dim>32</dim>
					<dim>192</dim>
					<dim>1</dim>
					<dim>1</dim>
				</port>
			</input>
			<output>
				<port id="2" precision="FP16">
					<dim>1</dim>
					<dim>32</dim>
					<dim>36</dim>
					<dim>60</dim>
				</port>
			</output>
		</layer>
		<layer id="252" name="BatchNormalization_223/variance/Fused_Add_" type="Add" version="opset1">
			<data auto_broadcast="numpy"/>
			<input>
				<port id="0">
					<dim>1</dim>
					<dim>32</dim>
					<dim>36</dim>
					<dim>60</dim>
				</port>
				<port id="1">
					<dim>1</dim>
					<dim>32</dim>
					<dim>1</dim>
					<dim>1</dim>
				</port>
			</input>
			<output>
				<port id="2" precision="FP16" names="970">
					<dim>1</dim>
					<dim>32</dim>
					<dim>36</dim>
					<dim>60</dim>
				</port>
			</output>
		</layer>
		<layer id="253" name="Constant_22451555" type="Const" version="opset1">
			<data offset="131352" size="2" shape="1,1,1,1" element_type="f16"/>
			<output>
				<port id="0" precision="FP16" names="971">
					<dim>1</dim>
					<dim>1</dim>
					<dim>1</dim>
					<dim>1</dim>
				</port>
			</output>
		</layer>
		<layer id="254" name="Constant_22550628" type="Const" version="opset1">
			<data offset="131354" size="2" shape="1,1,1,1" element_type="f16"/>
			<output>
				<port id="0" precision="FP16" names="972">
					<dim>1</dim>
					<dim>1</dim>
					<dim>1</dim>
					<dim>1</dim>
				</port>
			</output>
		</layer>
		<layer id="255" name="Constant_224" type="Const" version="opset1">
			<data offset="131352" size="2" shape="1,1,1,1" element_type="f16"/>
			<output>
				<port id="0" precision="FP16" names="971">
					<dim>1</dim>
					<dim>1</dim>
					<dim>1</dim>
					<dim>1</dim>
				</port>
			</output>
		</layer>
		<layer id="256" name="Constant_225" type="Const" version="opset1">
			<data offset="131354" size="2" shape="1,1,1,1" element_type="f16"/>
			<output>
				<port id="0" precision="FP16" names="972">
					<dim>1</dim>
					<dim>1</dim>
					<dim>1</dim>
					<dim>1</dim>
				</port>
			</output>
		</layer>
		<layer id="257" name="FakeQuantize_226" type="FakeQuantize" version="opset1">
			<data levels="256" auto_broadcast="numpy"/>
			<input>
				<port id="0">
					<dim>1</dim>
					<dim>32</dim>
					<dim>36</dim>
					<dim>60</dim>
				</port>
				<port id="1">
					<dim>1</dim>
					<dim>1</dim>
					<dim>1</dim>
					<dim>1</dim>
				</port>
				<port id="2">
					<dim>1</dim>
					<dim>1</dim>
					<dim>1</dim>
					<dim>1</dim>
				</port>
				<port id="3">
					<dim>1</dim>
					<dim>1</dim>
					<dim>1</dim>
					<dim>1</dim>
				</port>
				<port id="4">
					<dim>1</dim>
					<dim>1</dim>
					<dim>1</dim>
					<dim>1</dim>
				</port>
			</input>
			<output>
				<port id="5" precision="FP16" names="973">
					<dim>1</dim>
					<dim>32</dim>
					<dim>36</dim>
					<dim>60</dim>
				</port>
			</output>
		</layer>
		<layer id="258" name="Add_227" type="Add" version="opset1">
			<data auto_broadcast="numpy"/>
			<input>
				<port id="0">
					<dim>1</dim>
					<dim>32</dim>
					<dim>36</dim>
					<dim>60</dim>
				</port>
				<port id="1">
					<dim>1</dim>
					<dim>32</dim>
					<dim>36</dim>
					<dim>60</dim>
				</port>
			</input>
			<output>
				<port id="2" precision="FP16" names="974">
					<dim>1</dim>
					<dim>32</dim>
					<dim>36</dim>
					<dim>60</dim>
				</port>
			</output>
		</layer>
		<layer id="259" name="Constant_22850595" type="Const" version="opset1">
			<data offset="131356" size="2" shape="1,1,1,1" element_type="f16"/>
			<output>
				<port id="0" precision="FP16" names="975">
					<dim>1</dim>
					<dim>1</dim>
					<dim>1</dim>
					<dim>1</dim>
				</port>
			</output>
		</layer>
		<layer id="260" name="Constant_22951249" type="Const" version="opset1">
			<data offset="131358" size="2" shape="1,1,1,1" element_type="f16"/>
			<output>
				<port id="0" precision="FP16" names="976">
					<dim>1</dim>
					<dim>1</dim>
					<dim>1</dim>
					<dim>1</dim>
				</port>
			</output>
		</layer>
		<layer id="261" name="Constant_228" type="Const" version="opset1">
			<data offset="131356" size="2" shape="1,1,1,1" element_type="f16"/>
			<output>
				<port id="0" precision="FP16" names="975">
					<dim>1</dim>
					<dim>1</dim>
					<dim>1</dim>
					<dim>1</dim>
				</port>
			</output>
		</layer>
		<layer id="262" name="Constant_229" type="Const" version="opset1">
			<data offset="131358" size="2" shape="1,1,1,1" element_type="f16"/>
			<output>
				<port id="0" precision="FP16" names="976">
					<dim>1</dim>
					<dim>1</dim>
					<dim>1</dim>
					<dim>1</dim>
				</port>
			</output>
		</layer>
		<layer id="263" name="FakeQuantize_230" type="FakeQuantize" version="opset1">
			<data levels="256" auto_broadcast="numpy"/>
			<input>
				<port id="0">
					<dim>1</dim>
					<dim>32</dim>
					<dim>36</dim>
					<dim>60</dim>
				</port>
				<port id="1">
					<dim>1</dim>
					<dim>1</dim>
					<dim>1</dim>
					<dim>1</dim>
				</port>
				<port id="2">
					<dim>1</dim>
					<dim>1</dim>
					<dim>1</dim>
					<dim>1</dim>
				</port>
				<port id="3">
					<dim>1</dim>
					<dim>1</dim>
					<dim>1</dim>
					<dim>1</dim>
				</port>
				<port id="4">
					<dim>1</dim>
					<dim>1</dim>
					<dim>1</dim>
					<dim>1</dim>
				</port>
			</input>
			<output>
				<port id="5" precision="FP16" names="977">
					<dim>1</dim>
					<dim>32</dim>
					<dim>36</dim>
					<dim>60</dim>
				</port>
			</output>
		</layer>
		<layer id="264" name="BatchNormalization_247/mean/Fused_Mul__copy" type="Const" version="opset1">
			<data offset="131360" size="12288" shape="192,32,1,1" element_type="f16"/>
			<output>
				<port id="0" precision="FP16" names="nncf_module.backbone.features.7.conv.0.weight">
					<dim>192</dim>
					<dim>32</dim>
					<dim>1</dim>
					<dim>1</dim>
				</port>
			</output>
		</layer>
		<layer id="265" name="Conv_246" type="Convolution" version="opset1">
			<data auto_pad="explicit" strides="1,1" dilations="1,1" pads_begin="1,1" pads_end="1,1"/>
			<input>
				<port id="0">
					<dim>1</dim>
					<dim>32</dim>
					<dim>36</dim>
					<dim>60</dim>
				</port>
				<port id="1">
					<dim>192</dim>
					<dim>32</dim>
					<dim>1</dim>
					<dim>1</dim>
				</port>
			</input>
			<output>
				<port id="2" precision="FP16">
					<dim>1</dim>
					<dim>192</dim>
					<dim>38</dim>
					<dim>62</dim>
				</port>
			</output>
		</layer>
		<layer id="266" name="BatchNormalization_247/variance/Fused_Add_" type="Add" version="opset1">
			<data auto_broadcast="numpy"/>
			<input>
				<port id="0">
					<dim>1</dim>
					<dim>192</dim>
					<dim>38</dim>
					<dim>62</dim>
				</port>
				<port id="1">
					<dim>1</dim>
					<dim>192</dim>
					<dim>1</dim>
					<dim>1</dim>
				</port>
			</input>
			<output>
				<port id="2" precision="FP16" names="1003">
					<dim>1</dim>
					<dim>192</dim>
					<dim>38</dim>
					<dim>62</dim>
				</port>
			</output>
		</layer>
		<layer id="267" name="Clip_250" type="Clamp" version="opset1">
			<data max="6.0" min="0.0"/>
			<input>
				<port id="0">
					<dim>1</dim>
					<dim>192</dim>
					<dim>38</dim>
					<dim>62</dim>
				</port>
			</input>
			<output>
				<port id="1" precision="FP16" names="1006">
					<dim>1</dim>
					<dim>192</dim>
					<dim>38</dim>
					<dim>62</dim>
				</port>
			</output>
		</layer>
		<layer id="268" name="FakeQuantize_253" type="FakeQuantize" version="opset1">
			<data levels="256" auto_broadcast="numpy"/>
			<input>
				<port id="0">
					<dim>1</dim>
					<dim>192</dim>
					<dim>38</dim>
					<dim>62</dim>
				</port>
				<port id="1">
					<dim>1</dim>
					<dim>192</dim>
					<dim>1</dim>
					<dim>1</dim>
				</port>
				<port id="2">
					<dim>1</dim>
					<dim>192</dim>
					<dim>1</dim>
					<dim>1</dim>
				</port>
				<port id="3">
					<dim>1</dim>
					<dim>192</dim>
					<dim>1</dim>
					<dim>1</dim>
				</port>
				<port id="4">
					<dim>1</dim>
					<dim>192</dim>
					<dim>1</dim>
					<dim>1</dim>
				</port>
			</input>
			<output>
				<port id="5" precision="FP16" names="1009">
					<dim>1</dim>
					<dim>192</dim>
					<dim>38</dim>
					<dim>62</dim>
				</port>
			</output>
		</layer>
		<layer id="269" name="BatchNormalization_255/mean/Fused_Mul__copy" type="Const" version="opset1">
			<data offset="143648" size="3456" shape="192,1,1,3,3" element_type="f16"/>
			<output>
				<port id="0" precision="FP16" names="nncf_module.backbone.features.7.conv.3.weight">
					<dim>192</dim>
					<dim>1</dim>
					<dim>1</dim>
					<dim>3</dim>
					<dim>3</dim>
				</port>
			</output>
		</layer>
		<layer id="270" name="Conv_254" type="GroupConvolution" version="opset1">
			<data auto_pad="explicit" strides="2,2" dilations="1,1" pads_begin="0,0" pads_end="0,0"/>
			<input>
				<port id="0">
					<dim>1</dim>
					<dim>192</dim>
					<dim>38</dim>
					<dim>62</dim>
				</port>
				<port id="1">
					<dim>192</dim>
					<dim>1</dim>
					<dim>1</dim>
					<dim>3</dim>
					<dim>3</dim>
				</port>
			</input>
			<output>
				<port id="2" precision="FP16">
					<dim>1</dim>
					<dim>192</dim>
					<dim>18</dim>
					<dim>30</dim>
				</port>
			</output>
		</layer>
		<layer id="271" name="BatchNormalization_255/variance/Fused_Add_" type="Add" version="opset1">
			<data auto_broadcast="numpy"/>
			<input>
				<port id="0">
					<dim>1</dim>
					<dim>192</dim>
					<dim>18</dim>
					<dim>30</dim>
				</port>
				<port id="1">
					<dim>1</dim>
					<dim>192</dim>
					<dim>1</dim>
					<dim>1</dim>
				</port>
			</input>
			<output>
				<port id="2" precision="FP16" names="1011">
					<dim>1</dim>
					<dim>192</dim>
					<dim>18</dim>
					<dim>30</dim>
				</port>
			</output>
		</layer>
		<layer id="272" name="Clip_258" type="Clamp" version="opset1">
			<data max="6.0" min="0.0"/>
			<input>
				<port id="0">
					<dim>1</dim>
					<dim>192</dim>
					<dim>18</dim>
					<dim>30</dim>
				</port>
			</input>
			<output>
				<port id="1" precision="FP16" names="1014">
					<dim>1</dim>
					<dim>192</dim>
					<dim>18</dim>
					<dim>30</dim>
				</port>
			</output>
		</layer>
		<layer id="273" name="FakeQuantize_261" type="FakeQuantize" version="opset1">
			<data levels="256" auto_broadcast="numpy"/>
			<input>
				<port id="0">
					<dim>1</dim>
					<dim>192</dim>
					<dim>18</dim>
					<dim>30</dim>
				</port>
				<port id="1">
					<dim>1</dim>
					<dim>1</dim>
					<dim>1</dim>
					<dim>1</dim>
				</port>
				<port id="2">
					<dim>1</dim>
					<dim>1</dim>
					<dim>1</dim>
					<dim>1</dim>
				</port>
				<port id="3">
					<dim>1</dim>
					<dim>1</dim>
					<dim>1</dim>
					<dim>1</dim>
				</port>
				<port id="4">
					<dim>1</dim>
					<dim>1</dim>
					<dim>1</dim>
					<dim>1</dim>
				</port>
			</input>
			<output>
				<port id="5" precision="FP16" names="1017">
					<dim>1</dim>
					<dim>192</dim>
					<dim>18</dim>
					<dim>30</dim>
				</port>
			</output>
		</layer>
		<layer id="274" name="BatchNormalization_263/mean/Fused_Mul__copy" type="Const" version="opset1">
			<data offset="147104" size="24576" shape="64,192,1,1" element_type="f16"/>
			<output>
				<port id="0" precision="FP16" names="nncf_module.backbone.features.7.conv.6.weight">
					<dim>64</dim>
					<dim>192</dim>
					<dim>1</dim>
					<dim>1</dim>
				</port>
			</output>
		</layer>
		<layer id="275" name="Conv_262" type="Convolution" version="opset1">
			<data auto_pad="explicit" strides="1,1" dilations="1,1" pads_begin="0,0" pads_end="0,0"/>
			<input>
				<port id="0">
					<dim>1</dim>
					<dim>192</dim>
					<dim>18</dim>
					<dim>30</dim>
				</port>
				<port id="1">
					<dim>64</dim>
					<dim>192</dim>
					<dim>1</dim>
					<dim>1</dim>
				</port>
			</input>
			<output>
				<port id="2" precision="FP16">
					<dim>1</dim>
					<dim>64</dim>
					<dim>18</dim>
					<dim>30</dim>
				</port>
			</output>
		</layer>
		<layer id="276" name="BatchNormalization_263/variance/Fused_Add_" type="Add" version="opset1">
			<data auto_broadcast="numpy"/>
			<input>
				<port id="0">
					<dim>1</dim>
					<dim>64</dim>
					<dim>18</dim>
					<dim>30</dim>
				</port>
				<port id="1">
					<dim>1</dim>
					<dim>64</dim>
					<dim>1</dim>
					<dim>1</dim>
				</port>
			</input>
			<output>
				<port id="2" precision="FP16" names="1019">
					<dim>1</dim>
					<dim>64</dim>
					<dim>18</dim>
					<dim>30</dim>
				</port>
			</output>
		</layer>
		<layer id="277" name="Constant_26451468" type="Const" version="opset1">
			<data offset="171680" size="2" shape="1,1,1,1" element_type="f16"/>
			<output>
				<port id="0" precision="FP16" names="1020">
					<dim>1</dim>
					<dim>1</dim>
					<dim>1</dim>
					<dim>1</dim>
				</port>
			</output>
		</layer>
		<layer id="278" name="Constant_265" type="Const" version="opset1">
			<data offset="171682" size="2" shape="1,1,1,1" element_type="f16"/>
			<output>
				<port id="0" precision="FP16" names="1021">
					<dim>1</dim>
					<dim>1</dim>
					<dim>1</dim>
					<dim>1</dim>
				</port>
			</output>
		</layer>
		<layer id="279" name="Constant_264" type="Const" version="opset1">
			<data offset="171680" size="2" shape="1,1,1,1" element_type="f16"/>
			<output>
				<port id="0" precision="FP16" names="1020">
					<dim>1</dim>
					<dim>1</dim>
					<dim>1</dim>
					<dim>1</dim>
				</port>
			</output>
		</layer>
		<layer id="280" name="Constant_26551216" type="Const" version="opset1">
			<data offset="171682" size="2" shape="1,1,1,1" element_type="f16"/>
			<output>
				<port id="0" precision="FP16" names="1021">
					<dim>1</dim>
					<dim>1</dim>
					<dim>1</dim>
					<dim>1</dim>
				</port>
			</output>
		</layer>
		<layer id="281" name="FakeQuantize_266" type="FakeQuantize" version="opset1">
			<data levels="256" auto_broadcast="numpy"/>
			<input>
				<port id="0">
					<dim>1</dim>
					<dim>64</dim>
					<dim>18</dim>
					<dim>30</dim>
				</port>
				<port id="1">
					<dim>1</dim>
					<dim>1</dim>
					<dim>1</dim>
					<dim>1</dim>
				</port>
				<port id="2">
					<dim>1</dim>
					<dim>1</dim>
					<dim>1</dim>
					<dim>1</dim>
				</port>
				<port id="3">
					<dim>1</dim>
					<dim>1</dim>
					<dim>1</dim>
					<dim>1</dim>
				</port>
				<port id="4">
					<dim>1</dim>
					<dim>1</dim>
					<dim>1</dim>
					<dim>1</dim>
				</port>
			</input>
			<output>
				<port id="5" precision="FP16" names="1022">
					<dim>1</dim>
					<dim>64</dim>
					<dim>18</dim>
					<dim>30</dim>
				</port>
			</output>
		</layer>
		<layer id="282" name="data_add_2373823743" type="Const" version="opset1">
			<data offset="171684" size="128" shape="1,64,1,1" element_type="f16"/>
			<output>
				<port id="0" precision="FP16">
					<dim>1</dim>
					<dim>64</dim>
					<dim>1</dim>
					<dim>1</dim>
				</port>
			</output>
		</layer>
		<layer id="283" name="Constant_29550403" type="Const" version="opset1">
			<data offset="1188" size="2" shape="1,1,1,1" element_type="f16"/>
			<output>
				<port id="0" precision="FP16" names="1060">
					<dim>1</dim>
					<dim>1</dim>
					<dim>1</dim>
					<dim>1</dim>
				</port>
			</output>
		</layer>
		<layer id="284" name="Constant_29651516" type="Const" version="opset1">
			<data offset="171812" size="2" shape="1,1,1,1" element_type="f16"/>
			<output>
				<port id="0" precision="FP16" names="1061">
					<dim>1</dim>
					<dim>1</dim>
					<dim>1</dim>
					<dim>1</dim>
				</port>
			</output>
		</layer>
		<layer id="285" name="Constant_295" type="Const" version="opset1">
			<data offset="1188" size="2" shape="1,1,1,1" element_type="f16"/>
			<output>
				<port id="0" precision="FP16" names="1060">
					<dim>1</dim>
					<dim>1</dim>
					<dim>1</dim>
					<dim>1</dim>
				</port>
			</output>
		</layer>
		<layer id="286" name="Constant_296" type="Const" version="opset1">
			<data offset="171812" size="2" shape="1,1,1,1" element_type="f16"/>
			<output>
				<port id="0" precision="FP16" names="1061">
					<dim>1</dim>
					<dim>1</dim>
					<dim>1</dim>
					<dim>1</dim>
				</port>
			</output>
		</layer>
		<layer id="287" name="data_add_2373023735" type="Const" version="opset1">
			<data offset="171814" size="768" shape="1,384,1,1" element_type="f16"/>
			<output>
				<port id="0" precision="FP16">
					<dim>1</dim>
					<dim>384</dim>
					<dim>1</dim>
					<dim>1</dim>
				</port>
			</output>
		</layer>
		<layer id="288" name="Constant_287" type="Const" version="opset1">
			<data offset="49220" size="768" shape="1,384,1,1" element_type="f16"/>
			<output>
				<port id="0" precision="FP16" names="1052">
					<dim>1</dim>
					<dim>384</dim>
					<dim>1</dim>
					<dim>1</dim>
				</port>
			</output>
		</layer>
		<layer id="289" name="Constant_28750754" type="Const" version="opset1">
			<data offset="49220" size="768" shape="1,384,1,1" element_type="f16"/>
			<output>
				<port id="0" precision="FP16" names="1052">
					<dim>1</dim>
					<dim>384</dim>
					<dim>1</dim>
					<dim>1</dim>
				</port>
			</output>
		</layer>
		<layer id="290" name="Constant_288" type="Const" version="opset1">
			<data offset="172582" size="768" shape="1,384,1,1" element_type="f16"/>
			<output>
				<port id="0" precision="FP16" names="1053">
					<dim>1</dim>
					<dim>384</dim>
					<dim>1</dim>
					<dim>1</dim>
				</port>
			</output>
		</layer>
		<layer id="291" name="Constant_28851048" type="Const" version="opset1">
			<data offset="172582" size="768" shape="1,384,1,1" element_type="f16"/>
			<output>
				<port id="0" precision="FP16" names="1053">
					<dim>1</dim>
					<dim>384</dim>
					<dim>1</dim>
					<dim>1</dim>
				</port>
			</output>
		</layer>
		<layer id="292" name="data_add_2372223727" type="Const" version="opset1">
			<data offset="173350" size="768" shape="1,384,1,1" element_type="f16"/>
			<output>
				<port id="0" precision="FP16">
					<dim>1</dim>
					<dim>384</dim>
					<dim>1</dim>
					<dim>1</dim>
				</port>
			</output>
		</layer>
		<layer id="293" name="BatchNormalization_283/mean/Fused_Mul__copy" type="Const" version="opset1">
			<data offset="174118" size="49152" shape="384,64,1,1" element_type="f16"/>
			<output>
				<port id="0" precision="FP16" names="nncf_module.backbone.features.8.conv.0.weight">
					<dim>384</dim>
					<dim>64</dim>
					<dim>1</dim>
					<dim>1</dim>
				</port>
			</output>
		</layer>
		<layer id="294" name="Conv_282" type="Convolution" version="opset1">
			<data auto_pad="explicit" strides="1,1" dilations="1,1" pads_begin="1,1" pads_end="1,1"/>
			<input>
				<port id="0">
					<dim>1</dim>
					<dim>64</dim>
					<dim>18</dim>
					<dim>30</dim>
				</port>
				<port id="1">
					<dim>384</dim>
					<dim>64</dim>
					<dim>1</dim>
					<dim>1</dim>
				</port>
			</input>
			<output>
				<port id="2" precision="FP16">
					<dim>1</dim>
					<dim>384</dim>
					<dim>20</dim>
					<dim>32</dim>
				</port>
			</output>
		</layer>
		<layer id="295" name="BatchNormalization_283/variance/Fused_Add_" type="Add" version="opset1">
			<data auto_broadcast="numpy"/>
			<input>
				<port id="0">
					<dim>1</dim>
					<dim>384</dim>
					<dim>20</dim>
					<dim>32</dim>
				</port>
				<port id="1">
					<dim>1</dim>
					<dim>384</dim>
					<dim>1</dim>
					<dim>1</dim>
				</port>
			</input>
			<output>
				<port id="2" precision="FP16" names="1048">
					<dim>1</dim>
					<dim>384</dim>
					<dim>20</dim>
					<dim>32</dim>
				</port>
			</output>
		</layer>
		<layer id="296" name="Clip_286" type="Clamp" version="opset1">
			<data max="6.0" min="0.0"/>
			<input>
				<port id="0">
					<dim>1</dim>
					<dim>384</dim>
					<dim>20</dim>
					<dim>32</dim>
				</port>
			</input>
			<output>
				<port id="1" precision="FP16" names="1051">
					<dim>1</dim>
					<dim>384</dim>
					<dim>20</dim>
					<dim>32</dim>
				</port>
			</output>
		</layer>
		<layer id="297" name="FakeQuantize_289" type="FakeQuantize" version="opset1">
			<data levels="256" auto_broadcast="numpy"/>
			<input>
				<port id="0">
					<dim>1</dim>
					<dim>384</dim>
					<dim>20</dim>
					<dim>32</dim>
				</port>
				<port id="1">
					<dim>1</dim>
					<dim>384</dim>
					<dim>1</dim>
					<dim>1</dim>
				</port>
				<port id="2">
					<dim>1</dim>
					<dim>384</dim>
					<dim>1</dim>
					<dim>1</dim>
				</port>
				<port id="3">
					<dim>1</dim>
					<dim>384</dim>
					<dim>1</dim>
					<dim>1</dim>
				</port>
				<port id="4">
					<dim>1</dim>
					<dim>384</dim>
					<dim>1</dim>
					<dim>1</dim>
				</port>
			</input>
			<output>
				<port id="5" precision="FP16" names="1054">
					<dim>1</dim>
					<dim>384</dim>
					<dim>20</dim>
					<dim>32</dim>
				</port>
			</output>
		</layer>
		<layer id="298" name="BatchNormalization_291/mean/Fused_Mul__copy" type="Const" version="opset1">
			<data offset="223270" size="6912" shape="384,1,1,3,3" element_type="f16"/>
			<output>
				<port id="0" precision="FP16" names="nncf_module.backbone.features.8.conv.3.weight">
					<dim>384</dim>
					<dim>1</dim>
					<dim>1</dim>
					<dim>3</dim>
					<dim>3</dim>
				</port>
			</output>
		</layer>
		<layer id="299" name="Conv_290" type="GroupConvolution" version="opset1">
			<data auto_pad="explicit" strides="1,1" dilations="1,1" pads_begin="0,0" pads_end="0,0"/>
			<input>
				<port id="0">
					<dim>1</dim>
					<dim>384</dim>
					<dim>20</dim>
					<dim>32</dim>
				</port>
				<port id="1">
					<dim>384</dim>
					<dim>1</dim>
					<dim>1</dim>
					<dim>3</dim>
					<dim>3</dim>
				</port>
			</input>
			<output>
				<port id="2" precision="FP16">
					<dim>1</dim>
					<dim>384</dim>
					<dim>18</dim>
					<dim>30</dim>
				</port>
			</output>
		</layer>
		<layer id="300" name="BatchNormalization_291/variance/Fused_Add_" type="Add" version="opset1">
			<data auto_broadcast="numpy"/>
			<input>
				<port id="0">
					<dim>1</dim>
					<dim>384</dim>
					<dim>18</dim>
					<dim>30</dim>
				</port>
				<port id="1">
					<dim>1</dim>
					<dim>384</dim>
					<dim>1</dim>
					<dim>1</dim>
				</port>
			</input>
			<output>
				<port id="2" precision="FP16" names="1056">
					<dim>1</dim>
					<dim>384</dim>
					<dim>18</dim>
					<dim>30</dim>
				</port>
			</output>
		</layer>
		<layer id="301" name="Clip_294" type="Clamp" version="opset1">
			<data max="6.0" min="0.0"/>
			<input>
				<port id="0">
					<dim>1</dim>
					<dim>384</dim>
					<dim>18</dim>
					<dim>30</dim>
				</port>
			</input>
			<output>
				<port id="1" precision="FP16" names="1059">
					<dim>1</dim>
					<dim>384</dim>
					<dim>18</dim>
					<dim>30</dim>
				</port>
			</output>
		</layer>
		<layer id="302" name="FakeQuantize_297" type="FakeQuantize" version="opset1">
			<data levels="256" auto_broadcast="numpy"/>
			<input>
				<port id="0">
					<dim>1</dim>
					<dim>384</dim>
					<dim>18</dim>
					<dim>30</dim>
				</port>
				<port id="1">
					<dim>1</dim>
					<dim>1</dim>
					<dim>1</dim>
					<dim>1</dim>
				</port>
				<port id="2">
					<dim>1</dim>
					<dim>1</dim>
					<dim>1</dim>
					<dim>1</dim>
				</port>
				<port id="3">
					<dim>1</dim>
					<dim>1</dim>
					<dim>1</dim>
					<dim>1</dim>
				</port>
				<port id="4">
					<dim>1</dim>
					<dim>1</dim>
					<dim>1</dim>
					<dim>1</dim>
				</port>
			</input>
			<output>
				<port id="5" precision="FP16" names="1062">
					<dim>1</dim>
					<dim>384</dim>
					<dim>18</dim>
					<dim>30</dim>
				</port>
			</output>
		</layer>
		<layer id="303" name="BatchNormalization_299/mean/Fused_Mul__copy" type="Const" version="opset1">
			<data offset="230182" size="49152" shape="64,384,1,1" element_type="f16"/>
			<output>
				<port id="0" precision="FP16" names="nncf_module.backbone.features.8.conv.6.weight">
					<dim>64</dim>
					<dim>384</dim>
					<dim>1</dim>
					<dim>1</dim>
				</port>
			</output>
		</layer>
		<layer id="304" name="Conv_298" type="Convolution" version="opset1">
			<data auto_pad="explicit" strides="1,1" dilations="1,1" pads_begin="0,0" pads_end="0,0"/>
			<input>
				<port id="0">
					<dim>1</dim>
					<dim>384</dim>
					<dim>18</dim>
					<dim>30</dim>
				</port>
				<port id="1">
					<dim>64</dim>
					<dim>384</dim>
					<dim>1</dim>
					<dim>1</dim>
				</port>
			</input>
			<output>
				<port id="2" precision="FP16">
					<dim>1</dim>
					<dim>64</dim>
					<dim>18</dim>
					<dim>30</dim>
				</port>
			</output>
		</layer>
		<layer id="305" name="BatchNormalization_299/variance/Fused_Add_" type="Add" version="opset1">
			<data auto_broadcast="numpy"/>
			<input>
				<port id="0">
					<dim>1</dim>
					<dim>64</dim>
					<dim>18</dim>
					<dim>30</dim>
				</port>
				<port id="1">
					<dim>1</dim>
					<dim>64</dim>
					<dim>1</dim>
					<dim>1</dim>
				</port>
			</input>
			<output>
				<port id="2" precision="FP16" names="1064">
					<dim>1</dim>
					<dim>64</dim>
					<dim>18</dim>
					<dim>30</dim>
				</port>
			</output>
		</layer>
		<layer id="306" name="Constant_300" type="Const" version="opset1">
			<data offset="279334" size="2" shape="1,1,1,1" element_type="f16"/>
			<output>
				<port id="0" precision="FP16" names="1065">
					<dim>1</dim>
					<dim>1</dim>
					<dim>1</dim>
					<dim>1</dim>
				</port>
			</output>
		</layer>
		<layer id="307" name="Constant_301" type="Const" version="opset1">
			<data offset="279336" size="2" shape="1,1,1,1" element_type="f16"/>
			<output>
				<port id="0" precision="FP16" names="1066">
					<dim>1</dim>
					<dim>1</dim>
					<dim>1</dim>
					<dim>1</dim>
				</port>
			</output>
		</layer>
		<layer id="308" name="Constant_30051063" type="Const" version="opset1">
			<data offset="279334" size="2" shape="1,1,1,1" element_type="f16"/>
			<output>
				<port id="0" precision="FP16" names="1065">
					<dim>1</dim>
					<dim>1</dim>
					<dim>1</dim>
					<dim>1</dim>
				</port>
			</output>
		</layer>
		<layer id="309" name="Constant_30151039" type="Const" version="opset1">
			<data offset="279336" size="2" shape="1,1,1,1" element_type="f16"/>
			<output>
				<port id="0" precision="FP16" names="1066">
					<dim>1</dim>
					<dim>1</dim>
					<dim>1</dim>
					<dim>1</dim>
				</port>
			</output>
		</layer>
		<layer id="310" name="FakeQuantize_302" type="FakeQuantize" version="opset1">
			<data levels="256" auto_broadcast="numpy"/>
			<input>
				<port id="0">
					<dim>1</dim>
					<dim>64</dim>
					<dim>18</dim>
					<dim>30</dim>
				</port>
				<port id="1">
					<dim>1</dim>
					<dim>1</dim>
					<dim>1</dim>
					<dim>1</dim>
				</port>
				<port id="2">
					<dim>1</dim>
					<dim>1</dim>
					<dim>1</dim>
					<dim>1</dim>
				</port>
				<port id="3">
					<dim>1</dim>
					<dim>1</dim>
					<dim>1</dim>
					<dim>1</dim>
				</port>
				<port id="4">
					<dim>1</dim>
					<dim>1</dim>
					<dim>1</dim>
					<dim>1</dim>
				</port>
			</input>
			<output>
				<port id="5" precision="FP16" names="1067">
					<dim>1</dim>
					<dim>64</dim>
					<dim>18</dim>
					<dim>30</dim>
				</port>
			</output>
		</layer>
		<layer id="311" name="Add_303" type="Add" version="opset1">
			<data auto_broadcast="numpy"/>
			<input>
				<port id="0">
					<dim>1</dim>
					<dim>64</dim>
					<dim>18</dim>
					<dim>30</dim>
				</port>
				<port id="1">
					<dim>1</dim>
					<dim>64</dim>
					<dim>18</dim>
					<dim>30</dim>
				</port>
			</input>
			<output>
				<port id="2" precision="FP16" names="1068">
					<dim>1</dim>
					<dim>64</dim>
					<dim>18</dim>
					<dim>30</dim>
				</port>
			</output>
		</layer>
		<layer id="312" name="Constant_30451618" type="Const" version="opset1">
			<data offset="279338" size="2" shape="1,1,1,1" element_type="f16"/>
			<output>
				<port id="0" precision="FP16" names="1069">
					<dim>1</dim>
					<dim>1</dim>
					<dim>1</dim>
					<dim>1</dim>
				</port>
			</output>
		</layer>
		<layer id="313" name="Constant_30550316" type="Const" version="opset1">
			<data offset="279340" size="2" shape="1,1,1,1" element_type="f16"/>
			<output>
				<port id="0" precision="FP16" names="1070">
					<dim>1</dim>
					<dim>1</dim>
					<dim>1</dim>
					<dim>1</dim>
				</port>
			</output>
		</layer>
		<layer id="314" name="Constant_304" type="Const" version="opset1">
			<data offset="279338" size="2" shape="1,1,1,1" element_type="f16"/>
			<output>
				<port id="0" precision="FP16" names="1069">
					<dim>1</dim>
					<dim>1</dim>
					<dim>1</dim>
					<dim>1</dim>
				</port>
			</output>
		</layer>
		<layer id="315" name="Constant_305" type="Const" version="opset1">
			<data offset="279340" size="2" shape="1,1,1,1" element_type="f16"/>
			<output>
				<port id="0" precision="FP16" names="1070">
					<dim>1</dim>
					<dim>1</dim>
					<dim>1</dim>
					<dim>1</dim>
				</port>
			</output>
		</layer>
		<layer id="316" name="FakeQuantize_306" type="FakeQuantize" version="opset1">
			<data levels="256" auto_broadcast="numpy"/>
			<input>
				<port id="0">
					<dim>1</dim>
					<dim>64</dim>
					<dim>18</dim>
					<dim>30</dim>
				</port>
				<port id="1">
					<dim>1</dim>
					<dim>1</dim>
					<dim>1</dim>
					<dim>1</dim>
				</port>
				<port id="2">
					<dim>1</dim>
					<dim>1</dim>
					<dim>1</dim>
					<dim>1</dim>
				</port>
				<port id="3">
					<dim>1</dim>
					<dim>1</dim>
					<dim>1</dim>
					<dim>1</dim>
				</port>
				<port id="4">
					<dim>1</dim>
					<dim>1</dim>
					<dim>1</dim>
					<dim>1</dim>
				</port>
			</input>
			<output>
				<port id="5" precision="FP16" names="1071">
					<dim>1</dim>
					<dim>64</dim>
					<dim>18</dim>
					<dim>30</dim>
				</port>
			</output>
		</layer>
		<layer id="317" name="data_add_2376223767" type="Const" version="opset1">
			<data offset="279342" size="128" shape="1,64,1,1" element_type="f16"/>
			<output>
				<port id="0" precision="FP16">
					<dim>1</dim>
					<dim>64</dim>
					<dim>1</dim>
					<dim>1</dim>
				</port>
			</output>
		</layer>
		<layer id="318" name="Constant_33551414" type="Const" version="opset1">
			<data offset="1188" size="2" shape="1,1,1,1" element_type="f16"/>
			<output>
				<port id="0" precision="FP16" names="1109">
					<dim>1</dim>
					<dim>1</dim>
					<dim>1</dim>
					<dim>1</dim>
				</port>
			</output>
		</layer>
		<layer id="319" name="Constant_336" type="Const" version="opset1">
			<data offset="279470" size="2" shape="1,1,1,1" element_type="f16"/>
			<output>
				<port id="0" precision="FP16" names="1110">
					<dim>1</dim>
					<dim>1</dim>
					<dim>1</dim>
					<dim>1</dim>
				</port>
			</output>
		</layer>
		<layer id="320" name="Constant_335" type="Const" version="opset1">
			<data offset="1188" size="2" shape="1,1,1,1" element_type="f16"/>
			<output>
				<port id="0" precision="FP16" names="1109">
					<dim>1</dim>
					<dim>1</dim>
					<dim>1</dim>
					<dim>1</dim>
				</port>
			</output>
		</layer>
		<layer id="321" name="Constant_33651522" type="Const" version="opset1">
			<data offset="279470" size="2" shape="1,1,1,1" element_type="f16"/>
			<output>
				<port id="0" precision="FP16" names="1110">
					<dim>1</dim>
					<dim>1</dim>
					<dim>1</dim>
					<dim>1</dim>
				</port>
			</output>
		</layer>
		<layer id="322" name="data_add_2375423759" type="Const" version="opset1">
			<data offset="279472" size="768" shape="1,384,1,1" element_type="f16"/>
			<output>
				<port id="0" precision="FP16">
					<dim>1</dim>
					<dim>384</dim>
					<dim>1</dim>
					<dim>1</dim>
				</port>
			</output>
		</layer>
		<layer id="323" name="Constant_327" type="Const" version="opset1">
			<data offset="49220" size="768" shape="1,384,1,1" element_type="f16"/>
			<output>
				<port id="0" precision="FP16" names="1101">
					<dim>1</dim>
					<dim>384</dim>
					<dim>1</dim>
					<dim>1</dim>
				</port>
			</output>
		</layer>
		<layer id="324" name="Constant_32751447" type="Const" version="opset1">
			<data offset="49220" size="768" shape="1,384,1,1" element_type="f16"/>
			<output>
				<port id="0" precision="FP16" names="1101">
					<dim>1</dim>
					<dim>384</dim>
					<dim>1</dim>
					<dim>1</dim>
				</port>
			</output>
		</layer>
		<layer id="325" name="Constant_328" type="Const" version="opset1">
			<data offset="280240" size="768" shape="1,384,1,1" element_type="f16"/>
			<output>
				<port id="0" precision="FP16" names="1102">
					<dim>1</dim>
					<dim>384</dim>
					<dim>1</dim>
					<dim>1</dim>
				</port>
			</output>
		</layer>
		<layer id="326" name="Constant_32851582" type="Const" version="opset1">
			<data offset="280240" size="768" shape="1,384,1,1" element_type="f16"/>
			<output>
				<port id="0" precision="FP16" names="1102">
					<dim>1</dim>
					<dim>384</dim>
					<dim>1</dim>
					<dim>1</dim>
				</port>
			</output>
		</layer>
		<layer id="327" name="data_add_2374623751" type="Const" version="opset1">
			<data offset="281008" size="768" shape="1,384,1,1" element_type="f16"/>
			<output>
				<port id="0" precision="FP16">
					<dim>1</dim>
					<dim>384</dim>
					<dim>1</dim>
					<dim>1</dim>
				</port>
			</output>
		</layer>
		<layer id="328" name="BatchNormalization_323/mean/Fused_Mul__copy" type="Const" version="opset1">
			<data offset="281776" size="49152" shape="384,64,1,1" element_type="f16"/>
			<output>
				<port id="0" precision="FP16" names="nncf_module.backbone.features.9.conv.0.weight">
					<dim>384</dim>
					<dim>64</dim>
					<dim>1</dim>
					<dim>1</dim>
				</port>
			</output>
		</layer>
		<layer id="329" name="Conv_322" type="Convolution" version="opset1">
			<data auto_pad="explicit" strides="1,1" dilations="1,1" pads_begin="1,1" pads_end="1,1"/>
			<input>
				<port id="0">
					<dim>1</dim>
					<dim>64</dim>
					<dim>18</dim>
					<dim>30</dim>
				</port>
				<port id="1">
					<dim>384</dim>
					<dim>64</dim>
					<dim>1</dim>
					<dim>1</dim>
				</port>
			</input>
			<output>
				<port id="2" precision="FP16">
					<dim>1</dim>
					<dim>384</dim>
					<dim>20</dim>
					<dim>32</dim>
				</port>
			</output>
		</layer>
		<layer id="330" name="BatchNormalization_323/variance/Fused_Add_" type="Add" version="opset1">
			<data auto_broadcast="numpy"/>
			<input>
				<port id="0">
					<dim>1</dim>
					<dim>384</dim>
					<dim>20</dim>
					<dim>32</dim>
				</port>
				<port id="1">
					<dim>1</dim>
					<dim>384</dim>
					<dim>1</dim>
					<dim>1</dim>
				</port>
			</input>
			<output>
				<port id="2" precision="FP16" names="1097">
					<dim>1</dim>
					<dim>384</dim>
					<dim>20</dim>
					<dim>32</dim>
				</port>
			</output>
		</layer>
		<layer id="331" name="Clip_326" type="Clamp" version="opset1">
			<data max="6.0" min="0.0"/>
			<input>
				<port id="0">
					<dim>1</dim>
					<dim>384</dim>
					<dim>20</dim>
					<dim>32</dim>
				</port>
			</input>
			<output>
				<port id="1" precision="FP16" names="1100">
					<dim>1</dim>
					<dim>384</dim>
					<dim>20</dim>
					<dim>32</dim>
				</port>
			</output>
		</layer>
		<layer id="332" name="FakeQuantize_329" type="FakeQuantize" version="opset1">
			<data levels="256" auto_broadcast="numpy"/>
			<input>
				<port id="0">
					<dim>1</dim>
					<dim>384</dim>
					<dim>20</dim>
					<dim>32</dim>
				</port>
				<port id="1">
					<dim>1</dim>
					<dim>384</dim>
					<dim>1</dim>
					<dim>1</dim>
				</port>
				<port id="2">
					<dim>1</dim>
					<dim>384</dim>
					<dim>1</dim>
					<dim>1</dim>
				</port>
				<port id="3">
					<dim>1</dim>
					<dim>384</dim>
					<dim>1</dim>
					<dim>1</dim>
				</port>
				<port id="4">
					<dim>1</dim>
					<dim>384</dim>
					<dim>1</dim>
					<dim>1</dim>
				</port>
			</input>
			<output>
				<port id="5" precision="FP16" names="1103">
					<dim>1</dim>
					<dim>384</dim>
					<dim>20</dim>
					<dim>32</dim>
				</port>
			</output>
		</layer>
		<layer id="333" name="BatchNormalization_331/mean/Fused_Mul__copy" type="Const" version="opset1">
			<data offset="330928" size="6912" shape="384,1,1,3,3" element_type="f16"/>
			<output>
				<port id="0" precision="FP16" names="nncf_module.backbone.features.9.conv.3.weight">
					<dim>384</dim>
					<dim>1</dim>
					<dim>1</dim>
					<dim>3</dim>
					<dim>3</dim>
				</port>
			</output>
		</layer>
		<layer id="334" name="Conv_330" type="GroupConvolution" version="opset1">
			<data auto_pad="explicit" strides="1,1" dilations="1,1" pads_begin="0,0" pads_end="0,0"/>
			<input>
				<port id="0">
					<dim>1</dim>
					<dim>384</dim>
					<dim>20</dim>
					<dim>32</dim>
				</port>
				<port id="1">
					<dim>384</dim>
					<dim>1</dim>
					<dim>1</dim>
					<dim>3</dim>
					<dim>3</dim>
				</port>
			</input>
			<output>
				<port id="2" precision="FP16">
					<dim>1</dim>
					<dim>384</dim>
					<dim>18</dim>
					<dim>30</dim>
				</port>
			</output>
		</layer>
		<layer id="335" name="BatchNormalization_331/variance/Fused_Add_" type="Add" version="opset1">
			<data auto_broadcast="numpy"/>
			<input>
				<port id="0">
					<dim>1</dim>
					<dim>384</dim>
					<dim>18</dim>
					<dim>30</dim>
				</port>
				<port id="1">
					<dim>1</dim>
					<dim>384</dim>
					<dim>1</dim>
					<dim>1</dim>
				</port>
			</input>
			<output>
				<port id="2" precision="FP16" names="1105">
					<dim>1</dim>
					<dim>384</dim>
					<dim>18</dim>
					<dim>30</dim>
				</port>
			</output>
		</layer>
		<layer id="336" name="Clip_334" type="Clamp" version="opset1">
			<data max="6.0" min="0.0"/>
			<input>
				<port id="0">
					<dim>1</dim>
					<dim>384</dim>
					<dim>18</dim>
					<dim>30</dim>
				</port>
			</input>
			<output>
				<port id="1" precision="FP16" names="1108">
					<dim>1</dim>
					<dim>384</dim>
					<dim>18</dim>
					<dim>30</dim>
				</port>
			</output>
		</layer>
		<layer id="337" name="FakeQuantize_337" type="FakeQuantize" version="opset1">
			<data levels="256" auto_broadcast="numpy"/>
			<input>
				<port id="0">
					<dim>1</dim>
					<dim>384</dim>
					<dim>18</dim>
					<dim>30</dim>
				</port>
				<port id="1">
					<dim>1</dim>
					<dim>1</dim>
					<dim>1</dim>
					<dim>1</dim>
				</port>
				<port id="2">
					<dim>1</dim>
					<dim>1</dim>
					<dim>1</dim>
					<dim>1</dim>
				</port>
				<port id="3">
					<dim>1</dim>
					<dim>1</dim>
					<dim>1</dim>
					<dim>1</dim>
				</port>
				<port id="4">
					<dim>1</dim>
					<dim>1</dim>
					<dim>1</dim>
					<dim>1</dim>
				</port>
			</input>
			<output>
				<port id="5" precision="FP16" names="1111">
					<dim>1</dim>
					<dim>384</dim>
					<dim>18</dim>
					<dim>30</dim>
				</port>
			</output>
		</layer>
		<layer id="338" name="BatchNormalization_339/mean/Fused_Mul__copy" type="Const" version="opset1">
			<data offset="337840" size="49152" shape="64,384,1,1" element_type="f16"/>
			<output>
				<port id="0" precision="FP16" names="nncf_module.backbone.features.9.conv.6.weight">
					<dim>64</dim>
					<dim>384</dim>
					<dim>1</dim>
					<dim>1</dim>
				</port>
			</output>
		</layer>
		<layer id="339" name="Conv_338" type="Convolution" version="opset1">
			<data auto_pad="explicit" strides="1,1" dilations="1,1" pads_begin="0,0" pads_end="0,0"/>
			<input>
				<port id="0">
					<dim>1</dim>
					<dim>384</dim>
					<dim>18</dim>
					<dim>30</dim>
				</port>
				<port id="1">
					<dim>64</dim>
					<dim>384</dim>
					<dim>1</dim>
					<dim>1</dim>
				</port>
			</input>
			<output>
				<port id="2" precision="FP16">
					<dim>1</dim>
					<dim>64</dim>
					<dim>18</dim>
					<dim>30</dim>
				</port>
			</output>
		</layer>
		<layer id="340" name="BatchNormalization_339/variance/Fused_Add_" type="Add" version="opset1">
			<data auto_broadcast="numpy"/>
			<input>
				<port id="0">
					<dim>1</dim>
					<dim>64</dim>
					<dim>18</dim>
					<dim>30</dim>
				</port>
				<port id="1">
					<dim>1</dim>
					<dim>64</dim>
					<dim>1</dim>
					<dim>1</dim>
				</port>
			</input>
			<output>
				<port id="2" precision="FP16" names="1113">
					<dim>1</dim>
					<dim>64</dim>
					<dim>18</dim>
					<dim>30</dim>
				</port>
			</output>
		</layer>
		<layer id="341" name="Constant_34050487" type="Const" version="opset1">
			<data offset="386992" size="2" shape="1,1,1,1" element_type="f16"/>
			<output>
				<port id="0" precision="FP16" names="1114">
					<dim>1</dim>
					<dim>1</dim>
					<dim>1</dim>
					<dim>1</dim>
				</port>
			</output>
		</layer>
		<layer id="342" name="Constant_341" type="Const" version="opset1">
			<data offset="386994" size="2" shape="1,1,1,1" element_type="f16"/>
			<output>
				<port id="0" precision="FP16" names="1115">
					<dim>1</dim>
					<dim>1</dim>
					<dim>1</dim>
					<dim>1</dim>
				</port>
			</output>
		</layer>
		<layer id="343" name="Constant_340" type="Const" version="opset1">
			<data offset="386992" size="2" shape="1,1,1,1" element_type="f16"/>
			<output>
				<port id="0" precision="FP16" names="1114">
					<dim>1</dim>
					<dim>1</dim>
					<dim>1</dim>
					<dim>1</dim>
				</port>
			</output>
		</layer>
		<layer id="344" name="Constant_34151180" type="Const" version="opset1">
			<data offset="386994" size="2" shape="1,1,1,1" element_type="f16"/>
			<output>
				<port id="0" precision="FP16" names="1115">
					<dim>1</dim>
					<dim>1</dim>
					<dim>1</dim>
					<dim>1</dim>
				</port>
			</output>
		</layer>
		<layer id="345" name="FakeQuantize_342" type="FakeQuantize" version="opset1">
			<data levels="256" auto_broadcast="numpy"/>
			<input>
				<port id="0">
					<dim>1</dim>
					<dim>64</dim>
					<dim>18</dim>
					<dim>30</dim>
				</port>
				<port id="1">
					<dim>1</dim>
					<dim>1</dim>
					<dim>1</dim>
					<dim>1</dim>
				</port>
				<port id="2">
					<dim>1</dim>
					<dim>1</dim>
					<dim>1</dim>
					<dim>1</dim>
				</port>
				<port id="3">
					<dim>1</dim>
					<dim>1</dim>
					<dim>1</dim>
					<dim>1</dim>
				</port>
				<port id="4">
					<dim>1</dim>
					<dim>1</dim>
					<dim>1</dim>
					<dim>1</dim>
				</port>
			</input>
			<output>
				<port id="5" precision="FP16" names="1116">
					<dim>1</dim>
					<dim>64</dim>
					<dim>18</dim>
					<dim>30</dim>
				</port>
			</output>
		</layer>
		<layer id="346" name="Add_343" type="Add" version="opset1">
			<data auto_broadcast="numpy"/>
			<input>
				<port id="0">
					<dim>1</dim>
					<dim>64</dim>
					<dim>18</dim>
					<dim>30</dim>
				</port>
				<port id="1">
					<dim>1</dim>
					<dim>64</dim>
					<dim>18</dim>
					<dim>30</dim>
				</port>
			</input>
			<output>
				<port id="2" precision="FP16" names="1117">
					<dim>1</dim>
					<dim>64</dim>
					<dim>18</dim>
					<dim>30</dim>
				</port>
			</output>
		</layer>
		<layer id="347" name="Constant_344" type="Const" version="opset1">
			<data offset="386996" size="2" shape="1,1,1,1" element_type="f16"/>
			<output>
				<port id="0" precision="FP16" names="1118">
					<dim>1</dim>
					<dim>1</dim>
					<dim>1</dim>
					<dim>1</dim>
				</port>
			</output>
		</layer>
		<layer id="348" name="Constant_34550943" type="Const" version="opset1">
			<data offset="386998" size="2" shape="1,1,1,1" element_type="f16"/>
			<output>
				<port id="0" precision="FP16" names="1119">
					<dim>1</dim>
					<dim>1</dim>
					<dim>1</dim>
					<dim>1</dim>
				</port>
			</output>
		</layer>
		<layer id="349" name="Constant_34451153" type="Const" version="opset1">
			<data offset="386996" size="2" shape="1,1,1,1" element_type="f16"/>
			<output>
				<port id="0" precision="FP16" names="1118">
					<dim>1</dim>
					<dim>1</dim>
					<dim>1</dim>
					<dim>1</dim>
				</port>
			</output>
		</layer>
		<layer id="350" name="Constant_345" type="Const" version="opset1">
			<data offset="386998" size="2" shape="1,1,1,1" element_type="f16"/>
			<output>
				<port id="0" precision="FP16" names="1119">
					<dim>1</dim>
					<dim>1</dim>
					<dim>1</dim>
					<dim>1</dim>
				</port>
			</output>
		</layer>
		<layer id="351" name="FakeQuantize_346" type="FakeQuantize" version="opset1">
			<data levels="256" auto_broadcast="numpy"/>
			<input>
				<port id="0">
					<dim>1</dim>
					<dim>64</dim>
					<dim>18</dim>
					<dim>30</dim>
				</port>
				<port id="1">
					<dim>1</dim>
					<dim>1</dim>
					<dim>1</dim>
					<dim>1</dim>
				</port>
				<port id="2">
					<dim>1</dim>
					<dim>1</dim>
					<dim>1</dim>
					<dim>1</dim>
				</port>
				<port id="3">
					<dim>1</dim>
					<dim>1</dim>
					<dim>1</dim>
					<dim>1</dim>
				</port>
				<port id="4">
					<dim>1</dim>
					<dim>1</dim>
					<dim>1</dim>
					<dim>1</dim>
				</port>
			</input>
			<output>
				<port id="5" precision="FP16" names="1120">
					<dim>1</dim>
					<dim>64</dim>
					<dim>18</dim>
					<dim>30</dim>
				</port>
			</output>
		</layer>
		<layer id="352" name="data_add_2378623791" type="Const" version="opset1">
			<data offset="387000" size="128" shape="1,64,1,1" element_type="f16"/>
			<output>
				<port id="0" precision="FP16">
					<dim>1</dim>
					<dim>64</dim>
					<dim>1</dim>
					<dim>1</dim>
				</port>
			</output>
		</layer>
		<layer id="353" name="Constant_375" type="Const" version="opset1">
			<data offset="1188" size="2" shape="1,1,1,1" element_type="f16"/>
			<output>
				<port id="0" precision="FP16" names="1158">
					<dim>1</dim>
					<dim>1</dim>
					<dim>1</dim>
					<dim>1</dim>
				</port>
			</output>
		</layer>
		<layer id="354" name="Constant_376" type="Const" version="opset1">
			<data offset="387128" size="2" shape="1,1,1,1" element_type="f16"/>
			<output>
				<port id="0" precision="FP16" names="1159">
					<dim>1</dim>
					<dim>1</dim>
					<dim>1</dim>
					<dim>1</dim>
				</port>
			</output>
		</layer>
		<layer id="355" name="Constant_37550589" type="Const" version="opset1">
			<data offset="1188" size="2" shape="1,1,1,1" element_type="f16"/>
			<output>
				<port id="0" precision="FP16" names="1158">
					<dim>1</dim>
					<dim>1</dim>
					<dim>1</dim>
					<dim>1</dim>
				</port>
			</output>
		</layer>
		<layer id="356" name="Constant_37651297" type="Const" version="opset1">
			<data offset="387128" size="2" shape="1,1,1,1" element_type="f16"/>
			<output>
				<port id="0" precision="FP16" names="1159">
					<dim>1</dim>
					<dim>1</dim>
					<dim>1</dim>
					<dim>1</dim>
				</port>
			</output>
		</layer>
		<layer id="357" name="data_add_2377823783" type="Const" version="opset1">
			<data offset="387130" size="768" shape="1,384,1,1" element_type="f16"/>
			<output>
				<port id="0" precision="FP16">
					<dim>1</dim>
					<dim>384</dim>
					<dim>1</dim>
					<dim>1</dim>
				</port>
			</output>
		</layer>
		<layer id="358" name="Constant_367" type="Const" version="opset1">
			<data offset="49220" size="768" shape="1,384,1,1" element_type="f16"/>
			<output>
				<port id="0" precision="FP16" names="1150">
					<dim>1</dim>
					<dim>384</dim>
					<dim>1</dim>
					<dim>1</dim>
				</port>
			</output>
		</layer>
		<layer id="359" name="Constant_36750550" type="Const" version="opset1">
			<data offset="49220" size="768" shape="1,384,1,1" element_type="f16"/>
			<output>
				<port id="0" precision="FP16" names="1150">
					<dim>1</dim>
					<dim>384</dim>
					<dim>1</dim>
					<dim>1</dim>
				</port>
			</output>
		</layer>
		<layer id="360" name="Constant_36851531" type="Const" version="opset1">
			<data offset="387898" size="768" shape="1,384,1,1" element_type="f16"/>
			<output>
				<port id="0" precision="FP16" names="1151">
					<dim>1</dim>
					<dim>384</dim>
					<dim>1</dim>
					<dim>1</dim>
				</port>
			</output>
		</layer>
		<layer id="361" name="Constant_368" type="Const" version="opset1">
			<data offset="387898" size="768" shape="1,384,1,1" element_type="f16"/>
			<output>
				<port id="0" precision="FP16" names="1151">
					<dim>1</dim>
					<dim>384</dim>
					<dim>1</dim>
					<dim>1</dim>
				</port>
			</output>
		</layer>
		<layer id="362" name="data_add_2377023775" type="Const" version="opset1">
			<data offset="388666" size="768" shape="1,384,1,1" element_type="f16"/>
			<output>
				<port id="0" precision="FP16">
					<dim>1</dim>
					<dim>384</dim>
					<dim>1</dim>
					<dim>1</dim>
				</port>
			</output>
		</layer>
		<layer id="363" name="BatchNormalization_363/mean/Fused_Mul__copy" type="Const" version="opset1">
			<data offset="389434" size="49152" shape="384,64,1,1" element_type="f16"/>
			<output>
				<port id="0" precision="FP16" names="nncf_module.backbone.features.10.conv.0.weight">
					<dim>384</dim>
					<dim>64</dim>
					<dim>1</dim>
					<dim>1</dim>
				</port>
			</output>
		</layer>
		<layer id="364" name="Conv_362" type="Convolution" version="opset1">
			<data auto_pad="explicit" strides="1,1" dilations="1,1" pads_begin="1,1" pads_end="1,1"/>
			<input>
				<port id="0">
					<dim>1</dim>
					<dim>64</dim>
					<dim>18</dim>
					<dim>30</dim>
				</port>
				<port id="1">
					<dim>384</dim>
					<dim>64</dim>
					<dim>1</dim>
					<dim>1</dim>
				</port>
			</input>
			<output>
				<port id="2" precision="FP16">
					<dim>1</dim>
					<dim>384</dim>
					<dim>20</dim>
					<dim>32</dim>
				</port>
			</output>
		</layer>
		<layer id="365" name="BatchNormalization_363/variance/Fused_Add_" type="Add" version="opset1">
			<data auto_broadcast="numpy"/>
			<input>
				<port id="0">
					<dim>1</dim>
					<dim>384</dim>
					<dim>20</dim>
					<dim>32</dim>
				</port>
				<port id="1">
					<dim>1</dim>
…
		<edge from-layer="210" from-port="0" to-layer="211" to-port="1"/>
		<edge from-layer="211" from-port="2" to-layer="212" to-port="0"/>
		<edge from-layer="199" from-port="0" to-layer="212" to-port="1"/>
		<edge from-layer="212" from-port="2" to-layer="213" to-port="0"/>
		<edge from-layer="213" from-port="1" to-layer="214" to-port="0"/>
		<edge from-layer="195" from-port="0" to-layer="214" to-port="1"/>
		<edge from-layer="196" from-port="0" to-layer="214" to-port="2"/>
		<edge from-layer="197" from-port="0" to-layer="214" to-port="3"/>
		<edge from-layer="198" from-port="0" to-layer="214" to-port="4"/>
		<edge from-layer="214" from-port="5" to-layer="216" to-port="0"/>
		<edge from-layer="215" from-port="0" to-layer="216" to-port="1"/>
		<edge from-layer="216" from-port="2" to-layer="217" to-port="0"/>
		<edge from-layer="194" from-port="0" to-layer="217" to-port="1"/>
		<edge from-layer="217" from-port="2" to-layer="222" to-port="0"/>
		<edge from-layer="218" from-port="0" to-layer="222" to-port="1"/>
		<edge from-layer="219" from-port="0" to-layer="222" to-port="2"/>
		<edge from-layer="220" from-port="0" to-layer="222" to-port="3"/>
		<edge from-layer="221" from-port="0" to-layer="222" to-port="4"/>
		<edge from-layer="193" from-port="5" to-layer="223" to-port="0"/>
		<edge from-layer="222" from-port="5" to-layer="223" to-port="1"/>
		<edge from-layer="223" from-port="2" to-layer="228" to-port="0"/>
		<edge from-layer="224" from-port="0" to-layer="228" to-port="1"/>
		<edge from-layer="225" from-port="0" to-layer="228" to-port="2"/>
		<edge from-layer="226" from-port="0" to-layer="228" to-port="3"/>
		<edge from-layer="227" from-port="0" to-layer="228" to-port="4"/>
		<edge from-layer="228" from-port="5" to-layer="241" to-port="0"/>
		<edge from-layer="240" from-port="0" to-layer="241" to-port="1"/>
		<edge from-layer="241" from-port="2" to-layer="242" to-port="0"/>
		<edge from-layer="239" from-port="0" to-layer="242" to-port="1"/>
		<edge from-layer="242" from-port="2" to-layer="243" to-port="0"/>
		<edge from-layer="243" from-port="1" to-layer="244" to-port="0"/>
		<edge from-layer="235" from-port="0" to-layer="244" to-port="1"/>
		<edge from-layer="237" from-port="0" to-layer="244" to-port="2"/>
		<edge from-layer="236" from-port="0" to-layer="244" to-port="3"/>
		<edge from-layer="238" from-port="0" to-layer="244" to-port="4"/>
		<edge from-layer="244" from-port="5" to-layer="246" to-port="0"/>
		<edge from-layer="245" from-port="0" to-layer="246" to-port="1"/>
		<edge from-layer="246" from-port="2" to-layer="247" to-port="0"/>
		<edge from-layer="234" from-port="0" to-layer="247" to-port="1"/>
		<edge from-layer="247" from-port="2" to-layer="248" to-port="0"/>
		<edge from-layer="248" from-port="1" to-layer="249" to-port="0"/>
		<edge from-layer="230" from-port="0" to-layer="249" to-port="1"/>
		<edge from-layer="231" from-port="0" to-layer="249" to-port="2"/>
		<edge from-layer="232" from-port="0" to-layer="249" to-port="3"/>
		<edge from-layer="233" from-port="0" to-layer="249" to-port="4"/>
		<edge from-layer="249" from-port="5" to-layer="251" to-port="0"/>
		<edge from-layer="250" from-port="0" to-layer="251" to-port="1"/>
		<edge from-layer="251" from-port="2" to-layer="252" to-port="0"/>
		<edge from-layer="229" from-port="0" to-layer="252" to-port="1"/>
		<edge from-layer="252" from-port="2" to-layer="257" to-port="0"/>
		<edge from-layer="253" from-port="0" to-layer="257" to-port="1"/>
		<edge from-layer="254" from-port="0" to-layer="257" to-port="2"/>
		<edge from-layer="255" from-port="0" to-layer="257" to-port="3"/>
		<edge from-layer="256" from-port="0" to-layer="257" to-port="4"/>
		<edge from-layer="228" from-port="5" to-layer="258" to-port="0"/>
		<edge from-layer="257" from-port="5" to-layer="258" to-port="1"/>
		<edge from-layer="258" from-port="2" to-layer="263" to-port="0"/>
		<edge from-layer="259" from-port="0" to-layer="263" to-port="1"/>
		<edge from-layer="260" from-port="0" to-layer="263" to-port="2"/>
		<edge from-layer="261" from-port="0" to-layer="263" to-port="3"/>
		<edge from-layer="262" from-port="0" to-layer="263" to-port="4"/>
		<edge from-layer="263" from-port="5" to-layer="265" to-port="0"/>
		<edge from-layer="264" from-port="0" to-layer="265" to-port="1"/>
		<edge from-layer="265" from-port="2" to-layer="266" to-port="0"/>
		<edge from-layer="164" from-port="0" to-layer="266" to-port="1"/>
		<edge from-layer="266" from-port="2" to-layer="267" to-port="0"/>
		<edge from-layer="267" from-port="1" to-layer="268" to-port="0"/>
		<edge from-layer="160" from-port="0" to-layer="268" to-port="1"/>
		<edge from-layer="162" from-port="0" to-layer="268" to-port="2"/>
		<edge from-layer="161" from-port="0" to-layer="268" to-port="3"/>
		<edge from-layer="163" from-port="0" to-layer="268" to-port="4"/>
		<edge from-layer="268" from-port="5" to-layer="270" to-port="0"/>
		<edge from-layer="269" from-port="0" to-layer="270" to-port="1"/>
		<edge from-layer="270" from-port="2" to-layer="271" to-port="0"/>
		<edge from-layer="159" from-port="0" to-layer="271" to-port="1"/>
		<edge from-layer="271" from-port="2" to-layer="272" to-port="0"/>
		<edge from-layer="272" from-port="1" to-layer="273" to-port="0"/>
		<edge from-layer="155" from-port="0" to-layer="273" to-port="1"/>
		<edge from-layer="156" from-port="0" to-layer="273" to-port="2"/>
		<edge from-layer="157" from-port="0" to-layer="273" to-port="3"/>
		<edge from-layer="158" from-port="0" to-layer="273" to-port="4"/>
		<edge from-layer="273" from-port="5" to-layer="275" to-port="0"/>
		<edge from-layer="274" from-port="0" to-layer="275" to-port="1"/>
		<edge from-layer="275" from-port="2" to-layer="276" to-port="0"/>
		<edge from-layer="154" from-port="0" to-layer="276" to-port="1"/>
		<edge from-layer="276" from-port="2" to-layer="281" to-port="0"/>
		<edge from-layer="277" from-port="0" to-layer="281" to-port="1"/>
		<edge from-layer="278" from-port="0" to-layer="281" to-port="2"/>
		<edge from-layer="279" from-port="0" to-layer="281" to-port="3"/>
		<edge from-layer="280" from-port="0" to-layer="281" to-port="4"/>
		<edge from-layer="281" from-port="5" to-layer="294" to-port="0"/>
		<edge from-layer="293" from-port="0" to-layer="294" to-port="1"/>
		<edge from-layer="294" from-port="2" to-layer="295" to-port="0"/>
		<edge from-layer="292" from-port="0" to-layer="295" to-port="1"/>
		<edge from-layer="295" from-port="2" to-layer="296" to-port="0"/>
		<edge from-layer="296" from-port="1" to-layer="297" to-port="0"/>
		<edge from-layer="288" from-port="0" to-layer="297" to-port="1"/>
		<edge from-layer="290" from-port="0" to-layer="297" to-port="2"/>
		<edge from-layer="289" from-port="0" to-layer="297" to-port="3"/>
		<edge from-layer="291" from-port="0" to-layer="297" to-port="4"/>
		<edge from-layer="297" from-port="5" to-layer="299" to-port="0"/>
		<edge from-layer="298" from-port="0" to-layer="299" to-port="1"/>
		<edge from-layer="299" from-port="2" to-layer="300" to-port="0"/>
		<edge from-layer="287" from-port="0" to-layer="300" to-port="1"/>
		<edge from-layer="300" from-port="2" to-layer="301" to-port="0"/>
		<edge from-layer="301" from-port="1" to-layer="302" to-port="0"/>
		<edge from-layer="283" from-port="0" to-layer="302" to-port="1"/>
		<edge from-layer="284" from-port="0" to-layer="302" to-port="2"/>
		<edge from-layer="285" from-port="0" to-layer="302" to-port="3"/>
		<edge from-layer="286" from-port="0" to-layer="302" to-port="4"/>
		<edge from-layer="302" from-port="5" to-layer="304" to-port="0"/>
		<edge from-layer="303" from-port="0" to-layer="304" to-port="1"/>
		<edge from-layer="304" from-port="2" to-layer="305" to-port="0"/>
		<edge from-layer="282" from-port="0" to-layer="305" to-port="1"/>
		<edge from-layer="305" from-port="2" to-layer="310" to-port="0"/>
		<edge from-layer="306" from-port="0" to-layer="310" to-port="1"/>
		<edge from-layer="307" from-port="0" to-layer="310" to-port="2"/>
		<edge from-layer="308" from-port="0" to-layer="310" to-port="3"/>
		<edge from-layer="309" from-port="0" to-layer="310" to-port="4"/>
		<edge from-layer="281" from-port="5" to-layer="311" to-port="0"/>
		<edge from-layer="310" from-port="5" to-layer="311" to-port="1"/>
		<edge from-layer="311" from-port="2" to-layer="316" to-port="0"/>
		<edge from-layer="312" from-port="0" to-layer="316" to-port="1"/>
		<edge from-layer="313" from-port="0" to-layer="316" to-port="2"/>
		<edge from-layer="314" from-port="0" to-layer="316" to-port="3"/>
		<edge from-layer="315" from-port="0" to-layer="316" to-port="4"/>
		<edge from-layer="316" from-port="5" to-layer="329" to-port="0"/>
		<edge from-layer="328" from-port="0" to-layer="329" to-port="1"/>
		<edge from-layer="329" from-port="2" to-layer="330" to-port="0"/>
		<edge from-layer="327" from-port="0" to-layer="330" to-port="1"/>
		<edge from-layer="330" from-port="2" to-layer="331" to-port="0"/>
		<edge from-layer="331" from-port="1" to-layer="332" to-port="0"/>
		<edge from-layer="323" from-port="0" to-layer="332" to-port="1"/>
		<edge from-layer="325" from-port="0" to-layer="332" to-port="2"/>
		<edge from-layer="324" from-port="0" to-layer="332" to-port="3"/>
		<edge from-layer="326" from-port="0" to-layer="332" to-port="4"/>
		<edge from-layer="332" from-port="5" to-layer="334" to-port="0"/>
		<edge from-layer="333" from-port="0" to-layer="334" to-port="1"/>
		<edge from-layer="334" from-port="2" to-layer="335" to-port="0"/>
		<edge from-layer="322" from-port="0" to-layer="335" to-port="1"/>
		<edge from-layer="335" from-port="2" to-layer="336" to-port="0"/>
		<edge from-layer="336" from-port="1" to-layer="337" to-port="0"/>
		<edge from-layer="318" from-port="0" to-layer="337" to-port="1"/>
		<edge from-layer="319" from-port="0" to-layer="337" to-port="2"/>
		<edge from-layer="320" from-port="0" to-layer="337" to-port="3"/>
		<edge from-layer="321" from-port="0" to-layer="337" to-port="4"/>
		<edge from-layer="337" from-port="5" to-layer="339" to-port="0"/>
		<edge from-layer="338" from-port="0" to-layer="339" to-port="1"/>
		<edge from-layer="339" from-port="2" to-layer="340" to-port="0"/>
		<edge from-layer="317" from-port="0" to-layer="340" to-port="1"/>
		<edge from-layer="340" from-port="2" to-layer="345" to-port="0"/>
		<edge from-layer="341" from-port="0" to-layer="345" to-port="1"/>
		<edge from-layer="342" from-port="0" to-layer="345" to-port="2"/>
		<edge from-layer="343" from-port="0" to-layer="345" to-port="3"/>
		<edge from-layer="344" from-port="0" to-layer="345" to-port="4"/>
		<edge from-layer="316" from-port="5" to-layer="346" to-port="0"/>
		<edge from-layer="345" from-port="5" to-layer="346" to-port="1"/>
		<edge from-layer="346" from-port="2" to-layer="351" to-port="0"/>
		<edge from-layer="347" from-port="0" to-layer="351" to-port="1"/>
		<edge from-layer="348" from-port="0" to-layer="351" to-port="2"/>
		<edge from-layer="349" from-port="0" to-layer="351" to-port="3"/>
		<edge from-layer="350" from-port="0" to-layer="351" to-port="4"/>
		<edge from-layer="351" from-port="5" to-layer="364" to-port="0"/>
		<edge from-layer="363" from-port="0" to-layer="364" to-port="1"/>
		<edge from-layer="364" from-port="2" to-layer="365" to-port="0"/>
		<edge from-layer="362" from-port="0" to-layer="365" to-port="1"/>
		<edge from-layer="365" from-port="2" to-layer="366" to-port="0"/>
		<edge from-layer="366" from-port="1" to-layer="367" to-port="0"/>
		<edge from-layer="358" from-port="0" to-layer="367" to-port="1"/>
		<edge from-layer="360" from-port="0" to-layer="367" to-port="2"/>
		<edge from-layer="359" from-port="0" to-layer="367" to-port="3"/>
		<edge from-layer="361" from-port="0" to-layer="367" to-port="4"/>
		<edge from-layer="367" from-port="5" to-layer="369" to-port="0"/>
		<edge from-layer="368" from-port="0" to-layer="369" to-port="1"/>
		<edge from-layer="369" from-port="2" to-layer="370" to-port="0"/>
		<edge from-layer="357" from-port="0" to-layer="370" to-port="1"/>
		<edge from-layer="370" from-port="2" to-layer="371" to-port="0"/>
		<edge from-layer="371" from-port="1" to-layer="372" to-port="0"/>
		<edge from-layer="353" from-port="0" to-layer="372" to-port="1"/>
		<edge from-layer="354" from-port="0" to-layer="372" to-port="2"/>
		<edge from-layer="355" from-port="0" to-layer="372" to-port="3"/>
		<edge from-layer="356" from-port="0" to-layer="372" to-port="4"/>
		<edge from-layer="372" from-port="5" to-layer="374" to-port="0"/>
		<edge from-layer="373" from-port="0" to-layer="374" to-port="1"/>
		<edge from-layer="374" from-port="2" to-layer="375" to-port="0"/>
		<edge from-layer="352" from-port="0" to-layer="375" to-port="1"/>
		<edge from-layer="375" from-port="2" to-layer="380" to-port="0"/>
		<edge from-layer="376" from-port="0" to-layer="380" to-port="1"/>
		<edge from-layer="377" from-port="0" to-layer="380" to-port="2"/>
		<edge from-layer="378" from-port="0" to-layer="380" to-port="3"/>
		<edge from-layer="379" from-port="0" to-layer="380" to-port="4"/>
		<edge from-layer="351" from-port="5" to-layer="381" to-port="0"/>
		<edge from-layer="380" from-port="5" to-layer="381" to-port="1"/>
		<edge from-layer="381" from-port="2" to-layer="386" to-port="0"/>
		<edge from-layer="382" from-port="0" to-layer="386" to-port="1"/>
		<edge from-layer="383" from-port="0" to-layer="386" to-port="2"/>
		<edge from-layer="384" from-port="0" to-layer="386" to-port="3"/>
		<edge from-layer="385" from-port="0" to-layer="386" to-port="4"/>
		<edge from-layer="386" from-port="5" to-layer="388" to-port="0"/>
		<edge from-layer="387" from-port="0" to-layer="388" to-port="1"/>
		<edge from-layer="388" from-port="2" to-layer="389" to-port="0"/>
		<edge from-layer="153" from-port="0" to-layer="389" to-port="1"/>
		<edge from-layer="389" from-port="2" to-layer="390" to-port="0"/>
		<edge from-layer="390" from-port="1" to-layer="391" to-port="0"/>
		<edge from-layer="149" from-port="0" to-layer="391" to-port="1"/>
		<edge from-layer="151" from-port="0" to-layer="391" to-port="2"/>
		<edge from-layer="150" from-port="0" to-layer="391" to-port="3"/>
		<edge from-layer="152" from-port="0" to-layer="391" to-port="4"/>
		<edge from-layer="391" from-port="5" to-layer="393" to-port="0"/>
		<edge from-layer="392" from-port="0" to-layer="393" to-port="1"/>
		<edge from-layer="393" from-port="2" to-layer="394" to-port="0"/>
		<edge from-layer="148" from-port="0" to-layer="394" to-port="1"/>
		<edge from-layer="394" from-port="2" to-layer="395" to-port="0"/>
		<edge from-layer="395" from-port="1" to-layer="396" to-port="0"/>
		<edge from-layer="144" from-port="0" to-layer="396" to-port="1"/>
		<edge from-layer="145" from-port="0" to-layer="396" to-port="2"/>
		<edge from-layer="146" from-port="0" to-layer="396" to-port="3"/>
		<edge from-layer="147" from-port="0" to-layer="396" to-port="4"/>
		<edge from-layer="396" from-port="5" to-layer="398" to-port="0"/>
		<edge from-layer="397" from-port="0" to-layer="398" to-port="1"/>
		<edge from-layer="398" from-port="2" to-layer="399" to-port="0"/>
		<edge from-layer="143" from-port="0" to-layer="399" to-port="1"/>
		<edge from-layer="399" from-port="2" to-layer="404" to-port="0"/>
		<edge from-layer="400" from-port="0" to-layer="404" to-port="1"/>
		<edge from-layer="401" from-port="0" to-layer="404" to-port="2"/>
		<edge from-layer="402" from-port="0" to-layer="404" to-port="3"/>
		<edge from-layer="403" from-port="0" to-layer="404" to-port="4"/>
		<edge from-layer="404" from-port="5" to-layer="417" to-port="0"/>
		<edge from-layer="416" from-port="0" to-layer="417" to-port="1"/>
		<edge from-layer="417" from-port="2" to-layer="418" to-port="0"/>
		<edge from-layer="415" from-port="0" to-layer="418" to-port="1"/>
		<edge from-layer="418" from-port="2" to-layer="419" to-port="0"/>
		<edge from-layer="419" from-port="1" to-layer="420" to-port="0"/>
		<edge from-layer="411" from-port="0" to-layer="420" to-port="1"/>
		<edge from-layer="413" from-port="0" to-layer="420" to-port="2"/>
		<edge from-layer="412" from-port="0" to-layer="420" to-port="3"/>
		<edge from-layer="414" from-port="0" to-layer="420" to-port="4"/>
		<edge from-layer="420" from-port="5" to-layer="422" to-port="0"/>
		<edge from-layer="421" from-port="0" to-layer="422" to-port="1"/>
		<edge from-layer="422" from-port="2" to-layer="423" to-port="0"/>
		<edge from-layer="410" from-port="0" to-layer="423" to-port="1"/>
		<edge from-layer="423" from-port="2" to-layer="424" to-port="0"/>
		<edge from-layer="424" from-port="1" to-layer="425" to-port="0"/>
		<edge from-layer="406" from-port="0" to-layer="425" to-port="1"/>
		<edge from-layer="407" from-port="0" to-layer="425" to-port="2"/>
		<edge from-layer="408" from-port="0" to-layer="425" to-port="3"/>
		<edge from-layer="409" from-port="0" to-layer="425" to-port="4"/>
		<edge from-layer="425" from-port="5" to-layer="427" to-port="0"/>
		<edge from-layer="426" from-port="0" to-layer="427" to-port="1"/>
		<edge from-layer="427" from-port="2" to-layer="428" to-port="0"/>
		<edge from-layer="405" from-port="0" to-layer="428" to-port="1"/>
		<edge from-layer="428" from-port="2" to-layer="433" to-port="0"/>
		<edge from-layer="429" from-port="0" to-layer="433" to-port="1"/>
		<edge from-layer="430" from-port="0" to-layer="433" to-port="2"/>
		<edge from-layer="431" from-port="0" to-layer="433" to-port="3"/>
		<edge from-layer="432" from-port="0" to-layer="433" to-port="4"/>
		<edge from-layer="404" from-port="5" to-layer="434" to-port="0"/>
		<edge from-layer="433" from-port="5" to-layer="434" to-port="1"/>
		<edge from-layer="434" from-port="2" to-layer="439" to-port="0"/>
		<edge from-layer="435" from-port="0" to-layer="439" to-port="1"/>
		<edge from-layer="436" from-port="0" to-layer="439" to-port="2"/>
		<edge from-layer="437" from-port="0" to-layer="439" to-port="3"/>
		<edge from-layer="438" from-port="0" to-layer="439" to-port="4"/>
		<edge from-layer="439" from-port="5" to-layer="452" to-port="0"/>
		<edge from-layer="451" from-port="0" to-layer="452" to-port="1"/>
		<edge from-layer="452" from-port="2" to-layer="453" to-port="0"/>
		<edge from-layer="450" from-port="0" to-layer="453" to-port="1"/>
		<edge from-layer="453" from-port="2" to-layer="454" to-port="0"/>
		<edge from-layer="454" from-port="1" to-layer="455" to-port="0"/>
		<edge from-layer="446" from-port="0" to-layer="455" to-port="1"/>
		<edge from-layer="448" from-port="0" to-layer="455" to-port="2"/>
		<edge from-layer="447" from-port="0" to-layer="455" to-port="3"/>
		<edge from-layer="449" from-port="0" to-layer="455" to-port="4"/>
		<edge from-layer="455" from-port="5" to-layer="457" to-port="0"/>
		<edge from-layer="456" from-port="0" to-layer="457" to-port="1"/>
		<edge from-layer="457" from-port="2" to-layer="458" to-port="0"/>
		<edge from-layer="445" from-port="0" to-layer="458" to-port="1"/>
		<edge from-layer="458" from-port="2" to-layer="459" to-port="0"/>
		<edge from-layer="459" from-port="1" to-layer="460" to-port="0"/>
		<edge from-layer="441" from-port="0" to-layer="460" to-port="1"/>
		<edge from-layer="442" from-port="0" to-layer="460" to-port="2"/>
		<edge from-layer="443" from-port="0" to-layer="460" to-port="3"/>
		<edge from-layer="444" from-port="0" to-layer="460" to-port="4"/>
		<edge from-layer="460" from-port="5" to-layer="462" to-port="0"/>
		<edge from-layer="461" from-port="0" to-layer="462" to-port="1"/>
		<edge from-layer="462" from-port="2" to-layer="463" to-port="0"/>
		<edge from-layer="440" from-port="0" to-layer="463" to-port="1"/>
		<edge from-layer="463" from-port="2" to-layer="468" to-port="0"/>
		<edge from-layer="464" from-port="0" to-layer="468" to-port="1"/>
		<edge from-layer="465" from-port="0" to-layer="468" to-port="2"/>
		<edge from-layer="466" from-port="0" to-layer="468" to-port="3"/>
		<edge from-layer="467" from-port="0" to-layer="468" to-port="4"/>
		<edge from-layer="439" from-port="5" to-layer="469" to-port="0"/>
		<edge from-layer="468" from-port="5" to-layer="469" to-port="1"/>
		<edge from-layer="469" from-port="2" to-layer="474" to-port="0"/>
		<edge from-layer="470" from-port="0" to-layer="474" to-port="1"/>
		<edge from-layer="471" from-port="0" to-layer="474" to-port="2"/>
		<edge from-layer="472" from-port="0" to-layer="474" to-port="3"/>
		<edge from-layer="473" from-port="0" to-layer="474" to-port="4"/>
		<edge from-layer="474" from-port="5" to-layer="476" to-port="0"/>
		<edge from-layer="475" from-port="0" to-layer="476" to-port="1"/>
		<edge from-layer="476" from-port="2" to-layer="477" to-port="0"/>
		<edge from-layer="142" from-port="0" to-layer="477" to-port="1"/>
		<edge from-layer="477" from-port="2" to-layer="478" to-port="0"/>
		<edge from-layer="478" from-port="1" to-layer="479" to-port="0"/>
		<edge from-layer="138" from-port="0" to-layer="479" to-port="1"/>
		<edge from-layer="140" from-port="0" to-layer="479" to-port="2"/>
		<edge from-layer="139" from-port="0" to-layer="479" to-port="3"/>
		<edge from-layer="141" from-port="0" to-layer="479" to-port="4"/>
		<edge from-layer="479" from-port="5" to-layer="481" to-port="0"/>
		<edge from-layer="480" from-port="0" to-layer="481" to-port="1"/>
		<edge from-layer="481" from-port="2" to-layer="482" to-port="0"/>
		<edge from-layer="137" from-port="0" to-layer="482" to-port="1"/>
		<edge from-layer="482" from-port="2" to-layer="483" to-port="0"/>
		<edge from-layer="483" from-port="1" to-layer="484" to-port="0"/>
		<edge from-layer="133" from-port="0" to-layer="484" to-port="1"/>
		<edge from-layer="134" from-port="0" to-layer="484" to-port="2"/>
		<edge from-layer="135" from-port="0" to-layer="484" to-port="3"/>
		<edge from-layer="136" from-port="0" to-layer="484" to-port="4"/>
		<edge from-layer="484" from-port="5" to-layer="486" to-port="0"/>
		<edge from-layer="485" from-port="0" to-layer="486" to-port="1"/>
		<edge from-layer="486" from-port="2" to-layer="487" to-port="0"/>
		<edge from-layer="132" from-port="0" to-layer="487" to-port="1"/>
		<edge from-layer="487" from-port="2" to-layer="492" to-port="0"/>
		<edge from-layer="488" from-port="0" to-layer="492" to-port="1"/>
		<edge from-layer="489" from-port="0" to-layer="492" to-port="2"/>
		<edge from-layer="490" from-port="0" to-layer="492" to-port="3"/>
		<edge from-layer="491" from-port="0" to-layer="492" to-port="4"/>
		<edge from-layer="492" from-port="5" to-layer="505" to-port="0"/>
		<edge from-layer="504" from-port="0" to-layer="505" to-port="1"/>
		<edge from-layer="505" from-port="2" to-layer="506" to-port="0"/>
		<edge from-layer="503" from-port="0" to-layer="506" to-port="1"/>
		<edge from-layer="506" from-port="2" to-layer="507" to-port="0"/>
		<edge from-layer="507" from-port="1" to-layer="508" to-port="0"/>
		<edge from-layer="499" from-port="0" to-layer="508" to-port="1"/>
		<edge from-layer="501" from-port="0" to-layer="508" to-port="2"/>
		<edge from-layer="500" from-port="0" to-layer="508" to-port="3"/>
		<edge from-layer="502" from-port="0" to-layer="508" to-port="4"/>
		<edge from-layer="508" from-port="5" to-layer="510" to-port="0"/>
		<edge from-layer="509" from-port="0" to-layer="510" to-port="1"/>
		<edge from-layer="510" from-port="2" to-layer="511" to-port="0"/>
		<edge from-layer="498" from-port="0" to-layer="511" to-port="1"/>
		<edge from-layer="511" from-port="2" to-layer="512" to-port="0"/>
		<edge from-layer="512" from-port="1" to-layer="513" to-port="0"/>
		<edge from-layer="494" from-port="0" to-layer="513" to-port="1"/>
		<edge from-layer="495" from-port="0" to-layer="513" to-port="2"/>
		<edge from-layer="496" from-port="0" to-layer="513" to-port="3"/>
		<edge from-layer="497" from-port="0" to-layer="513" to-port="4"/>
		<edge from-layer="513" from-port="5" to-layer="515" to-port="0"/>
		<edge from-layer="514" from-port="0" to-layer="515" to-port="1"/>
		<edge from-layer="515" from-port="2" to-layer="516" to-port="0"/>
		<edge from-layer="493" from-port="0" to-layer="516" to-port="1"/>
		<edge from-layer="516" from-port="2" to-layer="521" to-port="0"/>
		<edge from-layer="517" from-port="0" to-layer="521" to-port="1"/>
		<edge from-layer="518" from-port="0" to-layer="521" to-port="2"/>
		<edge from-layer="519" from-port="0" to-layer="521" to-port="3"/>
		<edge from-layer="520" from-port="0" to-layer="521" to-port="4"/>
		<edge from-layer="492" from-port="5" to-layer="522" to-port="0"/>
		<edge from-layer="521" from-port="5" to-layer="522" to-port="1"/>
		<edge from-layer="522" from-port="2" to-layer="527" to-port="0"/>
		<edge from-layer="523" from-port="0" to-layer="527" to-port="1"/>
		<edge from-layer="524" from-port="0" to-layer="527" to-port="2"/>
		<edge from-layer="525" from-port="0" to-layer="527" to-port="3"/>
		<edge from-layer="526" from-port="0" to-layer="527" to-port="4"/>
		<edge from-layer="527" from-port="5" to-layer="540" to-port="0"/>
		<edge from-layer="539" from-port="0" to-layer="540" to-port="1"/>
		<edge from-layer="540" from-port="2" to-layer="541" to-port="0"/>
		<edge from-layer="538" from-port="0" to-layer="541" to-port="1"/>
		<edge from-layer="541" from-port="2" to-layer="542" to-port="0"/>
		<edge from-layer="542" from-port="1" to-layer="543" to-port="0"/>
		<edge from-layer="534" from-port="0" to-layer="543" to-port="1"/>
		<edge from-layer="536" from-port="0" to-layer="543" to-port="2"/>
		<edge from-layer="535" from-port="0" to-layer="543" to-port="3"/>
		<edge from-layer="537" from-port="0" to-layer="543" to-port="4"/>
		<edge from-layer="543" from-port="5" to-layer="545" to-port="0"/>
		<edge from-layer="544" from-port="0" to-layer="545" to-port="1"/>
		<edge from-layer="545" from-port="2" to-layer="546" to-port="0"/>
		<edge from-layer="533" from-port="0" to-layer="546" to-port="1"/>
		<edge from-layer="546" from-port="2" to-layer="547" to-port="0"/>
		<edge from-layer="547" from-port="1" to-layer="548" to-port="0"/>
		<edge from-layer="529" from-port="0" to-layer="548" to-port="1"/>
		<edge from-layer="530" from-port="0" to-layer="548" to-port="2"/>
		<edge from-layer="531" from-port="0" to-layer="548" to-port="3"/>
		<edge from-layer="532" from-port="0" to-layer="548" to-port="4"/>
		<edge from-layer="548" from-port="5" to-layer="550" to-port="0"/>
		<edge from-layer="549" from-port="0" to-layer="550" to-port="1"/>
		<edge from-layer="550" from-port="2" to-layer="551" to-port="0"/>
		<edge from-layer="528" from-port="0" to-layer="551" to-port="1"/>
		<edge from-layer="551" from-port="2" to-layer="556" to-port="0"/>
		<edge from-layer="552" from-port="0" to-layer="556" to-port="1"/>
		<edge from-layer="553" from-port="0" to-layer="556" to-port="2"/>
		<edge from-layer="554" from-port="0" to-layer="556" to-port="3"/>
		<edge from-layer="555" from-port="0" to-layer="556" to-port="4"/>
		<edge from-layer="527" from-port="5" to-layer="557" to-port="0"/>
		<edge from-layer="556" from-port="5" to-layer="557" to-port="1"/>
		<edge from-layer="557" from-port="2" to-layer="562" to-port="0"/>
		<edge from-layer="558" from-port="0" to-layer="562" to-port="1"/>
		<edge from-layer="559" from-port="0" to-layer="562" to-port="2"/>
		<edge from-layer="560" from-port="0" to-layer="562" to-port="3"/>
		<edge from-layer="561" from-port="0" to-layer="562" to-port="4"/>
		<edge from-layer="562" from-port="5" to-layer="564" to-port="0"/>
		<edge from-layer="563" from-port="0" to-layer="564" to-port="1"/>
		<edge from-layer="564" from-port="2" to-layer="565" to-port="0"/>
		<edge from-layer="131" from-port="0" to-layer="565" to-port="1"/>
		<edge from-layer="565" from-port="2" to-layer="566" to-port="0"/>
		<edge from-layer="566" from-port="1" to-layer="567" to-port="0"/>
		<edge from-layer="127" from-port="0" to-layer="567" to-port="1"/>
		<edge from-layer="129" from-port="0" to-layer="567" to-port="2"/>
		<edge from-layer="128" from-port="0" to-layer="567" to-port="3"/>
		<edge from-layer="130" from-port="0" to-layer="567" to-port="4"/>
		<edge from-layer="567" from-port="5" to-layer="569" to-port="0"/>
		<edge from-layer="568" from-port="0" to-layer="569" to-port="1"/>
		<edge from-layer="569" from-port="2" to-layer="570" to-port="0"/>
		<edge from-layer="126" from-port="0" to-layer="570" to-port="1"/>
		<edge from-layer="570" from-port="2" to-layer="571" to-port="0"/>
		<edge from-layer="571" from-port="1" to-layer="572" to-port="0"/>
		<edge from-layer="122" from-port="0" to-layer="572" to-port="1"/>
		<edge from-layer="123" from-port="0" to-layer="572" to-port="2"/>
		<edge from-layer="124" from-port="0" to-layer="572" to-port="3"/>
		<edge from-layer="125" from-port="0" to-layer="572" to-port="4"/>
		<edge from-layer="572" from-port="5" to-layer="574" to-port="0"/>
		<edge from-layer="573" from-port="0" to-layer="574" to-port="1"/>
		<edge from-layer="574" from-port="2" to-layer="575" to-port="0"/>
		<edge from-layer="121" from-port="0" to-layer="575" to-port="1"/>
		<edge from-layer="575" from-port="2" to-layer="580" to-port="0"/>
		<edge from-layer="576" from-port="0" to-layer="580" to-port="1"/>
		<edge from-layer="577" from-port="0" to-layer="580" to-port="2"/>
		<edge from-layer="578" from-port="0" to-layer="580" to-port="3"/>
		<edge from-layer="579" from-port="0" to-layer="580" to-port="4"/>
		<edge from-layer="581" from-port="0" to-layer="582" to-port="0"/>
		<edge from-layer="582" from-port="1" to-layer="584" to-port="0"/>
		<edge from-layer="583" from-port="0" to-layer="584" to-port="1"/>
		<edge from-layer="584" from-port="2" to-layer="586" to-port="0"/>
		<edge from-layer="585" from-port="0" to-layer="586" to-port="1"/>
		<edge from-layer="580" from-port="5" to-layer="587" to-port="0"/>
		<edge from-layer="586" from-port="2" to-layer="587" to-port="1"/>
		<edge from-layer="587" from-port="2" to-layer="588" to-port="0"/>
		<edge from-layer="120" from-port="0" to-layer="588" to-port="1"/>
		<edge from-layer="588" from-port="2" to-layer="593" to-port="0"/>
		<edge from-layer="589" from-port="0" to-layer="593" to-port="1"/>
		<edge from-layer="590" from-port="0" to-layer="593" to-port="2"/>
		<edge from-layer="591" from-port="0" to-layer="593" to-port="3"/>
		<edge from-layer="592" from-port="0" to-layer="593" to-port="4"/>
		<edge from-layer="595" from-port="0" to-layer="596" to-port="0"/>
		<edge from-layer="596" from-port="1" to-layer="598" to-port="0"/>
		<edge from-layer="597" from-port="0" to-layer="598" to-port="1"/>
		<edge from-layer="598" from-port="2" to-layer="600" to-port="0"/>
		<edge from-layer="599" from-port="0" to-layer="600" to-port="1"/>
		<edge from-layer="580" from-port="5" to-layer="601" to-port="0"/>
		<edge from-layer="600" from-port="2" to-layer="601" to-port="1"/>
		<edge from-layer="601" from-port="2" to-layer="602" to-port="0"/>
		<edge from-layer="594" from-port="0" to-layer="602" to-port="1"/>
		<edge from-layer="602" from-port="2" to-layer="607" to-port="0"/>
		<edge from-layer="603" from-port="0" to-layer="607" to-port="1"/>
		<edge from-layer="604" from-port="0" to-layer="607" to-port="2"/>
		<edge from-layer="605" from-port="0" to-layer="607" to-port="3"/>
		<edge from-layer="606" from-port="0" to-layer="607" to-port="4"/>
		<edge from-layer="609" from-port="0" to-layer="610" to-port="0"/>
		<edge from-layer="610" from-port="1" to-layer="612" to-port="0"/>
		<edge from-layer="611" from-port="0" to-layer="612" to-port="1"/>
		<edge from-layer="612" from-port="2" to-layer="614" to-port="0"/>
		<edge from-layer="613" from-port="0" to-layer="614" to-port="1"/>
		<edge from-layer="580" from-port="5" to-layer="615" to-port="0"/>
		<edge from-layer="614" from-port="2" to-layer="615" to-port="1"/>
		<edge from-layer="615" from-port="2" to-layer="616" to-port="0"/>
		<edge from-layer="608" from-port="0" to-layer="616" to-port="1"/>
		<edge from-layer="616" from-port="2" to-layer="621" to-port="0"/>
		<edge from-layer="617" from-port="0" to-layer="621" to-port="1"/>
		<edge from-layer="618" from-port="0" to-layer="621" to-port="2"/>
		<edge from-layer="619" from-port="0" to-layer="621" to-port="3"/>
		<edge from-layer="620" from-port="0" to-layer="621" to-port="4"/>
		<edge from-layer="623" from-port="0" to-layer="624" to-port="0"/>
		<edge from-layer="624" from-port="1" to-layer="626" to-port="0"/>
		<edge from-layer="625" from-port="0" to-layer="626" to-port="1"/>
		<edge from-layer="626" from-port="2" to-layer="628" to-port="0"/>
		<edge from-layer="627" from-port="0" to-layer="628" to-port="1"/>
		<edge from-layer="580" from-port="5" to-layer="629" to-port="0"/>
		<edge from-layer="628" from-port="2" to-layer="629" to-port="1"/>
		<edge from-layer="629" from-port="2" to-layer="630" to-port="0"/>
		<edge from-layer="622" from-port="0" to-layer="630" to-port="1"/>
		<edge from-layer="630" from-port="2" to-layer="635" to-port="0"/>
		<edge from-layer="631" from-port="0" to-layer="635" to-port="1"/>
		<edge from-layer="632" from-port="0" to-layer="635" to-port="2"/>
		<edge from-layer="633" from-port="0" to-layer="635" to-port="3"/>
		<edge from-layer="634" from-port="0" to-layer="635" to-port="4"/>
		<edge from-layer="580" from-port="5" to-layer="641" to-port="0"/>
		<edge from-layer="641" from-port="1" to-layer="642" to-port="0"/>
		<edge from-layer="642" from-port="1" to-layer="644" to-port="0"/>
		<edge from-layer="643" from-port="0" to-layer="644" to-port="1"/>
		<edge from-layer="639" from-port="0" to-layer="645" to-port="0"/>
		<edge from-layer="644" from-port="2" to-layer="645" to-port="1"/>
		<edge from-layer="640" from-port="0" to-layer="645" to-port="2"/>
		<edge from-layer="580" from-port="5" to-layer="646" to-port="0"/>
		<edge from-layer="645" from-port="3" to-layer="646" to-port="1"/>
		<edge from-layer="646" from-port="2" to-layer="651" to-port="0"/>
		<edge from-layer="647" from-port="0" to-layer="651" to-port="1"/>
		<edge from-layer="648" from-port="0" to-layer="651" to-port="2"/>
		<edge from-layer="649" from-port="0" to-layer="651" to-port="3"/>
		<edge from-layer="650" from-port="0" to-layer="651" to-port="4"/>
		<edge from-layer="652" from-port="0" to-layer="653" to-port="0"/>
		<edge from-layer="653" from-port="1" to-layer="655" to-port="0"/>
		<edge from-layer="654" from-port="0" to-layer="655" to-port="1"/>
		<edge from-layer="655" from-port="2" to-layer="657" to-port="0"/>
		<edge from-layer="656" from-port="0" to-layer="657" to-port="1"/>
		<edge from-layer="651" from-port="5" to-layer="658" to-port="0"/>
		<edge from-layer="657" from-port="2" to-layer="658" to-port="1"/>
		<edge from-layer="658" from-port="2" to-layer="659" to-port="0"/>
		<edge from-layer="638" from-port="0" to-layer="659" to-port="1"/>
		<edge from-layer="659" from-port="2" to-layer="664" to-port="0"/>
		<edge from-layer="660" from-port="0" to-layer="664" to-port="1"/>
		<edge from-layer="661" from-port="0" to-layer="664" to-port="2"/>
		<edge from-layer="662" from-port="0" to-layer="664" to-port="3"/>
		<edge from-layer="663" from-port="0" to-layer="664" to-port="4"/>
		<edge from-layer="664" from-port="5" to-layer="665" to-port="0"/>
		<edge from-layer="665" from-port="1" to-layer="669" to-port="0"/>
		<edge from-layer="666" from-port="0" to-layer="669" to-port="1"/>
		<edge from-layer="667" from-port="0" to-layer="669" to-port="2"/>
		<edge from-layer="668" from-port="0" to-layer="669" to-port="3"/>
		<edge from-layer="593" from-port="5" to-layer="671" to-port="0"/>
		<edge from-layer="671" from-port="1" to-layer="674" to-port="0"/>
		<edge from-layer="672" from-port="0" to-layer="674" to-port="1"/>
		<edge from-layer="673" from-port="0" to-layer="674" to-port="2"/>
		<edge from-layer="674" from-port="3" to-layer="675" to-port="0"/>
		<edge from-layer="670" from-port="0" to-layer="675" to-port="1"/>
		<edge from-layer="593" from-port="5" to-layer="677" to-port="0"/>
		<edge from-layer="677" from-port="1" to-layer="680" to-port="0"/>
		<edge from-layer="678" from-port="0" to-layer="680" to-port="1"/>
		<edge from-layer="679" from-port="0" to-layer="680" to-port="2"/>
		<edge from-layer="680" from-port="3" to-layer="681" to-port="0"/>
		<edge from-layer="676" from-port="0" to-layer="681" to-port="1"/>
		<edge from-layer="675" from-port="2" to-layer="682" to-port="0"/>
		<edge from-layer="681" from-port="2" to-layer="682" to-port="1"/>
		<edge from-layer="669" from-port="4" to-layer="683" to-port="0"/>
		<edge from-layer="682" from-port="2" to-layer="683" to-port="1"/>
		<edge from-layer="683" from-port="2" to-layer="684" to-port="0"/>
		<edge from-layer="664" from-port="5" to-layer="685" to-port="0"/>
		<edge from-layer="685" from-port="1" to-layer="686" to-port="0"/>
		<edge from-layer="684" from-port="1" to-layer="687" to-port="0"/>
		<edge from-layer="686" from-port="1" to-layer="687" to-port="1"/>
		<edge from-layer="687" from-port="2" to-layer="688" to-port="0"/>
		<edge from-layer="637" from-port="0" to-layer="688" to-port="1"/>
		<edge from-layer="688" from-port="2" to-layer="692" to-port="0"/>
		<edge from-layer="689" from-port="0" to-layer="692" to-port="1"/>
		<edge from-layer="690" from-port="0" to-layer="692" to-port="2"/>
		<edge from-layer="691" from-port="0" to-layer="692" to-port="3"/>
		<edge from-layer="683" from-port="2" to-layer="696" to-port="0"/>
		<edge from-layer="693" from-port="0" to-layer="696" to-port="1"/>
		<edge from-layer="694" from-port="0" to-layer="696" to-port="2"/>
		<edge from-layer="695" from-port="0" to-layer="696" to-port="3"/>
		<edge from-layer="664" from-port="5" to-layer="697" to-port="0"/>
		<edge from-layer="696" from-port="4" to-layer="697" to-port="1"/>
		<edge from-layer="692" from-port="4" to-layer="697" to-port="2"/>
		<edge from-layer="636" from-port="0" to-layer="697" to-port="3"/>
		<edge from-layer="697" from-port="4" to-layer="702" to-port="0"/>
		<edge from-layer="698" from-port="0" to-layer="702" to-port="1"/>
		<edge from-layer="699" from-port="0" to-layer="702" to-port="2"/>
		<edge from-layer="700" from-port="0" to-layer="702" to-port="3"/>
		<edge from-layer="701" from-port="0" to-layer="702" to-port="4"/>
		<edge from-layer="593" from-port="5" to-layer="703" to-port="0"/>
		<edge from-layer="607" from-port="5" to-layer="703" to-port="1"/>
		<edge from-layer="621" from-port="5" to-layer="703" to-port="2"/>
		<edge from-layer="635" from-port="5" to-layer="703" to-port="3"/>
		<edge from-layer="702" from-port="5" to-layer="703" to-port="4"/>
		<edge from-layer="704" from-port="0" to-layer="705" to-port="0"/>
		<edge from-layer="705" from-port="1" to-layer="707" to-port="0"/>
		<edge from-layer="706" from-port="0" to-layer="707" to-port="1"/>
		<edge from-layer="707" from-port="2" to-layer="709" to-port="0"/>
		<edge from-layer="708" from-port="0" to-layer="709" to-port="1"/>
		<edge from-layer="703" from-port="5" to-layer="710" to-port="0"/>
		<edge from-layer="709" from-port="2" to-layer="710" to-port="1"/>
		<edge from-layer="710" from-port="2" to-layer="711" to-port="0"/>
		<edge from-layer="119" from-port="0" to-layer="711" to-port="1"/>
		<edge from-layer="711" from-port="2" to-layer="716" to-port="0"/>
		<edge from-layer="712" from-port="0" to-layer="716" to-port="1"/>
		<edge from-layer="713" from-port="0" to-layer="716" to-port="2"/>
		<edge from-layer="714" from-port="0" to-layer="716" to-port="3"/>
		<edge from-layer="715" from-port="0" to-layer="716" to-port="4"/>
		<edge from-layer="716" from-port="5" to-layer="717" to-port="0"/>
		<edge from-layer="717" from-port="1" to-layer="721" to-port="0"/>
		<edge from-layer="718" from-port="0" to-layer="721" to-port="1"/>
		<edge from-layer="719" from-port="0" to-layer="721" to-port="2"/>
		<edge from-layer="720" from-port="0" to-layer="721" to-port="3"/>
		<edge from-layer="116" from-port="5" to-layer="723" to-port="0"/>
		<edge from-layer="723" from-port="1" to-layer="726" to-port="0"/>
		<edge from-layer="724" from-port="0" to-layer="726" to-port="1"/>
		<edge from-layer="725" from-port="0" to-layer="726" to-port="2"/>
		<edge from-layer="726" from-port="3" to-layer="727" to-port="0"/>
		<edge from-layer="722" from-port="0" to-layer="727" to-port="1"/>
		<edge from-layer="116" from-port="5" to-layer="729" to-port="0"/>
		<edge from-layer="729" from-port="1" to-layer="732" to-port="0"/>
		<edge from-layer="730" from-port="0" to-layer="732" to-port="1"/>
		<edge from-layer="731" from-port="0" to-layer="732" to-port="2"/>
		<edge from-layer="732" from-port="3" to-layer="733" to-port="0"/>
		<edge from-layer="728" from-port="0" to-layer="733" to-port="1"/>
		<edge from-layer="727" from-port="2" to-layer="734" to-port="0"/>
		<edge from-layer="733" from-port="2" to-layer="734" to-port="1"/>
		<edge from-layer="721" from-port="4" to-layer="735" to-port="0"/>
		<edge from-layer="734" from-port="2" to-layer="735" to-port="1"/>
		<edge from-layer="735" from-port="2" to-layer="736" to-port="0"/>
		<edge from-layer="716" from-port="5" to-layer="737" to-port="0"/>
		<edge from-layer="737" from-port="1" to-layer="738" to-port="0"/>
		<edge from-layer="736" from-port="1" to-layer="739" to-port="0"/>
		<edge from-layer="738" from-port="1" to-layer="739" to-port="1"/>
		<edge from-layer="739" from-port="2" to-layer="740" to-port="0"/>
		<edge from-layer="118" from-port="0" to-layer="740" to-port="1"/>
		<edge from-layer="740" from-port="2" to-layer="744" to-port="0"/>
		<edge from-layer="741" from-port="0" to-layer="744" to-port="1"/>
		<edge from-layer="742" from-port="0" to-layer="744" to-port="2"/>
		<edge from-layer="743" from-port="0" to-layer="744" to-port="3"/>
		<edge from-layer="735" from-port="2" to-layer="748" to-port="0"/>
		<edge from-layer="745" from-port="0" to-layer="748" to-port="1"/>
		<edge from-layer="746" from-port="0" to-layer="748" to-port="2"/>
		<edge from-layer="747" from-port="0" to-layer="748" to-port="3"/>
		<edge from-layer="716" from-port="5" to-layer="749" to-port="0"/>
		<edge from-layer="748" from-port="4" to-layer="749" to-port="1"/>
		<edge from-layer="744" from-port="4" to-layer="749" to-port="2"/>
		<edge from-layer="117" from-port="0" to-layer="749" to-port="3"/>
		<edge from-layer="749" from-port="4" to-layer="754" to-port="0"/>
		<edge from-layer="750" from-port="0" to-layer="754" to-port="1"/>
		<edge from-layer="751" from-port="0" to-layer="754" to-port="2"/>
		<edge from-layer="752" from-port="0" to-layer="754" to-port="3"/>
		<edge from-layer="753" from-port="0" to-layer="754" to-port="4"/>
		<edge from-layer="754" from-port="5" to-layer="755" to-port="0"/>
		<edge from-layer="116" from-port="5" to-layer="755" to-port="1"/>
		<edge from-layer="756" from-port="0" to-layer="757" to-port="0"/>
		<edge from-layer="757" from-port="1" to-layer="759" to-port="0"/>
		<edge from-layer="758" from-port="0" to-layer="759" to-port="1"/>
		<edge from-layer="759" from-port="2" to-layer="761" to-port="0"/>
		<edge from-layer="760" from-port="0" to-layer="761" to-port="1"/>
		<edge from-layer="755" from-port="2" to-layer="762" to-port="0"/>
		<edge from-layer="761" from-port="2" to-layer="762" to-port="1"/>
		<edge from-layer="762" from-port="2" to-layer="763" to-port="0"/>
		<edge from-layer="3" from-port="0" to-layer="763" to-port="1"/>
		<edge from-layer="763" from-port="2" to-layer="768" to-port="0"/>
		<edge from-layer="764" from-port="0" to-layer="768" to-port="1"/>
		<edge from-layer="765" from-port="0" to-layer="768" to-port="2"/>
		<edge from-layer="766" from-port="0" to-layer="768" to-port="3"/>
		<edge from-layer="767" from-port="0" to-layer="768" to-port="4"/>
		<edge from-layer="769" from-port="0" to-layer="770" to-port="0"/>
		<edge from-layer="770" from-port="1" to-layer="772" to-port="0"/>
		<edge from-layer="771" from-port="0" to-layer="772" to-port="1"/>
		<edge from-layer="772" from-port="2" to-layer="774" to-port="0"/>
		<edge from-layer="773" from-port="0" to-layer="774" to-port="1"/>
		<edge from-layer="768" from-port="5" to-layer="775" to-port="0"/>
		<edge from-layer="774" from-port="2" to-layer="775" to-port="1"/>
		<edge from-layer="775" from-port="2" to-layer="776" to-port="0"/>
		<edge from-layer="2" from-port="0" to-layer="776" to-port="1"/>
		<edge from-layer="776" from-port="2" to-layer="781" to-port="0"/>
		<edge from-layer="777" from-port="0" to-layer="781" to-port="1"/>
		<edge from-layer="778" from-port="0" to-layer="781" to-port="2"/>
		<edge from-layer="779" from-port="0" to-layer="781" to-port="3"/>
		<edge from-layer="780" from-port="0" to-layer="781" to-port="4"/>
		<edge from-layer="783" from-port="0" to-layer="784" to-port="0"/>
		<edge from-layer="784" from-port="1" to-layer="785" to-port="0"/>
		<edge from-layer="782" from-port="0" to-layer="785" to-port="1"/>
		<edge from-layer="781" from-port="5" to-layer="786" to-port="0"/>
		<edge from-layer="785" from-port="2" to-layer="786" to-port="1"/>
		<edge from-layer="786" from-port="2" to-layer="788" to-port="0"/>
		<edge from-layer="787" from-port="0" to-layer="788" to-port="1"/>
		<edge from-layer="788" from-port="2" to-layer="793" to-port="0"/>
		<edge from-layer="789" from-port="0" to-layer="793" to-port="1"/>
		<edge from-layer="790" from-port="0" to-layer="793" to-port="2"/>
		<edge from-layer="791" from-port="0" to-layer="793" to-port="3"/>
		<edge from-layer="792" from-port="0" to-layer="793" to-port="4"/>
		<edge from-layer="793" from-port="5" to-layer="794" to-port="0"/>
		<edge from-layer="794" from-port="1" to-layer="798" to-port="0"/>
		<edge from-layer="795" from-port="0" to-layer="798" to-port="1"/>
		<edge from-layer="796" from-port="0" to-layer="798" to-port="2"/>
		<edge from-layer="797" from-port="0" to-layer="798" to-port="3"/>
		<edge from-layer="32" from-port="5" to-layer="800" to-port="0"/>
		<edge from-layer="800" from-port="1" to-layer="803" to-port="0"/>
		<edge from-layer="801" from-port="0" to-layer="803" to-port="1"/>
		<edge from-layer="802" from-port="0" to-layer="803" to-port="2"/>
		<edge from-layer="803" from-port="3" to-layer="804" to-port="0"/>
		<edge from-layer="799" from-port="0" to-layer="804" to-port="1"/>
		<edge from-layer="32" from-port="5" to-layer="806" to-port="0"/>
		<edge from-layer="806" from-port="1" to-layer="809" to-port="0"/>
		<edge from-layer="807" from-port="0" to-layer="809" to-port="1"/>
		<edge from-layer="808" from-port="0" to-layer="809" to-port="2"/>
		<edge from-layer="809" from-port="3" to-layer="810" to-port="0"/>
		<edge from-layer="805" from-port="0" to-layer="810" to-port="1"/>
		<edge from-layer="804" from-port="2" to-layer="811" to-port="0"/>
		<edge from-layer="810" from-port="2" to-layer="811" to-port="1"/>
		<edge from-layer="798" from-port="4" to-layer="812" to-port="0"/>
		<edge from-layer="811" from-port="2" to-layer="812" to-port="1"/>
		<edge from-layer="812" from-port="2" to-layer="813" to-port="0"/>
		<edge from-layer="793" from-port="5" to-layer="814" to-port="0"/>
		<edge from-layer="814" from-port="1" to-layer="815" to-port="0"/>
		<edge from-layer="813" from-port="1" to-layer="816" to-port="0"/>
		<edge from-layer="815" from-port="1" to-layer="816" to-port="1"/>
		<edge from-layer="816" from-port="2" to-layer="817" to-port="0"/>
		<edge from-layer="1" from-port="0" to-layer="817" to-port="1"/>
		<edge from-layer="817" from-port="2" to-layer="821" to-port="0"/>
		<edge from-layer="818" from-port="0" to-layer="821" to-port="1"/>
		<edge from-layer="819" from-port="0" to-layer="821" to-port="2"/>
		<edge from-layer="820" from-port="0" to-layer="821" to-port="3"/>
		<edge from-layer="812" from-port="2" to-layer="825" to-port="0"/>
		<edge from-layer="822" from-port="0" to-layer="825" to-port="1"/>
		<edge from-layer="823" from-port="0" to-layer="825" to-port="2"/>
		<edge from-layer="824" from-port="0" to-layer="825" to-port="3"/>
		<edge from-layer="793" from-port="5" to-layer="826" to-port="0"/>
		<edge from-layer="825" from-port="4" to-layer="826" to-port="1"/>
		<edge from-layer="821" from-port="4" to-layer="826" to-port="2"/>
		<edge from-layer="0" from-port="0" to-layer="826" to-port="3"/>
		<edge from-layer="826" from-port="4" to-layer="827" to-port="0"/>
	</edges>
	<meta_data>
		<MO_version value="2021.4.2-3974-e2a469a3450-releases/2021/4"/>
		<cli_parameters>
			<caffe_parser_path value="DIR"/>
			<data_type value="FP16"/>
			<disable_nhwc_to_nchw value="False"/>
			<disable_omitting_optional value="False"/>
			<disable_resnet_optimization value="False"/>
			<disable_weights_compression value="False"/>
			<enable_concat_optimization value="False"/>
			<enable_flattening_nested_params value="False"/>
			<enable_ssd_gluoncv value="False"/>
			<extensions value="DIR"/>
			<framework value="onnx"/>
			<freeze_placeholder_with_value value="{}"/>
			<generate_deprecated_IR_V7 value="False"/>
			<input_model value="DIR\compressed_model.onnx"/>
			<input_model_is_text value="False"/>
			<k value="DIR\CustomLayersMapping.xml"/>
			<keep_shape_ops value="True"/>
			<legacy_ir_generation value="False"/>
			<legacy_mxnet_model value="False"/>
			<log_level value="ERROR"/>
			<mean_scale_values value="[(array([0.485, 0.456, 0.406]), array([0.229, 0.224, 0.225]))]"/>
			<mean_values value="[0.485, 0.456 , 0.406]"/>
			<model_name value="compressed_model"/>
			<output_dir value="DIR"/>
			<placeholder_data_types value="{}"/>
			<progress value="False"/>
			<remove_memory value="False"/>
			<remove_output_softmax value="False"/>
			<reverse_input_channels value="False"/>
			<save_params_from_nd value="False"/>
			<scale_values value="[0.229, 0.224 , 0.225]"/>
			<silent value="False"/>
			<static_shape value="False"/>
			<stream_output value="False"/>
			<transform value=""/>
			<unset unset_cli_parameters="batch, counts, disable_fusing, disable_gfusing, finegrain_fusing, input, input_checkpoint, input_meta_graph, input_proto, input_shape, input_symbol, mean_file, mean_file_offsets, move_to_preprocess, nd_prefix_name, output, placeholder_shapes, pretrained_model_name, saved_model_dir, saved_model_tags, scale, tensorboard_logdir, tensorflow_custom_layer_libraries, tensorflow_custom_operations_config_update, tensorflow_object_detection_api_pipeline_config, tensorflow_use_custom_operations_config, transformations_config"/>
		</cli_parameters>
	</meta_data>
</net>
