<?xml version="1.0" ?>
<net name="deeplab_mobilenet_fp16" version="10">
	<layers>
		<layer id="0" name="Resize_496/axis468019601" type="Const" version="opset1">
			<data offset="0" size="16" shape="2" element_type="i64"/>
			<output>
				<port id="0" precision="I64">
					<dim>2</dim>
				</port>
			</output>
		</layer>
		<layer id="1" name="Resize_496/Add_input_port_1/value468419553" type="Const" version="opset1">
			<data offset="16" size="4" shape="1" element_type="f32"/>
			<output>
				<port id="0" precision="FP32">
					<dim>1</dim>
				</port>
			</output>
		</layer>
		<layer id="2" name="decoder.last_conv.8.weight" type="Const" version="opset1">
			<data offset="20" size="1024" shape="2,256,1,1" element_type="f16"/>
			<output>
				<port id="0" precision="FP16" names="decoder.last_conv.8.weight">
					<dim>2</dim>
					<dim>256</dim>
					<dim>1</dim>
					<dim>1</dim>
				</port>
			</output>
		</layer>
		<layer id="3" name="1251" type="Const" version="opset1">
			<data offset="1044" size="1179648" shape="256,256,3,3" element_type="f16"/>
			<output>
				<port id="0" precision="FP16" names="1251">
					<dim>256</dim>
					<dim>256</dim>
					<dim>3</dim>
					<dim>3</dim>
				</port>
			</output>
		</layer>
		<layer id="4" name="1248" type="Const" version="opset1">
			<data offset="1180692" size="1400832" shape="256,304,3,3" element_type="f16"/>
			<output>
				<port id="0" precision="FP16" names="1248">
					<dim>256</dim>
					<dim>304</dim>
					<dim>3</dim>
					<dim>3</dim>
				</port>
			</output>
		</layer>
		<layer id="5" name="1245" type="Const" version="opset1">
			<data offset="2581524" size="2304" shape="48,24,1,1" element_type="f16"/>
			<output>
				<port id="0" precision="FP16" names="1245">
					<dim>48</dim>
					<dim>24</dim>
					<dim>1</dim>
					<dim>1</dim>
				</port>
			</output>
		</layer>
		<layer id="6" name="1098" type="Const" version="opset1">
			<data offset="2583828" size="6912" shape="24,144,1,1" element_type="f16"/>
			<output>
				<port id="0" precision="FP16" names="1098">
					<dim>24</dim>
					<dim>144</dim>
					<dim>1</dim>
					<dim>1</dim>
				</port>
			</output>
		</layer>
		<layer id="7" name="1092" type="Const" version="opset1">
			<data offset="2590740" size="6912" shape="144,24,1,1" element_type="f16"/>
			<output>
				<port id="0" precision="FP16" names="1092">
					<dim>144</dim>
					<dim>24</dim>
					<dim>1</dim>
					<dim>1</dim>
				</port>
			</output>
		</layer>
		<layer id="8" name="1089" type="Const" version="opset1">
			<data offset="2597652" size="4608" shape="24,96,1,1" element_type="f16"/>
			<output>
				<port id="0" precision="FP16" names="1089">
					<dim>24</dim>
					<dim>96</dim>
					<dim>1</dim>
					<dim>1</dim>
				</port>
			</output>
		</layer>
		<layer id="9" name="1083" type="Const" version="opset1">
			<data offset="2602260" size="3072" shape="96,16,1,1" element_type="f16"/>
			<output>
				<port id="0" precision="FP16" names="1083">
					<dim>96</dim>
					<dim>16</dim>
					<dim>1</dim>
					<dim>1</dim>
				</port>
			</output>
		</layer>
		<layer id="10" name="1080" type="Const" version="opset1">
			<data offset="2605332" size="1024" shape="16,32,1,1" element_type="f16"/>
			<output>
				<port id="0" precision="FP16" names="1080">
					<dim>16</dim>
					<dim>32</dim>
					<dim>1</dim>
					<dim>1</dim>
				</port>
			</output>
		</layer>
		<layer id="11" name="input.1" type="Parameter" version="opset1">
			<data shape="1,3,288,480" element_type="f16"/>
			<output>
				<port id="0" precision="FP16" names="input.1">
					<dim>1</dim>
					<dim>3</dim>
					<dim>288</dim>
					<dim>480</dim>
				</port>
			</output>
		</layer>
		<layer id="12" name="1074" type="Const" version="opset1">
			<data offset="2606356" size="1728" shape="32,3,3,3" element_type="f16"/>
			<output>
				<port id="0" precision="FP16" names="1074">
					<dim>32</dim>
					<dim>3</dim>
					<dim>3</dim>
					<dim>3</dim>
				</port>
			</output>
		</layer>
		<layer id="13" name="Conv_0/WithoutBiases" type="Convolution" version="opset1">
			<data auto_pad="explicit" strides="2,2" dilations="1,1" pads_begin="1,1" pads_end="1,1"/>
			<input>
				<port id="0">
					<dim>1</dim>
					<dim>3</dim>
					<dim>288</dim>
					<dim>480</dim>
				</port>
				<port id="1">
					<dim>32</dim>
					<dim>3</dim>
					<dim>3</dim>
					<dim>3</dim>
				</port>
			</input>
			<output>
				<port id="2" precision="FP16">
					<dim>1</dim>
					<dim>32</dim>
					<dim>144</dim>
					<dim>240</dim>
				</port>
			</output>
		</layer>
		<layer id="14" name="Conv_0/Dims5880" type="Const" version="opset1">
			<data offset="2608084" size="64" shape="1,32,1,1" element_type="f16"/>
			<output>
				<port id="0" precision="FP16">
					<dim>1</dim>
					<dim>32</dim>
					<dim>1</dim>
					<dim>1</dim>
				</port>
			</output>
		</layer>
		<layer id="15" name="Conv_0" type="Add" version="opset1">
			<data auto_broadcast="numpy"/>
			<input>
				<port id="0">
					<dim>1</dim>
					<dim>32</dim>
					<dim>144</dim>
					<dim>240</dim>
				</port>
				<port id="1">
					<dim>1</dim>
					<dim>32</dim>
					<dim>1</dim>
					<dim>1</dim>
				</port>
			</input>
			<output>
				<port id="2" precision="FP16" names="1073">
					<dim>1</dim>
					<dim>32</dim>
					<dim>144</dim>
					<dim>240</dim>
				</port>
			</output>
		</layer>
		<layer id="16" name="Clip_3" type="Clamp" version="opset1">
			<data max="6.0" min="0.0"/>
			<input>
				<port id="0">
					<dim>1</dim>
					<dim>32</dim>
					<dim>144</dim>
					<dim>240</dim>
				</port>
			</input>
			<output>
				<port id="1" precision="FP16" names="367">
					<dim>1</dim>
					<dim>32</dim>
					<dim>144</dim>
					<dim>240</dim>
				</port>
			</output>
		</layer>
		<layer id="17" name="1077" type="Const" version="opset1">
			<data offset="2608148" size="576" shape="32,1,1,3,3" element_type="f16"/>
			<output>
				<port id="0" precision="FP16" names="1077">
					<dim>32</dim>
					<dim>1</dim>
					<dim>1</dim>
					<dim>3</dim>
					<dim>3</dim>
				</port>
			</output>
		</layer>
		<layer id="18" name="Conv_19/WithoutBiases" type="GroupConvolution" version="opset1">
			<data auto_pad="explicit" strides="1,1" dilations="1,1" pads_begin="1,1" pads_end="1,1"/>
			<input>
				<port id="0">
					<dim>1</dim>
					<dim>32</dim>
					<dim>144</dim>
					<dim>240</dim>
				</port>
				<port id="1">
					<dim>32</dim>
					<dim>1</dim>
					<dim>1</dim>
					<dim>3</dim>
					<dim>3</dim>
				</port>
			</input>
			<output>
				<port id="2" precision="FP16">
					<dim>1</dim>
					<dim>32</dim>
					<dim>144</dim>
					<dim>240</dim>
				</port>
			</output>
		</layer>
		<layer id="19" name="Conv_19/Dims5940" type="Const" version="opset1">
			<data offset="2608724" size="64" shape="1,32,1,1" element_type="f16"/>
			<output>
				<port id="0" precision="FP16">
					<dim>1</dim>
					<dim>32</dim>
					<dim>1</dim>
					<dim>1</dim>
				</port>
			</output>
		</layer>
		<layer id="20" name="Conv_19" type="Add" version="opset1">
			<data auto_broadcast="numpy"/>
			<input>
				<port id="0">
					<dim>1</dim>
					<dim>32</dim>
					<dim>144</dim>
					<dim>240</dim>
				</port>
				<port id="1">
					<dim>1</dim>
					<dim>32</dim>
					<dim>1</dim>
					<dim>1</dim>
				</port>
			</input>
			<output>
				<port id="2" precision="FP16" names="1076">
					<dim>1</dim>
					<dim>32</dim>
					<dim>144</dim>
					<dim>240</dim>
				</port>
			</output>
		</layer>
		<layer id="21" name="Clip_22" type="Clamp" version="opset1">
			<data max="6.0" min="0.0"/>
			<input>
				<port id="0">
					<dim>1</dim>
					<dim>32</dim>
					<dim>144</dim>
					<dim>240</dim>
				</port>
			</input>
			<output>
				<port id="1" precision="FP16" names="396">
					<dim>1</dim>
					<dim>32</dim>
					<dim>144</dim>
					<dim>240</dim>
				</port>
			</output>
		</layer>
		<layer id="22" name="Conv_23/WithoutBiases" type="Convolution" version="opset1">
			<data auto_pad="explicit" strides="1,1" dilations="1,1" pads_begin="0,0" pads_end="0,0"/>
			<input>
				<port id="0">
					<dim>1</dim>
					<dim>32</dim>
					<dim>144</dim>
					<dim>240</dim>
				</port>
				<port id="1">
					<dim>16</dim>
					<dim>32</dim>
					<dim>1</dim>
					<dim>1</dim>
				</port>
			</input>
			<output>
				<port id="2" precision="FP16">
					<dim>1</dim>
					<dim>16</dim>
					<dim>144</dim>
					<dim>240</dim>
				</port>
			</output>
		</layer>
		<layer id="23" name="Conv_23/Dims5754" type="Const" version="opset1">
			<data offset="2608788" size="32" shape="1,16,1,1" element_type="f16"/>
			<output>
				<port id="0" precision="FP16">
					<dim>1</dim>
					<dim>16</dim>
					<dim>1</dim>
					<dim>1</dim>
				</port>
			</output>
		</layer>
		<layer id="24" name="Conv_23" type="Add" version="opset1">
			<data auto_broadcast="numpy"/>
			<input>
				<port id="0">
					<dim>1</dim>
					<dim>16</dim>
					<dim>144</dim>
					<dim>240</dim>
				</port>
				<port id="1">
					<dim>1</dim>
					<dim>16</dim>
					<dim>1</dim>
					<dim>1</dim>
				</port>
			</input>
			<output>
				<port id="2" precision="FP16" names="1079">
					<dim>1</dim>
					<dim>16</dim>
					<dim>144</dim>
					<dim>240</dim>
				</port>
			</output>
		</layer>
		<layer id="25" name="Conv_39/WithoutBiases" type="Convolution" version="opset1">
			<data auto_pad="explicit" strides="1,1" dilations="1,1" pads_begin="1,1" pads_end="1,1"/>
			<input>
				<port id="0">
					<dim>1</dim>
					<dim>16</dim>
					<dim>144</dim>
					<dim>240</dim>
				</port>
				<port id="1">
					<dim>96</dim>
					<dim>16</dim>
					<dim>1</dim>
					<dim>1</dim>
				</port>
			</input>
			<output>
				<port id="2" precision="FP16">
					<dim>1</dim>
					<dim>96</dim>
					<dim>146</dim>
					<dim>242</dim>
				</port>
			</output>
		</layer>
		<layer id="26" name="Conv_39/Dims5802" type="Const" version="opset1">
			<data offset="2608820" size="192" shape="1,96,1,1" element_type="f16"/>
			<output>
				<port id="0" precision="FP16">
					<dim>1</dim>
					<dim>96</dim>
					<dim>1</dim>
					<dim>1</dim>
				</port>
			</output>
		</layer>
		<layer id="27" name="Conv_39" type="Add" version="opset1">
			<data auto_broadcast="numpy"/>
			<input>
				<port id="0">
					<dim>1</dim>
					<dim>96</dim>
					<dim>146</dim>
					<dim>242</dim>
				</port>
				<port id="1">
					<dim>1</dim>
					<dim>96</dim>
					<dim>1</dim>
					<dim>1</dim>
				</port>
			</input>
			<output>
				<port id="2" precision="FP16" names="1082">
					<dim>1</dim>
					<dim>96</dim>
					<dim>146</dim>
					<dim>242</dim>
				</port>
			</output>
		</layer>
		<layer id="28" name="Clip_42" type="Clamp" version="opset1">
			<data max="6.0" min="0.0"/>
			<input>
				<port id="0">
					<dim>1</dim>
					<dim>96</dim>
					<dim>146</dim>
					<dim>242</dim>
				</port>
			</input>
			<output>
				<port id="1" precision="FP16" names="427">
					<dim>1</dim>
					<dim>96</dim>
					<dim>146</dim>
					<dim>242</dim>
				</port>
			</output>
		</layer>
		<layer id="29" name="1086" type="Const" version="opset1">
			<data offset="2609012" size="1728" shape="96,1,1,3,3" element_type="f16"/>
			<output>
				<port id="0" precision="FP16" names="1086">
					<dim>96</dim>
					<dim>1</dim>
					<dim>1</dim>
					<dim>3</dim>
					<dim>3</dim>
				</port>
			</output>
		</layer>
		<layer id="30" name="Conv_43/WithoutBiases" type="GroupConvolution" version="opset1">
			<data auto_pad="explicit" strides="2,2" dilations="1,1" pads_begin="0,0" pads_end="0,0"/>
			<input>
				<port id="0">
					<dim>1</dim>
					<dim>96</dim>
					<dim>146</dim>
					<dim>242</dim>
				</port>
				<port id="1">
					<dim>96</dim>
					<dim>1</dim>
					<dim>1</dim>
					<dim>3</dim>
					<dim>3</dim>
				</port>
			</input>
			<output>
				<port id="2" precision="FP16">
					<dim>1</dim>
					<dim>96</dim>
					<dim>72</dim>
					<dim>120</dim>
				</port>
			</output>
		</layer>
		<layer id="31" name="Conv_43/Dims5652" type="Const" version="opset1">
			<data offset="2610740" size="192" shape="1,96,1,1" element_type="f16"/>
			<output>
				<port id="0" precision="FP16">
					<dim>1</dim>
					<dim>96</dim>
					<dim>1</dim>
					<dim>1</dim>
				</port>
			</output>
		</layer>
		<layer id="32" name="Conv_43" type="Add" version="opset1">
			<data auto_broadcast="numpy"/>
			<input>
				<port id="0">
					<dim>1</dim>
					<dim>96</dim>
					<dim>72</dim>
					<dim>120</dim>
				</port>
				<port id="1">
					<dim>1</dim>
					<dim>96</dim>
					<dim>1</dim>
					<dim>1</dim>
				</port>
			</input>
			<output>
				<port id="2" precision="FP16" names="1085">
					<dim>1</dim>
					<dim>96</dim>
					<dim>72</dim>
					<dim>120</dim>
				</port>
			</output>
		</layer>
		<layer id="33" name="Clip_46" type="Clamp" version="opset1">
			<data max="6.0" min="0.0"/>
			<input>
				<port id="0">
					<dim>1</dim>
					<dim>96</dim>
					<dim>72</dim>
					<dim>120</dim>
				</port>
			</input>
			<output>
				<port id="1" precision="FP16" names="432">
					<dim>1</dim>
					<dim>96</dim>
					<dim>72</dim>
					<dim>120</dim>
				</port>
			</output>
		</layer>
		<layer id="34" name="Conv_47/WithoutBiases" type="Convolution" version="opset1">
			<data auto_pad="explicit" strides="1,1" dilations="1,1" pads_begin="0,0" pads_end="0,0"/>
			<input>
				<port id="0">
					<dim>1</dim>
					<dim>96</dim>
					<dim>72</dim>
					<dim>120</dim>
				</port>
				<port id="1">
					<dim>24</dim>
					<dim>96</dim>
					<dim>1</dim>
					<dim>1</dim>
				</port>
			</input>
			<output>
				<port id="2" precision="FP16">
					<dim>1</dim>
					<dim>24</dim>
					<dim>72</dim>
					<dim>120</dim>
				</port>
			</output>
		</layer>
		<layer id="35" name="Conv_47/Dims5862" type="Const" version="opset1">
			<data offset="2610932" size="48" shape="1,24,1,1" element_type="f16"/>
			<output>
				<port id="0" precision="FP16">
					<dim>1</dim>
					<dim>24</dim>
					<dim>1</dim>
					<dim>1</dim>
				</port>
			</output>
		</layer>
		<layer id="36" name="Conv_47" type="Add" version="opset1">
			<data auto_broadcast="numpy"/>
			<input>
				<port id="0">
					<dim>1</dim>
					<dim>24</dim>
					<dim>72</dim>
					<dim>120</dim>
				</port>
				<port id="1">
					<dim>1</dim>
					<dim>24</dim>
					<dim>1</dim>
					<dim>1</dim>
				</port>
			</input>
			<output>
				<port id="2" precision="FP16" names="1088">
					<dim>1</dim>
					<dim>24</dim>
					<dim>72</dim>
					<dim>120</dim>
				</port>
			</output>
		</layer>
		<layer id="37" name="Conv_63/WithoutBiases" type="Convolution" version="opset1">
			<data auto_pad="explicit" strides="1,1" dilations="1,1" pads_begin="1,1" pads_end="1,1"/>
			<input>
				<port id="0">
					<dim>1</dim>
					<dim>24</dim>
					<dim>72</dim>
					<dim>120</dim>
				</port>
				<port id="1">
					<dim>144</dim>
					<dim>24</dim>
					<dim>1</dim>
					<dim>1</dim>
				</port>
			</input>
			<output>
				<port id="2" precision="FP16">
					<dim>1</dim>
					<dim>144</dim>
					<dim>74</dim>
					<dim>122</dim>
				</port>
			</output>
		</layer>
		<layer id="38" name="Conv_63/Dims5928" type="Const" version="opset1">
			<data offset="2610980" size="288" shape="1,144,1,1" element_type="f16"/>
			<output>
				<port id="0" precision="FP16">
					<dim>1</dim>
					<dim>144</dim>
					<dim>1</dim>
					<dim>1</dim>
				</port>
			</output>
		</layer>
		<layer id="39" name="Conv_63" type="Add" version="opset1">
			<data auto_broadcast="numpy"/>
			<input>
				<port id="0">
					<dim>1</dim>
					<dim>144</dim>
					<dim>74</dim>
					<dim>122</dim>
				</port>
				<port id="1">
					<dim>1</dim>
					<dim>144</dim>
					<dim>1</dim>
					<dim>1</dim>
				</port>
			</input>
			<output>
				<port id="2" precision="FP16" names="1091">
					<dim>1</dim>
					<dim>144</dim>
					<dim>74</dim>
					<dim>122</dim>
				</port>
			</output>
		</layer>
		<layer id="40" name="Clip_66" type="Clamp" version="opset1">
			<data max="6.0" min="0.0"/>
			<input>
				<port id="0">
					<dim>1</dim>
					<dim>144</dim>
					<dim>74</dim>
					<dim>122</dim>
				</port>
			</input>
			<output>
				<port id="1" precision="FP16" names="463">
					<dim>1</dim>
					<dim>144</dim>
					<dim>74</dim>
					<dim>122</dim>
				</port>
			</output>
		</layer>
		<layer id="41" name="1095" type="Const" version="opset1">
			<data offset="2611268" size="2592" shape="144,1,1,3,3" element_type="f16"/>
			<output>
				<port id="0" precision="FP16" names="1095">
					<dim>144</dim>
					<dim>1</dim>
					<dim>1</dim>
					<dim>3</dim>
					<dim>3</dim>
				</port>
			</output>
		</layer>
		<layer id="42" name="Conv_67/WithoutBiases" type="GroupConvolution" version="opset1">
			<data auto_pad="explicit" strides="1,1" dilations="1,1" pads_begin="0,0" pads_end="0,0"/>
			<input>
				<port id="0">
					<dim>1</dim>
					<dim>144</dim>
					<dim>74</dim>
					<dim>122</dim>
				</port>
				<port id="1">
					<dim>144</dim>
					<dim>1</dim>
					<dim>1</dim>
					<dim>3</dim>
					<dim>3</dim>
				</port>
			</input>
			<output>
				<port id="2" precision="FP16">
					<dim>1</dim>
					<dim>144</dim>
					<dim>72</dim>
					<dim>120</dim>
				</port>
			</output>
		</layer>
		<layer id="43" name="Conv_67/Dims5844" type="Const" version="opset1">
			<data offset="2613860" size="288" shape="1,144,1,1" element_type="f16"/>
			<output>
				<port id="0" precision="FP16">
					<dim>1</dim>
					<dim>144</dim>
					<dim>1</dim>
					<dim>1</dim>
				</port>
			</output>
		</layer>
		<layer id="44" name="Conv_67" type="Add" version="opset1">
			<data auto_broadcast="numpy"/>
			<input>
				<port id="0">
					<dim>1</dim>
					<dim>144</dim>
					<dim>72</dim>
					<dim>120</dim>
				</port>
				<port id="1">
					<dim>1</dim>
					<dim>144</dim>
					<dim>1</dim>
					<dim>1</dim>
				</port>
			</input>
			<output>
				<port id="2" precision="FP16" names="1094">
					<dim>1</dim>
					<dim>144</dim>
					<dim>72</dim>
					<dim>120</dim>
				</port>
			</output>
		</layer>
		<layer id="45" name="Clip_70" type="Clamp" version="opset1">
			<data max="6.0" min="0.0"/>
			<input>
				<port id="0">
					<dim>1</dim>
					<dim>144</dim>
					<dim>72</dim>
					<dim>120</dim>
				</port>
			</input>
			<output>
				<port id="1" precision="FP16" names="468">
					<dim>1</dim>
					<dim>144</dim>
					<dim>72</dim>
					<dim>120</dim>
				</port>
			</output>
		</layer>
		<layer id="46" name="Conv_71/WithoutBiases" type="Convolution" version="opset1">
			<data auto_pad="explicit" strides="1,1" dilations="1,1" pads_begin="0,0" pads_end="0,0"/>
			<input>
				<port id="0">
					<dim>1</dim>
					<dim>144</dim>
					<dim>72</dim>
					<dim>120</dim>
				</port>
				<port id="1">
					<dim>24</dim>
					<dim>144</dim>
					<dim>1</dim>
					<dim>1</dim>
				</port>
			</input>
			<output>
				<port id="2" precision="FP16">
					<dim>1</dim>
					<dim>24</dim>
					<dim>72</dim>
					<dim>120</dim>
				</port>
			</output>
		</layer>
		<layer id="47" name="Conv_71/Dims5742" type="Const" version="opset1">
			<data offset="2614148" size="48" shape="1,24,1,1" element_type="f16"/>
			<output>
				<port id="0" precision="FP16">
					<dim>1</dim>
					<dim>24</dim>
					<dim>1</dim>
					<dim>1</dim>
				</port>
			</output>
		</layer>
		<layer id="48" name="Conv_71" type="Add" version="opset1">
			<data auto_broadcast="numpy"/>
			<input>
				<port id="0">
					<dim>1</dim>
					<dim>24</dim>
					<dim>72</dim>
					<dim>120</dim>
				</port>
				<port id="1">
					<dim>1</dim>
					<dim>24</dim>
					<dim>1</dim>
					<dim>1</dim>
				</port>
			</input>
			<output>
				<port id="2" precision="FP16" names="1097">
					<dim>1</dim>
					<dim>24</dim>
					<dim>72</dim>
					<dim>120</dim>
				</port>
			</output>
		</layer>
		<layer id="49" name="Add_72" type="Add" version="opset1">
			<data auto_broadcast="numpy"/>
			<input>
				<port id="0">
					<dim>1</dim>
					<dim>24</dim>
					<dim>72</dim>
					<dim>120</dim>
				</port>
				<port id="1">
					<dim>1</dim>
					<dim>24</dim>
					<dim>72</dim>
					<dim>120</dim>
				</port>
			</input>
			<output>
				<port id="2" precision="FP16" names="471">
					<dim>1</dim>
					<dim>24</dim>
					<dim>72</dim>
					<dim>120</dim>
				</port>
			</output>
		</layer>
		<layer id="50" name="Conv_451/WithoutBiases" type="Convolution" version="opset1">
			<data auto_pad="explicit" strides="1,1" dilations="1,1" pads_begin="0,0" pads_end="0,0"/>
			<input>
				<port id="0">
					<dim>1</dim>
					<dim>24</dim>
					<dim>72</dim>
					<dim>120</dim>
				</port>
				<port id="1">
					<dim>48</dim>
					<dim>24</dim>
					<dim>1</dim>
					<dim>1</dim>
				</port>
			</input>
			<output>
				<port id="2" precision="FP16">
					<dim>1</dim>
					<dim>48</dim>
					<dim>72</dim>
					<dim>120</dim>
				</port>
			</output>
		</layer>
		<layer id="51" name="Conv_451/Dims5694" type="Const" version="opset1">
			<data offset="2614196" size="96" shape="1,48,1,1" element_type="f16"/>
			<output>
				<port id="0" precision="FP16">
					<dim>1</dim>
					<dim>48</dim>
					<dim>1</dim>
					<dim>1</dim>
				</port>
			</output>
		</layer>
		<layer id="52" name="Conv_451" type="Add" version="opset1">
			<data auto_broadcast="numpy"/>
			<input>
				<port id="0">
					<dim>1</dim>
					<dim>48</dim>
					<dim>72</dim>
					<dim>120</dim>
				</port>
				<port id="1">
					<dim>1</dim>
					<dim>48</dim>
					<dim>1</dim>
					<dim>1</dim>
				</port>
			</input>
			<output>
				<port id="2" precision="FP16" names="1244">
					<dim>1</dim>
					<dim>48</dim>
					<dim>72</dim>
					<dim>120</dim>
				</port>
			</output>
		</layer>
		<layer id="53" name="Relu_452" type="ReLU" version="opset1">
			<input>
				<port id="0">
					<dim>1</dim>
					<dim>48</dim>
					<dim>72</dim>
					<dim>120</dim>
				</port>
			</input>
			<output>
				<port id="1" precision="FP16" names="1026">
					<dim>1</dim>
					<dim>48</dim>
					<dim>72</dim>
					<dim>120</dim>
				</port>
			</output>
		</layer>
		<layer id="54" name="Resize_471/axis464819550" type="Const" version="opset1">
			<data offset="0" size="16" shape="2" element_type="i64"/>
			<output>
				<port id="0" precision="I64">
					<dim>2</dim>
				</port>
			</output>
		</layer>
		<layer id="55" name="Resize_471/Add_input_port_1/value465219346" type="Const" version="opset1">
			<data offset="16" size="4" shape="1" element_type="f32"/>
			<output>
				<port id="0" precision="FP32">
					<dim>1</dim>
				</port>
			</output>
		</layer>
		<layer id="56" name="1242" type="Const" version="opset1">
			<data offset="2614292" size="655360" shape="256,1280,1,1" element_type="f16"/>
			<output>
				<port id="0" precision="FP16" names="1242">
					<dim>256</dim>
					<dim>1280</dim>
					<dim>1</dim>
					<dim>1</dim>
				</port>
			</output>
		</layer>
		<layer id="57" name="1227" type="Const" version="opset1">
			<data offset="3269652" size="163840" shape="256,320,1,1" element_type="f16"/>
			<output>
				<port id="0" precision="FP16" names="1227">
					<dim>256</dim>
					<dim>320</dim>
					<dim>1</dim>
					<dim>1</dim>
				</port>
			</output>
		</layer>
		<layer id="58" name="1224" type="Const" version="opset1">
			<data offset="3433492" size="614400" shape="320,960,1,1" element_type="f16"/>
			<output>
				<port id="0" precision="FP16" names="1224">
					<dim>320</dim>
					<dim>960</dim>
					<dim>1</dim>
					<dim>1</dim>
				</port>
			</output>
		</layer>
		<layer id="59" name="1218" type="Const" version="opset1">
			<data offset="4047892" size="307200" shape="960,160,1,1" element_type="f16"/>
			<output>
				<port id="0" precision="FP16" names="1218">
					<dim>960</dim>
					<dim>160</dim>
					<dim>1</dim>
					<dim>1</dim>
				</port>
			</output>
		</layer>
		<layer id="60" name="1206" type="Const" version="opset1">
			<data offset="4355092" size="307200" shape="160,960,1,1" element_type="f16"/>
			<output>
				<port id="0" precision="FP16" names="1206">
					<dim>160</dim>
					<dim>960</dim>
					<dim>1</dim>
					<dim>1</dim>
				</port>
			</output>
		</layer>
		<layer id="61" name="1200" type="Const" version="opset1">
			<data offset="4662292" size="307200" shape="960,160,1,1" element_type="f16"/>
			<output>
				<port id="0" precision="FP16" names="1200">
					<dim>960</dim>
					<dim>160</dim>
					<dim>1</dim>
					<dim>1</dim>
				</port>
			</output>
		</layer>
		<layer id="62" name="1197" type="Const" version="opset1">
			<data offset="4969492" size="184320" shape="160,576,1,1" element_type="f16"/>
			<output>
				<port id="0" precision="FP16" names="1197">
					<dim>160</dim>
					<dim>576</dim>
					<dim>1</dim>
					<dim>1</dim>
				</port>
			</output>
		</layer>
		<layer id="63" name="1191" type="Const" version="opset1">
			<data offset="5153812" size="110592" shape="576,96,1,1" element_type="f16"/>
			<output>
				<port id="0" precision="FP16" names="1191">
					<dim>576</dim>
					<dim>96</dim>
					<dim>1</dim>
					<dim>1</dim>
				</port>
			</output>
		</layer>
		<layer id="64" name="1170" type="Const" version="opset1">
			<data offset="5264404" size="73728" shape="96,384,1,1" element_type="f16"/>
			<output>
				<port id="0" precision="FP16" names="1170">
					<dim>96</dim>
					<dim>384</dim>
					<dim>1</dim>
					<dim>1</dim>
				</port>
			</output>
		</layer>
		<layer id="65" name="1164" type="Const" version="opset1">
			<data offset="5338132" size="49152" shape="384,64,1,1" element_type="f16"/>
			<output>
				<port id="0" precision="FP16" names="1164">
					<dim>384</dim>
					<dim>64</dim>
					<dim>1</dim>
					<dim>1</dim>
				</port>
			</output>
		</layer>
		<layer id="66" name="1143" type="Const" version="opset1">
			<data offset="5387284" size="49152" shape="64,384,1,1" element_type="f16"/>
			<output>
				<port id="0" precision="FP16" names="1143">
					<dim>64</dim>
					<dim>384</dim>
					<dim>1</dim>
					<dim>1</dim>
				</port>
			</output>
		</layer>
		<layer id="67" name="1137" type="Const" version="opset1">
			<data offset="5436436" size="49152" shape="384,64,1,1" element_type="f16"/>
			<output>
				<port id="0" precision="FP16" names="1137">
					<dim>384</dim>
					<dim>64</dim>
					<dim>1</dim>
					<dim>1</dim>
				</port>
			</output>
		</layer>
		<layer id="68" name="1134" type="Const" version="opset1">
			<data offset="5485588" size="24576" shape="64,192,1,1" element_type="f16"/>
			<output>
				<port id="0" precision="FP16" names="1134">
					<dim>64</dim>
					<dim>192</dim>
					<dim>1</dim>
					<dim>1</dim>
				</port>
			</output>
		</layer>
		<layer id="69" name="1128" type="Const" version="opset1">
			<data offset="5510164" size="12288" shape="192,32,1,1" element_type="f16"/>
			<output>
				<port id="0" precision="FP16" names="1128">
					<dim>192</dim>
					<dim>32</dim>
					<dim>1</dim>
					<dim>1</dim>
				</port>
			</output>
		</layer>
		<layer id="70" name="1107" type="Const" version="opset1">
			<data offset="5522452" size="9216" shape="32,144,1,1" element_type="f16"/>
			<output>
				<port id="0" precision="FP16" names="1107">
					<dim>32</dim>
					<dim>144</dim>
					<dim>1</dim>
					<dim>1</dim>
				</port>
			</output>
		</layer>
		<layer id="71" name="1101" type="Const" version="opset1">
			<data offset="5531668" size="6912" shape="144,24,1,1" element_type="f16"/>
			<output>
				<port id="0" precision="FP16" names="1101">
					<dim>144</dim>
					<dim>24</dim>
					<dim>1</dim>
					<dim>1</dim>
				</port>
			</output>
		</layer>
		<layer id="72" name="Conv_88/WithoutBiases" type="Convolution" version="opset1">
			<data auto_pad="explicit" strides="1,1" dilations="1,1" pads_begin="1,1" pads_end="1,1"/>
			<input>
				<port id="0">
					<dim>1</dim>
					<dim>24</dim>
					<dim>72</dim>
					<dim>120</dim>
				</port>
				<port id="1">
					<dim>144</dim>
					<dim>24</dim>
					<dim>1</dim>
					<dim>1</dim>
				</port>
			</input>
			<output>
				<port id="2" precision="FP16">
					<dim>1</dim>
					<dim>144</dim>
					<dim>74</dim>
					<dim>122</dim>
				</port>
			</output>
		</layer>
		<layer id="73" name="Conv_88/Dims5682" type="Const" version="opset1">
			<data offset="5538580" size="288" shape="1,144,1,1" element_type="f16"/>
			<output>
				<port id="0" precision="FP16">
					<dim>1</dim>
					<dim>144</dim>
					<dim>1</dim>
					<dim>1</dim>
				</port>
			</output>
		</layer>
		<layer id="74" name="Conv_88" type="Add" version="opset1">
			<data auto_broadcast="numpy"/>
			<input>
				<port id="0">
					<dim>1</dim>
					<dim>144</dim>
					<dim>74</dim>
					<dim>122</dim>
				</port>
				<port id="1">
					<dim>1</dim>
					<dim>144</dim>
					<dim>1</dim>
					<dim>1</dim>
				</port>
			</input>
			<output>
				<port id="2" precision="FP16" names="1100">
					<dim>1</dim>
					<dim>144</dim>
					<dim>74</dim>
					<dim>122</dim>
				</port>
			</output>
		</layer>
		<layer id="75" name="Clip_91" type="Clamp" version="opset1">
			<data max="6.0" min="0.0"/>
			<input>
				<port id="0">
					<dim>1</dim>
					<dim>144</dim>
					<dim>74</dim>
					<dim>122</dim>
				</port>
			</input>
			<output>
				<port id="1" precision="FP16" names="500">
					<dim>1</dim>
					<dim>144</dim>
					<dim>74</dim>
					<dim>122</dim>
				</port>
			</output>
		</layer>
		<layer id="76" name="1104" type="Const" version="opset1">
			<data offset="5538868" size="2592" shape="144,1,1,3,3" element_type="f16"/>
			<output>
				<port id="0" precision="FP16" names="1104">
					<dim>144</dim>
					<dim>1</dim>
					<dim>1</dim>
					<dim>3</dim>
					<dim>3</dim>
				</port>
			</output>
		</layer>
		<layer id="77" name="Conv_92/WithoutBiases" type="GroupConvolution" version="opset1">
			<data auto_pad="explicit" strides="2,2" dilations="1,1" pads_begin="0,0" pads_end="0,0"/>
			<input>
				<port id="0">
					<dim>1</dim>
					<dim>144</dim>
					<dim>74</dim>
					<dim>122</dim>
				</port>
				<port id="1">
					<dim>144</dim>
					<dim>1</dim>
					<dim>1</dim>
					<dim>3</dim>
					<dim>3</dim>
				</port>
			</input>
			<output>
				<port id="2" precision="FP16">
					<dim>1</dim>
					<dim>144</dim>
					<dim>36</dim>
					<dim>60</dim>
				</port>
			</output>
		</layer>
		<layer id="78" name="Conv_92/Dims5856" type="Const" version="opset1">
			<data offset="5541460" size="288" shape="1,144,1,1" element_type="f16"/>
			<output>
				<port id="0" precision="FP16">
					<dim>1</dim>
					<dim>144</dim>
					<dim>1</dim>
					<dim>1</dim>
				</port>
			</output>
		</layer>
		<layer id="79" name="Conv_92" type="Add" version="opset1">
			<data auto_broadcast="numpy"/>
			<input>
				<port id="0">
					<dim>1</dim>
					<dim>144</dim>
					<dim>36</dim>
					<dim>60</dim>
				</port>
				<port id="1">
					<dim>1</dim>
					<dim>144</dim>
					<dim>1</dim>
					<dim>1</dim>
				</port>
			</input>
			<output>
				<port id="2" precision="FP16" names="1103">
					<dim>1</dim>
					<dim>144</dim>
					<dim>36</dim>
					<dim>60</dim>
				</port>
			</output>
		</layer>
		<layer id="80" name="Clip_95" type="Clamp" version="opset1">
			<data max="6.0" min="0.0"/>
			<input>
				<port id="0">
					<dim>1</dim>
					<dim>144</dim>
					<dim>36</dim>
					<dim>60</dim>
				</port>
			</input>
			<output>
				<port id="1" precision="FP16" names="505">
					<dim>1</dim>
					<dim>144</dim>
					<dim>36</dim>
					<dim>60</dim>
				</port>
			</output>
		</layer>
		<layer id="81" name="Conv_96/WithoutBiases" type="Convolution" version="opset1">
			<data auto_pad="explicit" strides="1,1" dilations="1,1" pads_begin="0,0" pads_end="0,0"/>
			<input>
				<port id="0">
					<dim>1</dim>
					<dim>144</dim>
					<dim>36</dim>
					<dim>60</dim>
				</port>
				<port id="1">
					<dim>32</dim>
					<dim>144</dim>
					<dim>1</dim>
					<dim>1</dim>
				</port>
			</input>
			<output>
				<port id="2" precision="FP16">
					<dim>1</dim>
					<dim>32</dim>
					<dim>36</dim>
					<dim>60</dim>
				</port>
			</output>
		</layer>
		<layer id="82" name="Conv_96/Dims5790" type="Const" version="opset1">
			<data offset="5541748" size="64" shape="1,32,1,1" element_type="f16"/>
			<output>
				<port id="0" precision="FP16">
					<dim>1</dim>
					<dim>32</dim>
					<dim>1</dim>
					<dim>1</dim>
				</port>
			</output>
		</layer>
		<layer id="83" name="Conv_96" type="Add" version="opset1">
			<data auto_broadcast="numpy"/>
			<input>
				<port id="0">
					<dim>1</dim>
					<dim>32</dim>
					<dim>36</dim>
					<dim>60</dim>
				</port>
				<port id="1">
					<dim>1</dim>
					<dim>32</dim>
					<dim>1</dim>
					<dim>1</dim>
				</port>
			</input>
			<output>
				<port id="2" precision="FP16" names="1106">
					<dim>1</dim>
					<dim>32</dim>
					<dim>36</dim>
					<dim>60</dim>
				</port>
			</output>
		</layer>
		<layer id="84" name="1116" type="Const" version="opset1">
			<data offset="5541812" size="12288" shape="32,192,1,1" element_type="f16"/>
			<output>
				<port id="0" precision="FP16" names="1116">
					<dim>32</dim>
					<dim>192</dim>
					<dim>1</dim>
					<dim>1</dim>
				</port>
			</output>
		</layer>
		<layer id="85" name="1110" type="Const" version="opset1">
			<data offset="5554100" size="12288" shape="192,32,1,1" element_type="f16"/>
			<output>
				<port id="0" precision="FP16" names="1110">
					<dim>192</dim>
					<dim>32</dim>
					<dim>1</dim>
					<dim>1</dim>
				</port>
			</output>
		</layer>
		<layer id="86" name="Conv_112/WithoutBiases" type="Convolution" version="opset1">
			<data auto_pad="explicit" strides="1,1" dilations="1,1" pads_begin="1,1" pads_end="1,1"/>
			<input>
				<port id="0">
					<dim>1</dim>
					<dim>32</dim>
					<dim>36</dim>
					<dim>60</dim>
				</port>
				<port id="1">
					<dim>192</dim>
					<dim>32</dim>
					<dim>1</dim>
					<dim>1</dim>
				</port>
			</input>
			<output>
				<port id="2" precision="FP16">
					<dim>1</dim>
					<dim>192</dim>
					<dim>38</dim>
					<dim>62</dim>
				</port>
			</output>
		</layer>
		<layer id="87" name="Conv_112/Dims5712" type="Const" version="opset1">
			<data offset="5566388" size="384" shape="1,192,1,1" element_type="f16"/>
			<output>
				<port id="0" precision="FP16">
					<dim>1</dim>
					<dim>192</dim>
					<dim>1</dim>
					<dim>1</dim>
				</port>
			</output>
		</layer>
		<layer id="88" name="Conv_112" type="Add" version="opset1">
			<data auto_broadcast="numpy"/>
			<input>
				<port id="0">
					<dim>1</dim>
					<dim>192</dim>
					<dim>38</dim>
					<dim>62</dim>
				</port>
				<port id="1">
					<dim>1</dim>
					<dim>192</dim>
					<dim>1</dim>
					<dim>1</dim>
				</port>
			</input>
			<output>
				<port id="2" precision="FP16" names="1109">
					<dim>1</dim>
					<dim>192</dim>
					<dim>38</dim>
					<dim>62</dim>
				</port>
			</output>
		</layer>
		<layer id="89" name="Clip_115" type="Clamp" version="opset1">
			<data max="6.0" min="0.0"/>
			<input>
				<port id="0">
					<dim>1</dim>
					<dim>192</dim>
					<dim>38</dim>
					<dim>62</dim>
				</port>
			</input>
			<output>
				<port id="1" precision="FP16" names="536">
					<dim>1</dim>
					<dim>192</dim>
					<dim>38</dim>
					<dim>62</dim>
				</port>
			</output>
		</layer>
		<layer id="90" name="1113" type="Const" version="opset1">
			<data offset="5566772" size="3456" shape="192,1,1,3,3" element_type="f16"/>
			<output>
				<port id="0" precision="FP16" names="1113">
					<dim>192</dim>
					<dim>1</dim>
					<dim>1</dim>
					<dim>3</dim>
					<dim>3</dim>
				</port>
			</output>
		</layer>
		<layer id="91" name="Conv_116/WithoutBiases" type="GroupConvolution" version="opset1">
			<data auto_pad="explicit" strides="1,1" dilations="1,1" pads_begin="0,0" pads_end="0,0"/>
			<input>
				<port id="0">
					<dim>1</dim>
					<dim>192</dim>
					<dim>38</dim>
					<dim>62</dim>
				</port>
				<port id="1">
					<dim>192</dim>
					<dim>1</dim>
					<dim>1</dim>
					<dim>3</dim>
					<dim>3</dim>
				</port>
			</input>
			<output>
				<port id="2" precision="FP16">
					<dim>1</dim>
					<dim>192</dim>
					<dim>36</dim>
					<dim>60</dim>
				</port>
			</output>
		</layer>
		<layer id="92" name="Conv_116/Dims5634" type="Const" version="opset1">
			<data offset="5570228" size="384" shape="1,192,1,1" element_type="f16"/>
			<output>
				<port id="0" precision="FP16">
					<dim>1</dim>
					<dim>192</dim>
					<dim>1</dim>
					<dim>1</dim>
				</port>
			</output>
		</layer>
		<layer id="93" name="Conv_116" type="Add" version="opset1">
			<data auto_broadcast="numpy"/>
			<input>
				<port id="0">
					<dim>1</dim>
					<dim>192</dim>
					<dim>36</dim>
					<dim>60</dim>
				</port>
				<port id="1">
					<dim>1</dim>
					<dim>192</dim>
					<dim>1</dim>
					<dim>1</dim>
				</port>
			</input>
			<output>
				<port id="2" precision="FP16" names="1112">
					<dim>1</dim>
					<dim>192</dim>
					<dim>36</dim>
					<dim>60</dim>
				</port>
			</output>
		</layer>
		<layer id="94" name="Clip_119" type="Clamp" version="opset1">
			<data max="6.0" min="0.0"/>
			<input>
				<port id="0">
					<dim>1</dim>
					<dim>192</dim>
					<dim>36</dim>
					<dim>60</dim>
				</port>
			</input>
			<output>
				<port id="1" precision="FP16" names="541">
					<dim>1</dim>
					<dim>192</dim>
					<dim>36</dim>
					<dim>60</dim>
				</port>
			</output>
		</layer>
		<layer id="95" name="Conv_120/WithoutBiases" type="Convolution" version="opset1">
			<data auto_pad="explicit" strides="1,1" dilations="1,1" pads_begin="0,0" pads_end="0,0"/>
			<input>
				<port id="0">
					<dim>1</dim>
					<dim>192</dim>
					<dim>36</dim>
					<dim>60</dim>
				</port>
				<port id="1">
					<dim>32</dim>
					<dim>192</dim>
					<dim>1</dim>
					<dim>1</dim>
				</port>
			</input>
			<output>
				<port id="2" precision="FP16">
					<dim>1</dim>
					<dim>32</dim>
					<dim>36</dim>
					<dim>60</dim>
				</port>
			</output>
		</layer>
		<layer id="96" name="Conv_120/Dims5838" type="Const" version="opset1">
			<data offset="5570612" size="64" shape="1,32,1,1" element_type="f16"/>
			<output>
				<port id="0" precision="FP16">
					<dim>1</dim>
					<dim>32</dim>
					<dim>1</dim>
					<dim>1</dim>
				</port>
			</output>
		</layer>
		<layer id="97" name="Conv_120" type="Add" version="opset1">
			<data auto_broadcast="numpy"/>
			<input>
				<port id="0">
					<dim>1</dim>
					<dim>32</dim>
					<dim>36</dim>
					<dim>60</dim>
				</port>
				<port id="1">
					<dim>1</dim>
					<dim>32</dim>
					<dim>1</dim>
					<dim>1</dim>
				</port>
			</input>
			<output>
				<port id="2" precision="FP16" names="1115">
					<dim>1</dim>
					<dim>32</dim>
					<dim>36</dim>
					<dim>60</dim>
				</port>
			</output>
		</layer>
		<layer id="98" name="Add_121" type="Add" version="opset1">
			<data auto_broadcast="numpy"/>
			<input>
				<port id="0">
					<dim>1</dim>
					<dim>32</dim>
					<dim>36</dim>
					<dim>60</dim>
				</port>
				<port id="1">
					<dim>1</dim>
					<dim>32</dim>
					<dim>36</dim>
					<dim>60</dim>
				</port>
			</input>
			<output>
				<port id="2" precision="FP16" names="544">
					<dim>1</dim>
					<dim>32</dim>
					<dim>36</dim>
					<dim>60</dim>
				</port>
			</output>
		</layer>
		<layer id="99" name="1125" type="Const" version="opset1">
			<data offset="5570676" size="12288" shape="32,192,1,1" element_type="f16"/>
			<output>
				<port id="0" precision="FP16" names="1125">
					<dim>32</dim>
					<dim>192</dim>
					<dim>1</dim>
					<dim>1</dim>
				</port>
			</output>
		</layer>
		<layer id="100" name="1119" type="Const" version="opset1">
			<data offset="5582964" size="12288" shape="192,32,1,1" element_type="f16"/>
			<output>
				<port id="0" precision="FP16" names="1119">
					<dim>192</dim>
					<dim>32</dim>
					<dim>1</dim>
					<dim>1</dim>
				</port>
			</output>
		</layer>
		<layer id="101" name="Conv_137/WithoutBiases" type="Convolution" version="opset1">
			<data auto_pad="explicit" strides="1,1" dilations="1,1" pads_begin="1,1" pads_end="1,1"/>
			<input>
				<port id="0">
					<dim>1</dim>
					<dim>32</dim>
					<dim>36</dim>
					<dim>60</dim>
				</port>
				<port id="1">
					<dim>192</dim>
					<dim>32</dim>
					<dim>1</dim>
					<dim>1</dim>
				</port>
			</input>
			<output>
				<port id="2" precision="FP16">
					<dim>1</dim>
					<dim>192</dim>
					<dim>38</dim>
					<dim>62</dim>
				</port>
			</output>
		</layer>
		<layer id="102" name="Conv_137/Dims5622" type="Const" version="opset1">
			<data offset="5595252" size="384" shape="1,192,1,1" element_type="f16"/>
			<output>
				<port id="0" precision="FP16">
					<dim>1</dim>
					<dim>192</dim>
					<dim>1</dim>
					<dim>1</dim>
				</port>
			</output>
		</layer>
		<layer id="103" name="Conv_137" type="Add" version="opset1">
			<data auto_broadcast="numpy"/>
			<input>
				<port id="0">
					<dim>1</dim>
					<dim>192</dim>
					<dim>38</dim>
					<dim>62</dim>
				</port>
				<port id="1">
					<dim>1</dim>
					<dim>192</dim>
					<dim>1</dim>
					<dim>1</dim>
				</port>
			</input>
			<output>
				<port id="2" precision="FP16" names="1118">
					<dim>1</dim>
					<dim>192</dim>
					<dim>38</dim>
					<dim>62</dim>
				</port>
			</output>
		</layer>
		<layer id="104" name="Clip_140" type="Clamp" version="opset1">
			<data max="6.0" min="0.0"/>
			<input>
				<port id="0">
					<dim>1</dim>
					<dim>192</dim>
					<dim>38</dim>
					<dim>62</dim>
				</port>
			</input>
			<output>
				<port id="1" precision="FP16" names="573">
					<dim>1</dim>
					<dim>192</dim>
					<dim>38</dim>
					<dim>62</dim>
				</port>
			</output>
		</layer>
		<layer id="105" name="1122" type="Const" version="opset1">
			<data offset="5595636" size="3456" shape="192,1,1,3,3" element_type="f16"/>
			<output>
				<port id="0" precision="FP16" names="1122">
					<dim>192</dim>
					<dim>1</dim>
					<dim>1</dim>
					<dim>3</dim>
					<dim>3</dim>
				</port>
			</output>
		</layer>
		<layer id="106" name="Conv_141/WithoutBiases" type="GroupConvolution" version="opset1">
			<data auto_pad="explicit" strides="1,1" dilations="1,1" pads_begin="0,0" pads_end="0,0"/>
			<input>
				<port id="0">
					<dim>1</dim>
					<dim>192</dim>
					<dim>38</dim>
					<dim>62</dim>
				</port>
				<port id="1">
					<dim>192</dim>
					<dim>1</dim>
					<dim>1</dim>
					<dim>3</dim>
					<dim>3</dim>
				</port>
			</input>
			<output>
				<port id="2" precision="FP16">
					<dim>1</dim>
					<dim>192</dim>
					<dim>36</dim>
					<dim>60</dim>
				</port>
			</output>
		</layer>
		<layer id="107" name="Conv_141/Dims5700" type="Const" version="opset1">
			<data offset="5599092" size="384" shape="1,192,1,1" element_type="f16"/>
			<output>
				<port id="0" precision="FP16">
					<dim>1</dim>
					<dim>192</dim>
					<dim>1</dim>
					<dim>1</dim>
				</port>
			</output>
		</layer>
		<layer id="108" name="Conv_141" type="Add" version="opset1">
			<data auto_broadcast="numpy"/>
			<input>
				<port id="0">
					<dim>1</dim>
					<dim>192</dim>
					<dim>36</dim>
					<dim>60</dim>
				</port>
				<port id="1">
					<dim>1</dim>
					<dim>192</dim>
					<dim>1</dim>
					<dim>1</dim>
				</port>
			</input>
			<output>
				<port id="2" precision="FP16" names="1121">
					<dim>1</dim>
					<dim>192</dim>
					<dim>36</dim>
					<dim>60</dim>
				</port>
			</output>
		</layer>
		<layer id="109" name="Clip_144" type="Clamp" version="opset1">
			<data max="6.0" min="0.0"/>
			<input>
				<port id="0">
					<dim>1</dim>
					<dim>192</dim>
					<dim>36</dim>
					<dim>60</dim>
				</port>
			</input>
			<output>
				<port id="1" precision="FP16" names="578">
					<dim>1</dim>
					<dim>192</dim>
					<dim>36</dim>
					<dim>60</dim>
				</port>
			</output>
		</layer>
		<layer id="110" name="Conv_145/WithoutBiases" type="Convolution" version="opset1">
			<data auto_pad="explicit" strides="1,1" dilations="1,1" pads_begin="0,0" pads_end="0,0"/>
			<input>
				<port id="0">
					<dim>1</dim>
					<dim>192</dim>
					<dim>36</dim>
					<dim>60</dim>
				</port>
				<port id="1">
					<dim>32</dim>
					<dim>192</dim>
					<dim>1</dim>
					<dim>1</dim>
				</port>
			</input>
			<output>
				<port id="2" precision="FP16">
					<dim>1</dim>
					<dim>32</dim>
					<dim>36</dim>
					<dim>60</dim>
				</port>
			</output>
		</layer>
		<layer id="111" name="Conv_145/Dims5586" type="Const" version="opset1">
			<data offset="5599476" size="64" shape="1,32,1,1" element_type="f16"/>
			<output>
				<port id="0" precision="FP16">
					<dim>1</dim>
					<dim>32</dim>
					<dim>1</dim>
					<dim>1</dim>
				</port>
			</output>
		</layer>
		<layer id="112" name="Conv_145" type="Add" version="opset1">
			<data auto_broadcast="numpy"/>
			<input>
				<port id="0">
					<dim>1</dim>
					<dim>32</dim>
					<dim>36</dim>
					<dim>60</dim>
				</port>
				<port id="1">
					<dim>1</dim>
					<dim>32</dim>
					<dim>1</dim>
					<dim>1</dim>
				</port>
			</input>
			<output>
				<port id="2" precision="FP16" names="1124">
					<dim>1</dim>
					<dim>32</dim>
					<dim>36</dim>
					<dim>60</dim>
				</port>
			</output>
		</layer>
		<layer id="113" name="Add_146" type="Add" version="opset1">
			<data auto_broadcast="numpy"/>
			<input>
				<port id="0">
					<dim>1</dim>
					<dim>32</dim>
					<dim>36</dim>
					<dim>60</dim>
				</port>
				<port id="1">
					<dim>1</dim>
					<dim>32</dim>
					<dim>36</dim>
					<dim>60</dim>
				</port>
			</input>
			<output>
				<port id="2" precision="FP16" names="581">
					<dim>1</dim>
					<dim>32</dim>
					<dim>36</dim>
					<dim>60</dim>
				</port>
			</output>
		</layer>
		<layer id="114" name="Conv_162/WithoutBiases" type="Convolution" version="opset1">
			<data auto_pad="explicit" strides="1,1" dilations="1,1" pads_begin="1,1" pads_end="1,1"/>
			<input>
				<port id="0">
					<dim>1</dim>
					<dim>32</dim>
					<dim>36</dim>
					<dim>60</dim>
				</port>
				<port id="1">
					<dim>192</dim>
					<dim>32</dim>
					<dim>1</dim>
					<dim>1</dim>
				</port>
			</input>
			<output>
				<port id="2" precision="FP16">
					<dim>1</dim>
					<dim>192</dim>
					<dim>38</dim>
					<dim>62</dim>
				</port>
			</output>
		</layer>
		<layer id="115" name="Conv_162/Dims5868" type="Const" version="opset1">
			<data offset="5599540" size="384" shape="1,192,1,1" element_type="f16"/>
			<output>
				<port id="0" precision="FP16">
					<dim>1</dim>
					<dim>192</dim>
					<dim>1</dim>
					<dim>1</dim>
				</port>
			</output>
		</layer>
		<layer id="116" name="Conv_162" type="Add" version="opset1">
			<data auto_broadcast="numpy"/>
			<input>
				<port id="0">
					<dim>1</dim>
					<dim>192</dim>
					<dim>38</dim>
					<dim>62</dim>
				</port>
				<port id="1">
					<dim>1</dim>
					<dim>192</dim>
					<dim>1</dim>
					<dim>1</dim>
				</port>
			</input>
			<output>
				<port id="2" precision="FP16" names="1127">
					<dim>1</dim>
					<dim>192</dim>
					<dim>38</dim>
					<dim>62</dim>
				</port>
			</output>
		</layer>
		<layer id="117" name="Clip_165" type="Clamp" version="opset1">
			<data max="6.0" min="0.0"/>
			<input>
				<port id="0">
					<dim>1</dim>
					<dim>192</dim>
					<dim>38</dim>
					<dim>62</dim>
				</port>
			</input>
			<output>
				<port id="1" precision="FP16" names="610">
					<dim>1</dim>
					<dim>192</dim>
					<dim>38</dim>
					<dim>62</dim>
				</port>
			</output>
		</layer>
		<layer id="118" name="1131" type="Const" version="opset1">
			<data offset="5599924" size="3456" shape="192,1,1,3,3" element_type="f16"/>
			<output>
				<port id="0" precision="FP16" names="1131">
					<dim>192</dim>
					<dim>1</dim>
					<dim>1</dim>
					<dim>3</dim>
					<dim>3</dim>
				</port>
			</output>
		</layer>
		<layer id="119" name="Conv_166/WithoutBiases" type="GroupConvolution" version="opset1">
			<data auto_pad="explicit" strides="2,2" dilations="1,1" pads_begin="0,0" pads_end="0,0"/>
			<input>
				<port id="0">
					<dim>1</dim>
					<dim>192</dim>
					<dim>38</dim>
					<dim>62</dim>
				</port>
				<port id="1">
					<dim>192</dim>
					<dim>1</dim>
					<dim>1</dim>
					<dim>3</dim>
					<dim>3</dim>
				</port>
			</input>
			<output>
				<port id="2" precision="FP16">
					<dim>1</dim>
					<dim>192</dim>
					<dim>18</dim>
					<dim>30</dim>
				</port>
			</output>
		</layer>
		<layer id="120" name="Conv_166/Dims5910" type="Const" version="opset1">
			<data offset="5603380" size="384" shape="1,192,1,1" element_type="f16"/>
			<output>
				<port id="0" precision="FP16">
					<dim>1</dim>
					<dim>192</dim>
					<dim>1</dim>
					<dim>1</dim>
				</port>
			</output>
		</layer>
		<layer id="121" name="Conv_166" type="Add" version="opset1">
			<data auto_broadcast="numpy"/>
			<input>
				<port id="0">
					<dim>1</dim>
					<dim>192</dim>
					<dim>18</dim>
					<dim>30</dim>
				</port>
				<port id="1">
					<dim>1</dim>
					<dim>192</dim>
					<dim>1</dim>
					<dim>1</dim>
				</port>
			</input>
			<output>
				<port id="2" precision="FP16" names="1130">
					<dim>1</dim>
					<dim>192</dim>
					<dim>18</dim>
					<dim>30</dim>
				</port>
			</output>
		</layer>
		<layer id="122" name="Clip_169" type="Clamp" version="opset1">
			<data max="6.0" min="0.0"/>
			<input>
				<port id="0">
					<dim>1</dim>
					<dim>192</dim>
					<dim>18</dim>
					<dim>30</dim>
				</port>
			</input>
			<output>
				<port id="1" precision="FP16" names="615">
					<dim>1</dim>
					<dim>192</dim>
					<dim>18</dim>
					<dim>30</dim>
				</port>
			</output>
		</layer>
		<layer id="123" name="Conv_170/WithoutBiases" type="Convolution" version="opset1">
			<data auto_pad="explicit" strides="1,1" dilations="1,1" pads_begin="0,0" pads_end="0,0"/>
			<input>
				<port id="0">
					<dim>1</dim>
					<dim>192</dim>
					<dim>18</dim>
					<dim>30</dim>
				</port>
				<port id="1">
					<dim>64</dim>
					<dim>192</dim>
					<dim>1</dim>
					<dim>1</dim>
				</port>
			</input>
			<output>
				<port id="2" precision="FP16">
					<dim>1</dim>
					<dim>64</dim>
					<dim>18</dim>
					<dim>30</dim>
				</port>
			</output>
		</layer>
		<layer id="124" name="Conv_170/Dims5724" type="Const" version="opset1">
			<data offset="5603764" size="128" shape="1,64,1,1" element_type="f16"/>
			<output>
				<port id="0" precision="FP16">
					<dim>1</dim>
					<dim>64</dim>
					<dim>1</dim>
					<dim>1</dim>
				</port>
			</output>
		</layer>
		<layer id="125" name="Conv_170" type="Add" version="opset1">
			<data auto_broadcast="numpy"/>
			<input>
				<port id="0">
					<dim>1</dim>
					<dim>64</dim>
					<dim>18</dim>
					<dim>30</dim>
				</port>
				<port id="1">
					<dim>1</dim>
					<dim>64</dim>
					<dim>1</dim>
					<dim>1</dim>
				</port>
			</input>
			<output>
				<port id="2" precision="FP16" names="1133">
					<dim>1</dim>
					<dim>64</dim>
					<dim>18</dim>
					<dim>30</dim>
				</port>
			</output>
		</layer>
		<layer id="126" name="Conv_186/WithoutBiases" type="Convolution" version="opset1">
			<data auto_pad="explicit" strides="1,1" dilations="1,1" pads_begin="1,1" pads_end="1,1"/>
			<input>
				<port id="0">
					<dim>1</dim>
					<dim>64</dim>
					<dim>18</dim>
					<dim>30</dim>
				</port>
				<port id="1">
					<dim>384</dim>
					<dim>64</dim>
					<dim>1</dim>
					<dim>1</dim>
				</port>
			</input>
			<output>
				<port id="2" precision="FP16">
					<dim>1</dim>
					<dim>384</dim>
					<dim>20</dim>
					<dim>32</dim>
				</port>
			</output>
		</layer>
		<layer id="127" name="Conv_186/Dims5658" type="Const" version="opset1">
			<data offset="5603892" size="768" shape="1,384,1,1" element_type="f16"/>
			<output>
				<port id="0" precision="FP16">
					<dim>1</dim>
					<dim>384</dim>
					<dim>1</dim>
					<dim>1</dim>
				</port>
			</output>
		</layer>
		<layer id="128" name="Conv_186" type="Add" version="opset1">
			<data auto_broadcast="numpy"/>
			<input>
				<port id="0">
					<dim>1</dim>
					<dim>384</dim>
					<dim>20</dim>
					<dim>32</dim>
				</port>
				<port id="1">
					<dim>1</dim>
					<dim>384</dim>
					<dim>1</dim>
					<dim>1</dim>
				</port>
			</input>
			<output>
				<port id="2" precision="FP16" names="1136">
					<dim>1</dim>
					<dim>384</dim>
					<dim>20</dim>
					<dim>32</dim>
				</port>
			</output>
		</layer>
		<layer id="129" name="Clip_189" type="Clamp" version="opset1">
			<data max="6.0" min="0.0"/>
			<input>
				<port id="0">
					<dim>1</dim>
					<dim>384</dim>
					<dim>20</dim>
					<dim>32</dim>
				</port>
			</input>
			<output>
				<port id="1" precision="FP16" names="646">
					<dim>1</dim>
					<dim>384</dim>
					<dim>20</dim>
					<dim>32</dim>
				</port>
			</output>
		</layer>
		<layer id="130" name="1140" type="Const" version="opset1">
			<data offset="5604660" size="6912" shape="384,1,1,3,3" element_type="f16"/>
			<output>
				<port id="0" precision="FP16" names="1140">
					<dim>384</dim>
					<dim>1</dim>
					<dim>1</dim>
					<dim>3</dim>
					<dim>3</dim>
				</port>
			</output>
		</layer>
		<layer id="131" name="Conv_190/WithoutBiases" type="GroupConvolution" version="opset1">
			<data auto_pad="explicit" strides="1,1" dilations="1,1" pads_begin="0,0" pads_end="0,0"/>
			<input>
				<port id="0">
					<dim>1</dim>
					<dim>384</dim>
					<dim>20</dim>
					<dim>32</dim>
				</port>
				<port id="1">
					<dim>384</dim>
					<dim>1</dim>
					<dim>1</dim>
					<dim>3</dim>
					<dim>3</dim>
				</port>
			</input>
			<output>
				<port id="2" precision="FP16">
					<dim>1</dim>
					<dim>384</dim>
					<dim>18</dim>
					<dim>30</dim>
				</port>
			</output>
		</layer>
		<layer id="132" name="Conv_190/Dims5616" type="Const" version="opset1">
			<data offset="5611572" size="768" shape="1,384,1,1" element_type="f16"/>
			<output>
				<port id="0" precision="FP16">
					<dim>1</dim>
					<dim>384</dim>
					<dim>1</dim>
					<dim>1</dim>
				</port>
			</output>
		</layer>
		<layer id="133" name="Conv_190" type="Add" version="opset1">
			<data auto_broadcast="numpy"/>
			<input>
				<port id="0">
					<dim>1</dim>
					<dim>384</dim>
					<dim>18</dim>
					<dim>30</dim>
				</port>
				<port id="1">
					<dim>1</dim>
					<dim>384</dim>
					<dim>1</dim>
					<dim>1</dim>
				</port>
			</input>
			<output>
				<port id="2" precision="FP16" names="1139">
					<dim>1</dim>
					<dim>384</dim>
					<dim>18</dim>
					<dim>30</dim>
				</port>
			</output>
		</layer>
		<layer id="134" name="Clip_193" type="Clamp" version="opset1">
			<data max="6.0" min="0.0"/>
			<input>
				<port id="0">
					<dim>1</dim>
					<dim>384</dim>
					<dim>18</dim>
					<dim>30</dim>
				</port>
			</input>
			<output>
				<port id="1" precision="FP16" names="651">
					<dim>1</dim>
					<dim>384</dim>
					<dim>18</dim>
					<dim>30</dim>
				</port>
			</output>
		</layer>
		<layer id="135" name="Conv_194/WithoutBiases" type="Convolution" version="opset1">
			<data auto_pad="explicit" strides="1,1" dilations="1,1" pads_begin="0,0" pads_end="0,0"/>
			<input>
				<port id="0">
					<dim>1</dim>
					<dim>384</dim>
					<dim>18</dim>
					<dim>30</dim>
				</port>
				<port id="1">
					<dim>64</dim>
					<dim>384</dim>
					<dim>1</dim>
					<dim>1</dim>
				</port>
			</input>
			<output>
				<port id="2" precision="FP16">
					<dim>1</dim>
					<dim>64</dim>
					<dim>18</dim>
					<dim>30</dim>
				</port>
			</output>
		</layer>
		<layer id="136" name="Conv_194/Dims5610" type="Const" version="opset1">
			<data offset="5612340" size="128" shape="1,64,1,1" element_type="f16"/>
			<output>
				<port id="0" precision="FP16">
					<dim>1</dim>
					<dim>64</dim>
					<dim>1</dim>
					<dim>1</dim>
				</port>
			</output>
		</layer>
		<layer id="137" name="Conv_194" type="Add" version="opset1">
			<data auto_broadcast="numpy"/>
			<input>
				<port id="0">
					<dim>1</dim>
					<dim>64</dim>
					<dim>18</dim>
					<dim>30</dim>
				</port>
				<port id="1">
					<dim>1</dim>
					<dim>64</dim>
					<dim>1</dim>
					<dim>1</dim>
				</port>
			</input>
			<output>
				<port id="2" precision="FP16" names="1142">
					<dim>1</dim>
					<dim>64</dim>
					<dim>18</dim>
					<dim>30</dim>
				</port>
			</output>
		</layer>
		<layer id="138" name="Add_195" type="Add" version="opset1">
			<data auto_broadcast="numpy"/>
			<input>
				<port id="0">
					<dim>1</dim>
					<dim>64</dim>
					<dim>18</dim>
					<dim>30</dim>
				</port>
				<port id="1">
					<dim>1</dim>
					<dim>64</dim>
					<dim>18</dim>
					<dim>30</dim>
				</port>
			</input>
			<output>
				<port id="2" precision="FP16" names="654">
					<dim>1</dim>
					<dim>64</dim>
					<dim>18</dim>
					<dim>30</dim>
				</port>
			</output>
		</layer>
		<layer id="139" name="1152" type="Const" version="opset1">
			<data offset="5612468" size="49152" shape="64,384,1,1" element_type="f16"/>
			<output>
				<port id="0" precision="FP16" names="1152">
					<dim>64</dim>
					<dim>384</dim>
					<dim>1</dim>
					<dim>1</dim>
				</port>
			</output>
		</layer>
		<layer id="140" name="1146" type="Const" version="opset1">
			<data offset="5661620" size="49152" shape="384,64,1,1" element_type="f16"/>
			<output>
				<port id="0" precision="FP16" names="1146">
					<dim>384</dim>
					<dim>64</dim>
					<dim>1</dim>
					<dim>1</dim>
				</port>
			</output>
		</layer>
		<layer id="141" name="Conv_211/WithoutBiases" type="Convolution" version="opset1">
			<data auto_pad="explicit" strides="1,1" dilations="1,1" pads_begin="1,1" pads_end="1,1"/>
			<input>
				<port id="0">
					<dim>1</dim>
					<dim>64</dim>
					<dim>18</dim>
					<dim>30</dim>
				</port>
				<port id="1">
					<dim>384</dim>
					<dim>64</dim>
					<dim>1</dim>
					<dim>1</dim>
				</port>
			</input>
			<output>
				<port id="2" precision="FP16">
					<dim>1</dim>
					<dim>384</dim>
					<dim>20</dim>
					<dim>32</dim>
				</port>
			</output>
		</layer>
		<layer id="142" name="Conv_211/Dims5826" type="Const" version="opset1">
			<data offset="5710772" size="768" shape="1,384,1,1" element_type="f16"/>
			<output>
				<port id="0" precision="FP16">
					<dim>1</dim>
					<dim>384</dim>
					<dim>1</dim>
					<dim>1</dim>
				</port>
			</output>
		</layer>
		<layer id="143" name="Conv_211" type="Add" version="opset1">
			<data auto_broadcast="numpy"/>
			<input>
				<port id="0">
					<dim>1</dim>
					<dim>384</dim>
					<dim>20</dim>
					<dim>32</dim>
				</port>
				<port id="1">
					<dim>1</dim>
					<dim>384</dim>
					<dim>1</dim>
					<dim>1</dim>
				</port>
			</input>
			<output>
				<port id="2" precision="FP16" names="1145">
					<dim>1</dim>
					<dim>384</dim>
					<dim>20</dim>
					<dim>32</dim>
				</port>
			</output>
		</layer>
		<layer id="144" name="Clip_214" type="Clamp" version="opset1">
			<data max="6.0" min="0.0"/>
			<input>
				<port id="0">
					<dim>1</dim>
					<dim>384</dim>
					<dim>20</dim>
					<dim>32</dim>
				</port>
			</input>
			<output>
				<port id="1" precision="FP16" names="683">
					<dim>1</dim>
					<dim>384</dim>
					<dim>20</dim>
					<dim>32</dim>
				</port>
			</output>
		</layer>
		<layer id="145" name="1149" type="Const" version="opset1">
			<data offset="5711540" size="6912" shape="384,1,1,3,3" element_type="f16"/>
			<output>
				<port id="0" precision="FP16" names="1149">
					<dim>384</dim>
					<dim>1</dim>
					<dim>1</dim>
					<dim>3</dim>
					<dim>3</dim>
				</port>
			</output>
		</layer>
		<layer id="146" name="Conv_215/WithoutBiases" type="GroupConvolution" version="opset1">
			<data auto_pad="explicit" strides="1,1" dilations="1,1" pads_begin="0,0" pads_end="0,0"/>
			<input>
				<port id="0">
					<dim>1</dim>
					<dim>384</dim>
					<dim>20</dim>
					<dim>32</dim>
				</port>
				<port id="1">
					<dim>384</dim>
					<dim>1</dim>
					<dim>1</dim>
					<dim>3</dim>
					<dim>3</dim>
				</port>
			</input>
			<output>
				<port id="2" precision="FP16">
					<dim>1</dim>
					<dim>384</dim>
					<dim>18</dim>
					<dim>30</dim>
				</port>
			</output>
		</layer>
		<layer id="147" name="Conv_215/Dims5784" type="Const" version="opset1">
			<data offset="5718452" size="768" shape="1,384,1,1" element_type="f16"/>
			<output>
				<port id="0" precision="FP16">
					<dim>1</dim>
					<dim>384</dim>
					<dim>1</dim>
					<dim>1</dim>
				</port>
			</output>
		</layer>
		<layer id="148" name="Conv_215" type="Add" version="opset1">
			<data auto_broadcast="numpy"/>
			<input>
				<port id="0">
					<dim>1</dim>
					<dim>384</dim>
					<dim>18</dim>
					<dim>30</dim>
				</port>
				<port id="1">
					<dim>1</dim>
					<dim>384</dim>
					<dim>1</dim>
					<dim>1</dim>
				</port>
			</input>
			<output>
				<port id="2" precision="FP16" names="1148">
					<dim>1</dim>
					<dim>384</dim>
					<dim>18</dim>
					<dim>30</dim>
				</port>
			</output>
		</layer>
		<layer id="149" name="Clip_218" type="Clamp" version="opset1">
			<data max="6.0" min="0.0"/>
			<input>
				<port id="0">
					<dim>1</dim>
					<dim>384</dim>
					<dim>18</dim>
					<dim>30</dim>
				</port>
			</input>
			<output>
				<port id="1" precision="FP16" names="688">
					<dim>1</dim>
					<dim>384</dim>
					<dim>18</dim>
					<dim>30</dim>
				</port>
			</output>
		</layer>
		<layer id="150" name="Conv_219/WithoutBiases" type="Convolution" version="opset1">
			<data auto_pad="explicit" strides="1,1" dilations="1,1" pads_begin="0,0" pads_end="0,0"/>
			<input>
				<port id="0">
					<dim>1</dim>
					<dim>384</dim>
					<dim>18</dim>
					<dim>30</dim>
				</port>
				<port id="1">
					<dim>64</dim>
					<dim>384</dim>
					<dim>1</dim>
					<dim>1</dim>
				</port>
			</input>
			<output>
				<port id="2" precision="FP16">
					<dim>1</dim>
					<dim>64</dim>
					<dim>18</dim>
					<dim>30</dim>
				</port>
			</output>
		</layer>
		<layer id="151" name="Conv_219/Dims5640" type="Const" version="opset1">
			<data offset="5719220" size="128" shape="1,64,1,1" element_type="f16"/>
			<output>
				<port id="0" precision="FP16">
					<dim>1</dim>
					<dim>64</dim>
					<dim>1</dim>
					<dim>1</dim>
				</port>
			</output>
		</layer>
		<layer id="152" name="Conv_219" type="Add" version="opset1">
			<data auto_broadcast="numpy"/>
			<input>
				<port id="0">
					<dim>1</dim>
					<dim>64</dim>
					<dim>18</dim>
					<dim>30</dim>
				</port>
				<port id="1">
					<dim>1</dim>
					<dim>64</dim>
					<dim>1</dim>
					<dim>1</dim>
				</port>
			</input>
			<output>
				<port id="2" precision="FP16" names="1151">
					<dim>1</dim>
					<dim>64</dim>
					<dim>18</dim>
					<dim>30</dim>
				</port>
			</output>
		</layer>
		<layer id="153" name="Add_220" type="Add" version="opset1">
			<data auto_broadcast="numpy"/>
			<input>
				<port id="0">
					<dim>1</dim>
					<dim>64</dim>
					<dim>18</dim>
					<dim>30</dim>
				</port>
				<port id="1">
					<dim>1</dim>
					<dim>64</dim>
					<dim>18</dim>
					<dim>30</dim>
				</port>
			</input>
			<output>
				<port id="2" precision="FP16" names="691">
					<dim>1</dim>
					<dim>64</dim>
					<dim>18</dim>
					<dim>30</dim>
				</port>
			</output>
		</layer>
		<layer id="154" name="1161" type="Const" version="opset1">
			<data offset="5719348" size="49152" shape="64,384,1,1" element_type="f16"/>
			<output>
				<port id="0" precision="FP16" names="1161">
					<dim>64</dim>
					<dim>384</dim>
					<dim>1</dim>
					<dim>1</dim>
				</port>
			</output>
		</layer>
		<layer id="155" name="1155" type="Const" version="opset1">
			<data offset="5768500" size="49152" shape="384,64,1,1" element_type="f16"/>
			<output>
				<port id="0" precision="FP16" names="1155">
					<dim>384</dim>
					<dim>64</dim>
					<dim>1</dim>
					<dim>1</dim>
				</port>
			</output>
		</layer>
		<layer id="156" name="Conv_236/WithoutBiases" type="Convolution" version="opset1">
			<data auto_pad="explicit" strides="1,1" dilations="1,1" pads_begin="1,1" pads_end="1,1"/>
			<input>
				<port id="0">
					<dim>1</dim>
					<dim>64</dim>
					<dim>18</dim>
					<dim>30</dim>
				</port>
				<port id="1">
					<dim>384</dim>
					<dim>64</dim>
					<dim>1</dim>
					<dim>1</dim>
				</port>
			</input>
			<output>
				<port id="2" precision="FP16">
					<dim>1</dim>
					<dim>384</dim>
					<dim>20</dim>
					<dim>32</dim>
				</port>
			</output>
		</layer>
		<layer id="157" name="Conv_236/Dims5850" type="Const" version="opset1">
			<data offset="5817652" size="768" shape="1,384,1,1" element_type="f16"/>
			<output>
				<port id="0" precision="FP16">
					<dim>1</dim>
					<dim>384</dim>
					<dim>1</dim>
					<dim>1</dim>
				</port>
			</output>
		</layer>
		<layer id="158" name="Conv_236" type="Add" version="opset1">
			<data auto_broadcast="numpy"/>
			<input>
				<port id="0">
					<dim>1</dim>
					<dim>384</dim>
					<dim>20</dim>
					<dim>32</dim>
				</port>
				<port id="1">
					<dim>1</dim>
					<dim>384</dim>
					<dim>1</dim>
					<dim>1</dim>
				</port>
			</input>
			<output>
				<port id="2" precision="FP16" names="1154">
					<dim>1</dim>
					<dim>384</dim>
					<dim>20</dim>
					<dim>32</dim>
				</port>
			</output>
		</layer>
		<layer id="159" name="Clip_239" type="Clamp" version="opset1">
			<data max="6.0" min="0.0"/>
			<input>
				<port id="0">
					<dim>1</dim>
					<dim>384</dim>
					<dim>20</dim>
					<dim>32</dim>
				</port>
			</input>
			<output>
				<port id="1" precision="FP16" names="720">
					<dim>1</dim>
					<dim>384</dim>
					<dim>20</dim>
					<dim>32</dim>
				</port>
			</output>
		</layer>
		<layer id="160" name="1158" type="Const" version="opset1">
			<data offset="5818420" size="6912" shape="384,1,1,3,3" element_type="f16"/>
			<output>
				<port id="0" precision="FP16" names="1158">
					<dim>384</dim>
					<dim>1</dim>
					<dim>1</dim>
					<dim>3</dim>
					<dim>3</dim>
				</port>
			</output>
		</layer>
		<layer id="161" name="Conv_240/WithoutBiases" type="GroupConvolution" version="opset1">
			<data auto_pad="explicit" strides="1,1" dilations="1,1" pads_begin="0,0" pads_end="0,0"/>
			<input>
				<port id="0">
					<dim>1</dim>
					<dim>384</dim>
					<dim>20</dim>
					<dim>32</dim>
				</port>
				<port id="1">
					<dim>384</dim>
					<dim>1</dim>
					<dim>1</dim>
					<dim>3</dim>
					<dim>3</dim>
				</port>
			</input>
			<output>
				<port id="2" precision="FP16">
					<dim>1</dim>
					<dim>384</dim>
					<dim>18</dim>
					<dim>30</dim>
				</port>
			</output>
		</layer>
		<layer id="162" name="Conv_240/Dims5874" type="Const" version="opset1">
			<data offset="5825332" size="768" shape="1,384,1,1" element_type="f16"/>
			<output>
				<port id="0" precision="FP16">
					<dim>1</dim>
					<dim>384</dim>
					<dim>1</dim>
					<dim>1</dim>
				</port>
			</output>
		</layer>
		<layer id="163" name="Conv_240" type="Add" version="opset1">
			<data auto_broadcast="numpy"/>
			<input>
				<port id="0">
					<dim>1</dim>
					<dim>384</dim>
					<dim>18</dim>
					<dim>30</dim>
				</port>
				<port id="1">
					<dim>1</dim>
					<dim>384</dim>
					<dim>1</dim>
					<dim>1</dim>
				</port>
			</input>
			<output>
				<port id="2" precision="FP16" names="1157">
					<dim>1</dim>
					<dim>384</dim>
					<dim>18</dim>
					<dim>30</dim>
				</port>
			</output>
		</layer>
		<layer id="164" name="Clip_243" type="Clamp" version="opset1">
			<data max="6.0" min="0.0"/>
			<input>
				<port id="0">
					<dim>1</dim>
					<dim>384</dim>
					<dim>18</dim>
					<dim>30</dim>
				</port>
			</input>
			<output>
				<port id="1" precision="FP16" names="725">
					<dim>1</dim>
					<dim>384</dim>
					<dim>18</dim>
					<dim>30</dim>
				</port>
			</output>
		</layer>
		<layer id="165" name="Conv_244/WithoutBiases" type="Convolution" version="opset1">
			<data auto_pad="explicit" strides="1,1" dilations="1,1" pads_begin="0,0" pads_end="0,0"/>
			<input>
				<port id="0">
					<dim>1</dim>
					<dim>384</dim>
					<dim>18</dim>
					<dim>30</dim>
				</port>
				<port id="1">
					<dim>64</dim>
					<dim>384</dim>
					<dim>1</dim>
					<dim>1</dim>
				</port>
			</input>
			<output>
				<port id="2" precision="FP16">
					<dim>1</dim>
					<dim>64</dim>
					<dim>18</dim>
					<dim>30</dim>
				</port>
			</output>
		</layer>
		<layer id="166" name="Conv_244/Dims5916" type="Const" version="opset1">
			<data offset="5826100" size="128" shape="1,64,1,1" element_type="f16"/>
			<output>
				<port id="0" precision="FP16">
					<dim>1</dim>
					<dim>64</dim>
					<dim>1</dim>
					<dim>1</dim>
				</port>
			</output>
		</layer>
		<layer id="167" name="Conv_244" type="Add" version="opset1">
			<data auto_broadcast="numpy"/>
			<input>
				<port id="0">
					<dim>1</dim>
					<dim>64</dim>
					<dim>18</dim>
					<dim>30</dim>
				</port>
				<port id="1">
					<dim>1</dim>
					<dim>64</dim>
					<dim>1</dim>
					<dim>1</dim>
				</port>
			</input>
			<output>
				<port id="2" precision="FP16" names="1160">
					<dim>1</dim>
					<dim>64</dim>
					<dim>18</dim>
					<dim>30</dim>
				</port>
			</output>
		</layer>
		<layer id="168" name="Add_245" type="Add" version="opset1">
			<data auto_broadcast="numpy"/>
			<input>
				<port id="0">
					<dim>1</dim>
					<dim>64</dim>
					<dim>18</dim>
					<dim>30</dim>
				</port>
				<port id="1">
					<dim>1</dim>
					<dim>64</dim>
					<dim>18</dim>
					<dim>30</dim>
				</port>
			</input>
			<output>
				<port id="2" precision="FP16" names="728">
					<dim>1</dim>
					<dim>64</dim>
					<dim>18</dim>
					<dim>30</dim>
				</port>
			</output>
		</layer>
		<layer id="169" name="Conv_261/WithoutBiases" type="Convolution" version="opset1">
			<data auto_pad="explicit" strides="1,1" dilations="1,1" pads_begin="1,1" pads_end="1,1"/>
			<input>
				<port id="0">
					<dim>1</dim>
					<dim>64</dim>
					<dim>18</dim>
					<dim>30</dim>
				</port>
				<port id="1">
					<dim>384</dim>
					<dim>64</dim>
					<dim>1</dim>
					<dim>1</dim>
				</port>
			</input>
			<output>
				<port id="2" precision="FP16">
					<dim>1</dim>
					<dim>384</dim>
					<dim>20</dim>
					<dim>32</dim>
				</port>
			</output>
		</layer>
		<layer id="170" name="Conv_261/Dims5814" type="Const" version="opset1">
			<data offset="5826228" size="768" shape="1,384,1,1" element_type="f16"/>
			<output>
				<port id="0" precision="FP16">
					<dim>1</dim>
					<dim>384</dim>
					<dim>1</dim>
					<dim>1</dim>
				</port>
			</output>
		</layer>
		<layer id="171" name="Conv_261" type="Add" version="opset1">
			<data auto_broadcast="numpy"/>
			<input>
				<port id="0">
					<dim>1</dim>
					<dim>384</dim>
					<dim>20</dim>
					<dim>32</dim>
				</port>
				<port id="1">
					<dim>1</dim>
					<dim>384</dim>
					<dim>1</dim>
					<dim>1</dim>
				</port>
			</input>
			<output>
				<port id="2" precision="FP16" names="1163">
					<dim>1</dim>
					<dim>384</dim>
					<dim>20</dim>
					<dim>32</dim>
				</port>
			</output>
		</layer>
		<layer id="172" name="Clip_264" type="Clamp" version="opset1">
			<data max="6.0" min="0.0"/>
			<input>
				<port id="0">
					<dim>1</dim>
					<dim>384</dim>
					<dim>20</dim>
					<dim>32</dim>
				</port>
			</input>
			<output>
				<port id="1" precision="FP16" names="757">
					<dim>1</dim>
					<dim>384</dim>
					<dim>20</dim>
					<dim>32</dim>
				</port>
			</output>
		</layer>
		<layer id="173" name="1167" type="Const" version="opset1">
			<data offset="5826996" size="6912" shape="384,1,1,3,3" element_type="f16"/>
			<output>
				<port id="0" precision="FP16" names="1167">
					<dim>384</dim>
					<dim>1</dim>
					<dim>1</dim>
					<dim>3</dim>
					<dim>3</dim>
				</port>
			</output>
		</layer>
		<layer id="174" name="Conv_265/WithoutBiases" type="GroupConvolution" version="opset1">
			<data auto_pad="explicit" strides="1,1" dilations="1,1" pads_begin="0,0" pads_end="0,0"/>
			<input>
				<port id="0">
					<dim>1</dim>
					<dim>384</dim>
					<dim>20</dim>
					<dim>32</dim>
				</port>
				<port id="1">
					<dim>384</dim>
					<dim>1</dim>
					<dim>1</dim>
					<dim>3</dim>
					<dim>3</dim>
				</port>
			</input>
			<output>
				<port id="2" precision="FP16">
					<dim>1</dim>
					<dim>384</dim>
					<dim>18</dim>
					<dim>30</dim>
				</port>
			</output>
		</layer>
		<layer id="175" name="Conv_265/Dims5892" type="Const" version="opset1">
			<data offset="5833908" size="768" shape="1,384,1,1" element_type="f16"/>
			<output>
				<port id="0" precision="FP16">
					<dim>1</dim>
					<dim>384</dim>
					<dim>1</dim>
					<dim>1</dim>
				</port>
			</output>
		</layer>
		<layer id="176" name="Conv_265" type="Add" version="opset1">
			<data auto_broadcast="numpy"/>
			<input>
				<port id="0">
					<dim>1</dim>
					<dim>384</dim>
					<dim>18</dim>
					<dim>30</dim>
				</port>
				<port id="1">
					<dim>1</dim>
					<dim>384</dim>
					<dim>1</dim>
					<dim>1</dim>
				</port>
			</input>
			<output>
				<port id="2" precision="FP16" names="1166">
					<dim>1</dim>
					<dim>384</dim>
					<dim>18</dim>
					<dim>30</dim>
				</port>
			</output>
		</layer>
		<layer id="177" name="Clip_268" type="Clamp" version="opset1">
			<data max="6.0" min="0.0"/>
			<input>
				<port id="0">
					<dim>1</dim>
					<dim>384</dim>
					<dim>18</dim>
					<dim>30</dim>
				</port>
			</input>
			<output>
				<port id="1" precision="FP16" names="762">
					<dim>1</dim>
					<dim>384</dim>
					<dim>18</dim>
					<dim>30</dim>
				</port>
			</output>
		</layer>
		<layer id="178" name="Conv_269/WithoutBiases" type="Convolution" version="opset1">
			<data auto_pad="explicit" strides="1,1" dilations="1,1" pads_begin="0,0" pads_end="0,0"/>
			<input>
				<port id="0">
					<dim>1</dim>
					<dim>384</dim>
					<dim>18</dim>
					<dim>30</dim>
				</port>
				<port id="1">
					<dim>96</dim>
					<dim>384</dim>
					<dim>1</dim>
					<dim>1</dim>
				</port>
			</input>
			<output>
				<port id="2" precision="FP16">
					<dim>1</dim>
					<dim>96</dim>
					<dim>18</dim>
					<dim>30</dim>
				</port>
			</output>
		</layer>
		<layer id="179" name="Conv_269/Dims5886" type="Const" version="opset1">
			<data offset="5834676" size="192" shape="1,96,1,1" element_type="f16"/>
			<output>
				<port id="0" precision="FP16">
					<dim>1</dim>
					<dim>96</dim>
					<dim>1</dim>
					<dim>1</dim>
				</port>
			</output>
		</layer>
		<layer id="180" name="Conv_269" type="Add" version="opset1">
			<data auto_broadcast="numpy"/>
			<input>
				<port id="0">
					<dim>1</dim>
					<dim>96</dim>
					<dim>18</dim>
					<dim>30</dim>
				</port>
				<port id="1">
					<dim>1</dim>
					<dim>96</dim>
					<dim>1</dim>
					<dim>1</dim>
				</port>
			</input>
			<output>
				<port id="2" precision="FP16" names="1169">
					<dim>1</dim>
					<dim>96</dim>
					<dim>18</dim>
					<dim>30</dim>
				</port>
			</output>
		</layer>
		<layer id="181" name="1179" type="Const" version="opset1">
			<data offset="5834868" size="110592" shape="96,576,1,1" element_type="f16"/>
			<output>
				<port id="0" precision="FP16" names="1179">
					<dim>96</dim>
					<dim>576</dim>
					<dim>1</dim>
					<dim>1</dim>
				</port>
			</output>
		</layer>
		<layer id="182" name="1173" type="Const" version="opset1">
			<data offset="5945460" size="110592" shape="576,96,1,1" element_type="f16"/>
			<output>
				<port id="0" precision="FP16" names="1173">
					<dim>576</dim>
					<dim>96</dim>
					<dim>1</dim>
					<dim>1</dim>
				</port>
			</output>
		</layer>
		<layer id="183" name="Conv_285/WithoutBiases" type="Convolution" version="opset1">
			<data auto_pad="explicit" strides="1,1" dilations="1,1" pads_begin="1,1" pads_end="1,1"/>
			<input>
				<port id="0">
					<dim>1</dim>
					<dim>96</dim>
					<dim>18</dim>
					<dim>30</dim>
				</port>
				<port id="1">
					<dim>576</dim>
					<dim>96</dim>
					<dim>1</dim>
					<dim>1</dim>
				</port>
			</input>
			<output>
				<port id="2" precision="FP16">
					<dim>1</dim>
					<dim>576</dim>
					<dim>20</dim>
					<dim>32</dim>
				</port>
			</output>
		</layer>
		<layer id="184" name="Conv_285/Dims5688" type="Const" version="opset1">
			<data offset="6056052" size="1152" shape="1,576,1,1" element_type="f16"/>
			<output>
				<port id="0" precision="FP16">
					<dim>1</dim>
					<dim>576</dim>
					<dim>1</dim>
					<dim>1</dim>
				</port>
			</output>
		</layer>
		<layer id="185" name="Conv_285" type="Add" version="opset1">
			<data auto_broadcast="numpy"/>
			<input>
				<port id="0">
					<dim>1</dim>
					<dim>576</dim>
					<dim>20</dim>
					<dim>32</dim>
				</port>
				<port id="1">
					<dim>1</dim>
					<dim>576</dim>
					<dim>1</dim>
					<dim>1</dim>
				</port>
			</input>
			<output>
				<port id="2" precision="FP16" names="1172">
					<dim>1</dim>
					<dim>576</dim>
					<dim>20</dim>
					<dim>32</dim>
				</port>
			</output>
		</layer>
		<layer id="186" name="Clip_288" type="Clamp" version="opset1">
			<data max="6.0" min="0.0"/>
			<input>
				<port id="0">
					<dim>1</dim>
					<dim>576</dim>
					<dim>20</dim>
					<dim>32</dim>
				</port>
			</input>
			<output>
				<port id="1" precision="FP16" names="793">
					<dim>1</dim>
					<dim>576</dim>
					<dim>20</dim>
					<dim>32</dim>
				</port>
			</output>
		</layer>
		<layer id="187" name="1176" type="Const" version="opset1">
			<data offset="6057204" size="10368" shape="576,1,1,3,3" element_type="f16"/>
			<output>
				<port id="0" precision="FP16" names="1176">
					<dim>576</dim>
					<dim>1</dim>
					<dim>1</dim>
					<dim>3</dim>
					<dim>3</dim>
				</port>
			</output>
		</layer>
		<layer id="188" name="Conv_289/WithoutBiases" type="GroupConvolution" version="opset1">
			<data auto_pad="explicit" strides="1,1" dilations="1,1" pads_begin="0,0" pads_end="0,0"/>
			<input>
				<port id="0">
					<dim>1</dim>
					<dim>576</dim>
					<dim>20</dim>
					<dim>32</dim>
				</port>
				<port id="1">
					<dim>576</dim>
					<dim>1</dim>
					<dim>1</dim>
					<dim>3</dim>
					<dim>3</dim>
				</port>
			</input>
			<output>
				<port id="2" precision="FP16">
					<dim>1</dim>
					<dim>576</dim>
					<dim>18</dim>
					<dim>30</dim>
				</port>
			</output>
		</layer>
		<layer id="189" name="Conv_289/Dims5760" type="Const" version="opset1">
			<data offset="6067572" size="1152" shape="1,576,1,1" element_type="f16"/>
			<output>
				<port id="0" precision="FP16">
					<dim>1</dim>
					<dim>576</dim>
					<dim>1</dim>
					<dim>1</dim>
				</port>
			</output>
		</layer>
		<layer id="190" name="Conv_289" type="Add" version="opset1">
			<data auto_broadcast="numpy"/>
			<input>
				<port id="0">
					<dim>1</dim>
					<dim>576</dim>
					<dim>18</dim>
					<dim>30</dim>
				</port>
				<port id="1">
					<dim>1</dim>
					<dim>576</dim>
					<dim>1</dim>
					<dim>1</dim>
				</port>
			</input>
			<output>
				<port id="2" precision="FP16" names="1175">
					<dim>1</dim>
					<dim>576</dim>
					<dim>18</dim>
					<dim>30</dim>
				</port>
			</output>
		</layer>
		<layer id="191" name="Clip_292" type="Clamp" version="opset1">
			<data max="6.0" min="0.0"/>
			<input>
				<port id="0">
					<dim>1</dim>
					<dim>576</dim>
					<dim>18</dim>
					<dim>30</dim>
				</port>
			</input>
			<output>
				<port id="1" precision="FP16" names="798">
					<dim>1</dim>
					<dim>576</dim>
					<dim>18</dim>
					<dim>30</dim>
				</port>
			</output>
		</layer>
		<layer id="192" name="Conv_293/WithoutBiases" type="Convolution" version="opset1">
			<data auto_pad="explicit" strides="1,1" dilations="1,1" pads_begin="0,0" pads_end="0,0"/>
			<input>
				<port id="0">
					<dim>1</dim>
					<dim>576</dim>
					<dim>18</dim>
					<dim>30</dim>
				</port>
				<port id="1">
					<dim>96</dim>
					<dim>576</dim>
					<dim>1</dim>
					<dim>1</dim>
				</port>
			</input>
			<output>
				<port id="2" precision="FP16">
					<dim>1</dim>
					<dim>96</dim>
					<dim>18</dim>
					<dim>30</dim>
				</port>
			</output>
		</layer>
		<layer id="193" name="Conv_293/Dims5904" type="Const" version="opset1">
			<data offset="6068724" size="192" shape="1,96,1,1" element_type="f16"/>
			<output>
				<port id="0" precision="FP16">
					<dim>1</dim>
					<dim>96</dim>
					<dim>1</dim>
					<dim>1</dim>
				</port>
			</output>
		</layer>
		<layer id="194" name="Conv_293" type="Add" version="opset1">
			<data auto_broadcast="numpy"/>
			<input>
				<port id="0">
					<dim>1</dim>
					<dim>96</dim>
					<dim>18</dim>
					<dim>30</dim>
				</port>
				<port id="1">
					<dim>1</dim>
					<dim>96</dim>
					<dim>1</dim>
					<dim>1</dim>
				</port>
			</input>
			<output>
				<port id="2" precision="FP16" names="1178">
					<dim>1</dim>
					<dim>96</dim>
					<dim>18</dim>
					<dim>30</dim>
				</port>
			</output>
		</layer>
		<layer id="195" name="Add_294" type="Add" version="opset1">
			<data auto_broadcast="numpy"/>
			<input>
				<port id="0">
					<dim>1</dim>
					<dim>96</dim>
					<dim>18</dim>
					<dim>30</dim>
				</port>
				<port id="1">
					<dim>1</dim>
					<dim>96</dim>
					<dim>18</dim>
					<dim>30</dim>
				</port>
			</input>
			<output>
				<port id="2" precision="FP16" names="801">
					<dim>1</dim>
					<dim>96</dim>
					<dim>18</dim>
					<dim>30</dim>
				</port>
			</output>
		</layer>
		<layer id="196" name="1188" type="Const" version="opset1">
			<data offset="6068916" size="110592" shape="96,576,1,1" element_type="f16"/>
			<output>
				<port id="0" precision="FP16" names="1188">
					<dim>96</dim>
					<dim>576</dim>
					<dim>1</dim>
					<dim>1</dim>
				</port>
			</output>
		</layer>
		<layer id="197" name="1182" type="Const" version="opset1">
			<data offset="6179508" size="110592" shape="576,96,1,1" element_type="f16"/>
			<output>
				<port id="0" precision="FP16" names="1182">
					<dim>576</dim>
					<dim>96</dim>
					<dim>1</dim>
					<dim>1</dim>
				</port>
			</output>
		</layer>
		<layer id="198" name="Conv_310/WithoutBiases" type="Convolution" version="opset1">
			<data auto_pad="explicit" strides="1,1" dilations="1,1" pads_begin="1,1" pads_end="1,1"/>
			<input>
				<port id="0">
					<dim>1</dim>
					<dim>96</dim>
					<dim>18</dim>
					<dim>30</dim>
				</port>
				<port id="1">
					<dim>576</dim>
					<dim>96</dim>
					<dim>1</dim>
					<dim>1</dim>
				</port>
			</input>
			<output>
				<port id="2" precision="FP16">
					<dim>1</dim>
					<dim>576</dim>
					<dim>20</dim>
					<dim>32</dim>
				</port>
			</output>
		</layer>
		<layer id="199" name="Conv_310/Dims5736" type="Const" version="opset1">
			<data offset="6290100" size="1152" shape="1,576,1,1" element_type="f16"/>
			<output>
				<port id="0" precision="FP16">
					<dim>1</dim>
					<dim>576</dim>
					<dim>1</dim>
					<dim>1</dim>
				</port>
			</output>
		</layer>
		<layer id="200" name="Conv_310" type="Add" version="opset1">
			<data auto_broadcast="numpy"/>
			<input>
				<port id="0">
					<dim>1</dim>
					<dim>576</dim>
					<dim>20</dim>
					<dim>32</dim>
				</port>
				<port id="1">
					<dim>1</dim>
					<dim>576</dim>
					<dim>1</dim>
					<dim>1</dim>
				</port>
			</input>
			<output>
				<port id="2" precision="FP16" names="1181">
					<dim>1</dim>
					<dim>576</dim>
					<dim>20</dim>
					<dim>32</dim>
				</port>
			</output>
		</layer>
		<layer id="201" name="Clip_313" type="Clamp" version="opset1">
			<data max="6.0" min="0.0"/>
			<input>
				<port id="0">
					<dim>1</dim>
					<dim>576</dim>
					<dim>20</dim>
					<dim>32</dim>
				</port>
			</input>
			<output>
				<port id="1" precision="FP16" names="830">
					<dim>1</dim>
					<dim>576</dim>
					<dim>20</dim>
					<dim>32</dim>
				</port>
			</output>
		</layer>
		<layer id="202" name="1185" type="Const" version="opset1">
			<data offset="6291252" size="10368" shape="576,1,1,3,3" element_type="f16"/>
			<output>
				<port id="0" precision="FP16" names="1185">
					<dim>576</dim>
					<dim>1</dim>
					<dim>1</dim>
					<dim>3</dim>
					<dim>3</dim>
				</port>
			</output>
		</layer>
		<layer id="203" name="Conv_314/WithoutBiases" type="GroupConvolution" version="opset1">
			<data auto_pad="explicit" strides="1,1" dilations="1,1" pads_begin="0,0" pads_end="0,0"/>
			<input>
				<port id="0">
					<dim>1</dim>
					<dim>576</dim>
					<dim>20</dim>
					<dim>32</dim>
				</port>
				<port id="1">
					<dim>576</dim>
					<dim>1</dim>
					<dim>1</dim>
					<dim>3</dim>
					<dim>3</dim>
				</port>
			</input>
			<output>
				<port id="2" precision="FP16">
					<dim>1</dim>
					<dim>576</dim>
					<dim>18</dim>
					<dim>30</dim>
				</port>
			</output>
		</layer>
		<layer id="204" name="Conv_314/Dims5628" type="Const" version="opset1">
			<data offset="6301620" size="1152" shape="1,576,1,1" element_type="f16"/>
			<output>
				<port id="0" precision="FP16">
					<dim>1</dim>
					<dim>576</dim>
					<dim>1</dim>
					<dim>1</dim>
				</port>
			</output>
		</layer>
		<layer id="205" name="Conv_314" type="Add" version="opset1">
			<data auto_broadcast="numpy"/>
			<input>
				<port id="0">
					<dim>1</dim>
					<dim>576</dim>
					<dim>18</dim>
					<dim>30</dim>
				</port>
				<port id="1">
					<dim>1</dim>
					<dim>576</dim>
					<dim>1</dim>
					<dim>1</dim>
				</port>
			</input>
			<output>
				<port id="2" precision="FP16" names="1184">
					<dim>1</dim>
					<dim>576</dim>
					<dim>18</dim>
					<dim>30</dim>
				</port>
			</output>
		</layer>
		<layer id="206" name="Clip_317" type="Clamp" version="opset1">
			<data max="6.0" min="0.0"/>
			<input>
				<port id="0">
					<dim>1</dim>
					<dim>576</dim>
					<dim>18</dim>
					<dim>30</dim>
				</port>
			</input>
			<output>
				<port id="1" precision="FP16" names="835">
					<dim>1</dim>
					<dim>576</dim>
					<dim>18</dim>
					<dim>30</dim>
				</port>
			</output>
		</layer>
		<layer id="207" name="Conv_318/WithoutBiases" type="Convolution" version="opset1">
			<data auto_pad="explicit" strides="1,1" dilations="1,1" pads_begin="0,0" pads_end="0,0"/>
			<input>
				<port id="0">
					<dim>1</dim>
					<dim>576</dim>
					<dim>18</dim>
					<dim>30</dim>
				</port>
				<port id="1">
					<dim>96</dim>
					<dim>576</dim>
					<dim>1</dim>
					<dim>1</dim>
				</port>
			</input>
			<output>
				<port id="2" precision="FP16">
					<dim>1</dim>
					<dim>96</dim>
					<dim>18</dim>
					<dim>30</dim>
				</port>
			</output>
		</layer>
		<layer id="208" name="Conv_318/Dims5766" type="Const" version="opset1">
			<data offset="6302772" size="192" shape="1,96,1,1" element_type="f16"/>
			<output>
				<port id="0" precision="FP16">
					<dim>1</dim>
					<dim>96</dim>
					<dim>1</dim>
					<dim>1</dim>
				</port>
			</output>
		</layer>
		<layer id="209" name="Conv_318" type="Add" version="opset1">
			<data auto_broadcast="numpy"/>
			<input>
				<port id="0">
					<dim>1</dim>
					<dim>96</dim>
					<dim>18</dim>
					<dim>30</dim>
				</port>
				<port id="1">
					<dim>1</dim>
					<dim>96</dim>
					<dim>1</dim>
					<dim>1</dim>
				</port>
			</input>
			<output>
				<port id="2" precision="FP16" names="1187">
					<dim>1</dim>
					<dim>96</dim>
					<dim>18</dim>
					<dim>30</dim>
				</port>
			</output>
		</layer>
		<layer id="210" name="Add_319" type="Add" version="opset1">
			<data auto_broadcast="numpy"/>
			<input>
				<port id="0">
					<dim>1</dim>
					<dim>96</dim>
					<dim>18</dim>
					<dim>30</dim>
				</port>
				<port id="1">
					<dim>1</dim>
					<dim>96</dim>
					<dim>18</dim>
					<dim>30</dim>
				</port>
			</input>
			<output>
				<port id="2" precision="FP16" names="838">
					<dim>1</dim>
					<dim>96</dim>
					<dim>18</dim>
					<dim>30</dim>
				</port>
			</output>
		</layer>
		<layer id="211" name="Conv_335/WithoutBiases" type="Convolution" version="opset1">
			<data auto_pad="explicit" strides="1,1" dilations="1,1" pads_begin="1,1" pads_end="1,1"/>
			<input>
				<port id="0">
					<dim>1</dim>
					<dim>96</dim>
					<dim>18</dim>
					<dim>30</dim>
				</port>
				<port id="1">
					<dim>576</dim>
					<dim>96</dim>
					<dim>1</dim>
					<dim>1</dim>
				</port>
			</input>
			<output>
				<port id="2" precision="FP16">
					<dim>1</dim>
					<dim>576</dim>
					<dim>20</dim>
					<dim>32</dim>
				</port>
			</output>
		</layer>
		<layer id="212" name="Conv_335/Dims5820" type="Const" version="opset1">
			<data offset="6302964" size="1152" shape="1,576,1,1" element_type="f16"/>
			<output>
				<port id="0" precision="FP16">
					<dim>1</dim>
					<dim>576</dim>
					<dim>1</dim>
					<dim>1</dim>
				</port>
			</output>
		</layer>
		<layer id="213" name="Conv_335" type="Add" version="opset1">
			<data auto_broadcast="numpy"/>
			<input>
				<port id="0">
					<dim>1</dim>
					<dim>576</dim>
					<dim>20</dim>
					<dim>32</dim>
				</port>
				<port id="1">
					<dim>1</dim>
					<dim>576</dim>
					<dim>1</dim>
					<dim>1</dim>
				</port>
			</input>
			<output>
				<port id="2" precision="FP16" names="1190">
					<dim>1</dim>
					<dim>576</dim>
					<dim>20</dim>
					<dim>32</dim>
				</port>
			</output>
		</layer>
		<layer id="214" name="Clip_338" type="Clamp" version="opset1">
			<data max="6.0" min="0.0"/>
			<input>
				<port id="0">
					<dim>1</dim>
					<dim>576</dim>
					<dim>20</dim>
					<dim>32</dim>
				</port>
			</input>
			<output>
				<port id="1" precision="FP16" names="867">
					<dim>1</dim>
					<dim>576</dim>
					<dim>20</dim>
					<dim>32</dim>
				</port>
			</output>
		</layer>
		<layer id="215" name="1194" type="Const" version="opset1">
			<data offset="6304116" size="10368" shape="576,1,1,3,3" element_type="f16"/>
			<output>
				<port id="0" precision="FP16" names="1194">
					<dim>576</dim>
					<dim>1</dim>
					<dim>1</dim>
					<dim>3</dim>
					<dim>3</dim>
				</port>
			</output>
		</layer>
		<layer id="216" name="Conv_339/WithoutBiases" type="GroupConvolution" version="opset1">
			<data auto_pad="explicit" strides="1,1" dilations="1,1" pads_begin="0,0" pads_end="0,0"/>
			<input>
				<port id="0">
					<dim>1</dim>
					<dim>576</dim>
					<dim>20</dim>
					<dim>32</dim>
				</port>
				<port id="1">
					<dim>576</dim>
					<dim>1</dim>
					<dim>1</dim>
					<dim>3</dim>
					<dim>3</dim>
				</port>
			</input>
			<output>
				<port id="2" precision="FP16">
					<dim>1</dim>
					<dim>576</dim>
					<dim>18</dim>
					<dim>30</dim>
				</port>
			</output>
		</layer>
		<layer id="217" name="Conv_339/Dims5898" type="Const" version="opset1">
			<data offset="6314484" size="1152" shape="1,576,1,1" element_type="f16"/>
			<output>
				<port id="0" precision="FP16">
					<dim>1</dim>
					<dim>576</dim>
					<dim>1</dim>
					<dim>1</dim>
				</port>
			</output>
		</layer>
		<layer id="218" name="Conv_339" type="Add" version="opset1">
			<data auto_broadcast="numpy"/>
			<input>
				<port id="0">
					<dim>1</dim>
					<dim>576</dim>
					<dim>18</dim>
					<dim>30</dim>
				</port>
				<port id="1">
					<dim>1</dim>
					<dim>576</dim>
					<dim>1</dim>
					<dim>1</dim>
				</port>
			</input>
			<output>
				<port id="2" precision="FP16" names="1193">
					<dim>1</dim>
					<dim>576</dim>
					<dim>18</dim>
					<dim>30</dim>
				</port>
			</output>
		</layer>
		<layer id="219" name="Clip_342" type="Clamp" version="opset1">
			<data max="6.0" min="0.0"/>
			<input>
				<port id="0">
					<dim>1</dim>
					<dim>576</dim>
					<dim>18</dim>
					<dim>30</dim>
				</port>
			</input>
			<output>
				<port id="1" precision="FP16" names="872">
					<dim>1</dim>
					<dim>576</dim>
					<dim>18</dim>
					<dim>30</dim>
				</port>
			</output>
		</layer>
		<layer id="220" name="Conv_343/WithoutBiases" type="Convolution" version="opset1">
			<data auto_pad="explicit" strides="1,1" dilations="1,1" pads_begin="0,0" pads_end="0,0"/>
			<input>
				<port id="0">
					<dim>1</dim>
					<dim>576</dim>
					<dim>18</dim>
					<dim>30</dim>
				</port>
				<port id="1">
					<dim>160</dim>
					<dim>576</dim>
					<dim>1</dim>
					<dim>1</dim>
				</port>
			</input>
			<output>
				<port id="2" precision="FP16">
					<dim>1</dim>
					<dim>160</dim>
					<dim>18</dim>
					<dim>30</dim>
				</port>
			</output>
		</layer>
		<layer id="221" name="Conv_343/Dims5646" type="Const" version="opset1">
			<data offset="6315636" size="320" shape="1,160,1,1" element_type="f16"/>
			<output>
				<port id="0" precision="FP16">
					<dim>1</dim>
					<dim>160</dim>
					<dim>1</dim>
					<dim>1</dim>
				</port>
			</output>
		</layer>
		<layer id="222" name="Conv_343" type="Add" version="opset1">
			<data auto_broadcast="numpy"/>
			<input>
				<port id="0">
					<dim>1</dim>
					<dim>160</dim>
					<dim>18</dim>
					<dim>30</dim>
				</port>
				<port id="1">
					<dim>1</dim>
					<dim>160</dim>
					<dim>1</dim>
					<dim>1</dim>
				</port>
			</input>
			<output>
				<port id="2" precision="FP16" names="1196">
					<dim>1</dim>
					<dim>160</dim>
					<dim>18</dim>
					<dim>30</dim>
				</port>
			</output>
		</layer>
		<layer id="223" name="Conv_359/WithoutBiases" type="Convolution" version="opset1">
			<data auto_pad="explicit" strides="1,1" dilations="1,1" pads_begin="1,1" pads_end="1,1"/>
			<input>
				<port id="0">
					<dim>1</dim>
					<dim>160</dim>
					<dim>18</dim>
					<dim>30</dim>
				</port>
				<port id="1">
					<dim>960</dim>
					<dim>160</dim>
					<dim>1</dim>
					<dim>1</dim>
				</port>
			</input>
			<output>
				<port id="2" precision="FP16">
					<dim>1</dim>
					<dim>960</dim>
					<dim>20</dim>
					<dim>32</dim>
				</port>
			</output>
		</layer>
		<layer id="224" name="Conv_359/Dims5706" type="Const" version="opset1">
			<data offset="6315956" size="1920" shape="1,960,1,1" element_type="f16"/>
			<output>
				<port id="0" precision="FP16">
					<dim>1</dim>
					<dim>960</dim>
					<dim>1</dim>
					<dim>1</dim>
				</port>
			</output>
		</layer>
		<layer id="225" name="Conv_359" type="Add" version="opset1">
			<data auto_broadcast="numpy"/>
			<input>
				<port id="0">
					<dim>1</dim>
					<dim>960</dim>
					<dim>20</dim>
					<dim>32</dim>
				</port>
				<port id="1">
					<dim>1</dim>
					<dim>960</dim>
					<dim>1</dim>
					<dim>1</dim>
				</port>
			</input>
			<output>
				<port id="2" precision="FP16" names="1199">
					<dim>1</dim>
					<dim>960</dim>
					<dim>20</dim>
					<dim>32</dim>
				</port>
			</output>
		</layer>
		<layer id="226" name="Clip_362" type="Clamp" version="opset1">
			<data max="6.0" min="0.0"/>
			<input>
				<port id="0">
					<dim>1</dim>
					<dim>960</dim>
					<dim>20</dim>
					<dim>32</dim>
				</port>
			</input>
			<output>
				<port id="1" precision="FP16" names="903">
					<dim>1</dim>
					<dim>960</dim>
					<dim>20</dim>
					<dim>32</dim>
				</port>
			</output>
		</layer>
		<layer id="227" name="1203" type="Const" version="opset1">
			<data offset="6317876" size="17280" shape="960,1,1,3,3" element_type="f16"/>
			<output>
				<port id="0" precision="FP16" names="1203">
					<dim>960</dim>
					<dim>1</dim>
					<dim>1</dim>
					<dim>3</dim>
					<dim>3</dim>
				</port>
			</output>
		</layer>
		<layer id="228" name="Conv_363/WithoutBiases" type="GroupConvolution" version="opset1">
			<data auto_pad="explicit" strides="1,1" dilations="1,1" pads_begin="0,0" pads_end="0,0"/>
			<input>
				<port id="0">
					<dim>1</dim>
					<dim>960</dim>
					<dim>20</dim>
					<dim>32</dim>
				</port>
				<port id="1">
					<dim>960</dim>
					<dim>1</dim>
					<dim>1</dim>
					<dim>3</dim>
					<dim>3</dim>
				</port>
			</input>
			<output>
				<port id="2" precision="FP16">
					<dim>1</dim>
					<dim>960</dim>
					<dim>18</dim>
					<dim>30</dim>
				</port>
			</output>
		</layer>
		<layer id="229" name="Conv_363/Dims5796" type="Const" version="opset1">
			<data offset="6335156" size="1920" shape="1,960,1,1" element_type="f16"/>
			<output>
				<port id="0" precision="FP16">
					<dim>1</dim>
					<dim>960</dim>
					<dim>1</dim>
					<dim>1</dim>
				</port>
			</output>
		</layer>
		<layer id="230" name="Conv_363" type="Add" version="opset1">
			<data auto_broadcast="numpy"/>
			<input>
				<port id="0">
					<dim>1</dim>
					<dim>960</dim>
					<dim>18</dim>
					<dim>30</dim>
				</port>
				<port id="1">
					<dim>1</dim>
					<dim>960</dim>
					<dim>1</dim>
					<dim>1</dim>
				</port>
			</input>
			<output>
				<port id="2" precision="FP16" names="1202">
					<dim>1</dim>
					<dim>960</dim>
					<dim>18</dim>
					<dim>30</dim>
				</port>
			</output>
		</layer>
		<layer id="231" name="Clip_366" type="Clamp" version="opset1">
			<data max="6.0" min="0.0"/>
			<input>
				<port id="0">
					<dim>1</dim>
					<dim>960</dim>
					<dim>18</dim>
					<dim>30</dim>
				</port>
			</input>
			<output>
				<port id="1" precision="FP16" names="908">
					<dim>1</dim>
					<dim>960</dim>
					<dim>18</dim>
					<dim>30</dim>
				</port>
			</output>
		</layer>
		<layer id="232" name="Conv_367/WithoutBiases" type="Convolution" version="opset1">
			<data auto_pad="explicit" strides="1,1" dilations="1,1" pads_begin="0,0" pads_end="0,0"/>
			<input>
				<port id="0">
					<dim>1</dim>
					<dim>960</dim>
					<dim>18</dim>
					<dim>30</dim>
				</port>
				<port id="1">
					<dim>160</dim>
					<dim>960</dim>
					<dim>1</dim>
					<dim>1</dim>
				</port>
			</input>
			<output>
				<port id="2" precision="FP16">
					<dim>1</dim>
					<dim>160</dim>
					<dim>18</dim>
					<dim>30</dim>
				</port>
			</output>
		</layer>
		<layer id="233" name="Conv_367/Dims5592" type="Const" version="opset1">
			<data offset="6337076" size="320" shape="1,160,1,1" element_type="f16"/>
			<output>
				<port id="0" precision="FP16">
					<dim>1</dim>
					<dim>160</dim>
					<dim>1</dim>
					<dim>1</dim>
				</port>
			</output>
		</layer>
		<layer id="234" name="Conv_367" type="Add" version="opset1">
			<data auto_broadcast="numpy"/>
			<input>
				<port id="0">
					<dim>1</dim>
					<dim>160</dim>
					<dim>18</dim>
					<dim>30</dim>
				</port>
				<port id="1">
					<dim>1</dim>
					<dim>160</dim>
					<dim>1</dim>
					<dim>1</dim>
				</port>
			</input>
			<output>
				<port id="2" precision="FP16" names="1205">
					<dim>1</dim>
					<dim>160</dim>
					<dim>18</dim>
					<dim>30</dim>
				</port>
			</output>
		</layer>
		<layer id="235" name="Add_368" type="Add" version="opset1">
			<data auto_broadcast="numpy"/>
			<input>
				<port id="0">
					<dim>1</dim>
					<dim>160</dim>
					<dim>18</dim>
					<dim>30</dim>
				</port>
				<port id="1">
					<dim>1</dim>
					<dim>160</dim>
					<dim>18</dim>
					<dim>30</dim>
				</port>
			</input>
			<output>
				<port id="2" precision="FP16" names="911">
					<dim>1</dim>
					<dim>160</dim>
					<dim>18</dim>
					<dim>30</dim>
				</port>
			</output>
		</layer>
		<layer id="236" name="1215" type="Const" version="opset1">
			<data offset="6337396" size="307200" shape="160,960,1,1" element_type="f16"/>
			<output>
				<port id="0" precision="FP16" names="1215">
					<dim>160</dim>
					<dim>960</dim>
					<dim>1</dim>
					<dim>1</dim>
				</port>
			</output>
		</layer>
		<layer id="237" name="1209" type="Const" version="opset1">
			<data offset="6644596" size="307200" shape="960,160,1,1" element_type="f16"/>
			<output>
				<port id="0" precision="FP16" names="1209">
					<dim>960</dim>
					<dim>160</dim>
					<dim>1</dim>
					<dim>1</dim>
				</port>
			</output>
		</layer>
		<layer id="238" name="Conv_384/WithoutBiases" type="Convolution" version="opset1">
			<data auto_pad="explicit" strides="1,1" dilations="1,1" pads_begin="1,1" pads_end="1,1"/>
			<input>
				<port id="0">
					<dim>1</dim>
					<dim>160</dim>
					<dim>18</dim>
					<dim>30</dim>
				</port>
				<port id="1">
					<dim>960</dim>
					<dim>160</dim>
					<dim>1</dim>
					<dim>1</dim>
				</port>
			</input>
			<output>
				<port id="2" precision="FP16">
					<dim>1</dim>
					<dim>960</dim>
					<dim>20</dim>
					<dim>32</dim>
				</port>
			</output>
		</layer>
		<layer id="239" name="Conv_384/Dims5772" type="Const" version="opset1">
			<data offset="6951796" size="1920" shape="1,960,1,1" element_type="f16"/>
			<output>
				<port id="0" precision="FP16">
					<dim>1</dim>
					<dim>960</dim>
					<dim>1</dim>
					<dim>1</dim>
				</port>
			</output>
		</layer>
		<layer id="240" name="Conv_384" type="Add" version="opset1">
			<data auto_broadcast="numpy"/>
			<input>
				<port id="0">
					<dim>1</dim>
					<dim>960</dim>
					<dim>20</dim>
					<dim>32</dim>
				</port>
				<port id="1">
					<dim>1</dim>
					<dim>960</dim>
					<dim>1</dim>
					<dim>1</dim>
				</port>
			</input>
			<output>
				<port id="2" precision="FP16" names="1208">
					<dim>1</dim>
					<dim>960</dim>
					<dim>20</dim>
					<dim>32</dim>
				</port>
			</output>
		</layer>
		<layer id="241" name="Clip_387" type="Clamp" version="opset1">
			<data max="6.0" min="0.0"/>
			<input>
				<port id="0">
					<dim>1</dim>
					<dim>960</dim>
					<dim>20</dim>
					<dim>32</dim>
				</port>
			</input>
			<output>
				<port id="1" precision="FP16" names="940">
					<dim>1</dim>
					<dim>960</dim>
					<dim>20</dim>
					<dim>32</dim>
				</port>
			</output>
		</layer>
		<layer id="242" name="1212" type="Const" version="opset1">
			<data offset="6953716" size="17280" shape="960,1,1,3,3" element_type="f16"/>
			<output>
				<port id="0" precision="FP16" names="1212">
					<dim>960</dim>
					<dim>1</dim>
					<dim>1</dim>
					<dim>3</dim>
					<dim>3</dim>
				</port>
			</output>
		</layer>
		<layer id="243" name="Conv_388/WithoutBiases" type="GroupConvolution" version="opset1">
			<data auto_pad="explicit" strides="1,1" dilations="1,1" pads_begin="0,0" pads_end="0,0"/>
			<input>
				<port id="0">
					<dim>1</dim>
					<dim>960</dim>
					<dim>20</dim>
					<dim>32</dim>
				</port>
				<port id="1">
					<dim>960</dim>
					<dim>1</dim>
					<dim>1</dim>
					<dim>3</dim>
					<dim>3</dim>
				</port>
			</input>
			<output>
				<port id="2" precision="FP16">
					<dim>1</dim>
					<dim>960</dim>
					<dim>18</dim>
					<dim>30</dim>
				</port>
			</output>
		</layer>
		<layer id="244" name="Conv_388/Dims5664" type="Const" version="opset1">
			<data offset="6970996" size="1920" shape="1,960,1,1" element_type="f16"/>
			<output>
				<port id="0" precision="FP16">
					<dim>1</dim>
					<dim>960</dim>
					<dim>1</dim>
					<dim>1</dim>
				</port>
			</output>
		</layer>
		<layer id="245" name="Conv_388" type="Add" version="opset1">
			<data auto_broadcast="numpy"/>
			<input>
				<port id="0">
					<dim>1</dim>
					<dim>960</dim>
					<dim>18</dim>
					<dim>30</dim>
				</port>
				<port id="1">
					<dim>1</dim>
					<dim>960</dim>
					<dim>1</dim>
					<dim>1</dim>
				</port>
			</input>
			<output>
				<port id="2" precision="FP16" names="1211">
					<dim>1</dim>
					<dim>960</dim>
					<dim>18</dim>
					<dim>30</dim>
				</port>
			</output>
		</layer>
		<layer id="246" name="Clip_391" type="Clamp" version="opset1">
			<data max="6.0" min="0.0"/>
			<input>
				<port id="0">
					<dim>1</dim>
					<dim>960</dim>
					<dim>18</dim>
					<dim>30</dim>
				</port>
			</input>
			<output>
				<port id="1" precision="FP16" names="945">
					<dim>1</dim>
					<dim>960</dim>
					<dim>18</dim>
					<dim>30</dim>
				</port>
			</output>
		</layer>
		<layer id="247" name="Conv_392/WithoutBiases" type="Convolution" version="opset1">
			<data auto_pad="explicit" strides="1,1" dilations="1,1" pads_begin="0,0" pads_end="0,0"/>
			<input>
				<port id="0">
					<dim>1</dim>
					<dim>960</dim>
					<dim>18</dim>
					<dim>30</dim>
				</port>
				<port id="1">
					<dim>160</dim>
					<dim>960</dim>
					<dim>1</dim>
					<dim>1</dim>
				</port>
			</input>
			<output>
				<port id="2" precision="FP16">
					<dim>1</dim>
					<dim>160</dim>
					<dim>18</dim>
					<dim>30</dim>
				</port>
			</output>
		</layer>
		<layer id="248" name="Conv_392/Dims5598" type="Const" version="opset1">
			<data offset="6972916" size="320" shape="1,160,1,1" element_type="f16"/>
			<output>
				<port id="0" precision="FP16">
					<dim>1</dim>
					<dim>160</dim>
					<dim>1</dim>
					<dim>1</dim>
				</port>
			</output>
		</layer>
		<layer id="249" name="Conv_392" type="Add" version="opset1">
			<data auto_broadcast="numpy"/>
			<input>
				<port id="0">
					<dim>1</dim>
					<dim>160</dim>
					<dim>18</dim>
					<dim>30</dim>
				</port>
				<port id="1">
					<dim>1</dim>
					<dim>160</dim>
					<dim>1</dim>
					<dim>1</dim>
				</port>
			</input>
			<output>
				<port id="2" precision="FP16" names="1214">
					<dim>1</dim>
					<dim>160</dim>
					<dim>18</dim>
					<dim>30</dim>
				</port>
			</output>
		</layer>
		<layer id="250" name="Add_393" type="Add" version="opset1">
			<data auto_broadcast="numpy"/>
			<input>
				<port id="0">
					<dim>1</dim>
					<dim>160</dim>
					<dim>18</dim>
					<dim>30</dim>
				</port>
				<port id="1">
					<dim>1</dim>
					<dim>160</dim>
					<dim>18</dim>
					<dim>30</dim>
				</port>
			</input>
			<output>
				<port id="2" precision="FP16" names="948">
					<dim>1</dim>
					<dim>160</dim>
					<dim>18</dim>
					<dim>30</dim>
				</port>
			</output>
		</layer>
		<layer id="251" name="Conv_409/WithoutBiases" type="Convolution" version="opset1">
			<data auto_pad="explicit" strides="1,1" dilations="1,1" pads_begin="2,2" pads_end="2,2"/>
			<input>
				<port id="0">
					<dim>1</dim>
					<dim>160</dim>
					<dim>18</dim>
					<dim>30</dim>
				</port>
				<port id="1">
					<dim>960</dim>
					<dim>160</dim>
					<dim>1</dim>
					<dim>1</dim>
				</port>
			</input>
			<output>
				<port id="2" precision="FP16">
					<dim>1</dim>
					<dim>960</dim>
					<dim>22</dim>
					<dim>34</dim>
				</port>
			</output>
		</layer>
		<layer id="252" name="Conv_409/Dims5922" type="Const" version="opset1">
			<data offset="6973236" size="1920" shape="1,960,1,1" element_type="f16"/>
			<output>
				<port id="0" precision="FP16">
					<dim>1</dim>
					<dim>960</dim>
					<dim>1</dim>
					<dim>1</dim>
				</port>
			</output>
		</layer>
		<layer id="253" name="Conv_409" type="Add" version="opset1">
			<data auto_broadcast="numpy"/>
			<input>
				<port id="0">
					<dim>1</dim>
					<dim>960</dim>
					<dim>22</dim>
					<dim>34</dim>
				</port>
				<port id="1">
					<dim>1</dim>
					<dim>960</dim>
					<dim>1</dim>
					<dim>1</dim>
				</port>
			</input>
			<output>
				<port id="2" precision="FP16" names="1217">
					<dim>1</dim>
					<dim>960</dim>
					<dim>22</dim>
					<dim>34</dim>
				</port>
			</output>
		</layer>
		<layer id="254" name="Clip_412" type="Clamp" version="opset1">
			<data max="6.0" min="0.0"/>
			<input>
				<port id="0">
					<dim>1</dim>
					<dim>960</dim>
					<dim>22</dim>
					<dim>34</dim>
				</port>
			</input>
			<output>
				<port id="1" precision="FP16" names="977">
					<dim>1</dim>
					<dim>960</dim>
					<dim>22</dim>
					<dim>34</dim>
				</port>
			</output>
		</layer>
		<layer id="255" name="1221" type="Const" version="opset1">
			<data offset="6975156" size="17280" shape="960,1,1,3,3" element_type="f16"/>
			<output>
				<port id="0" precision="FP16" names="1221">
					<dim>960</dim>
					<dim>1</dim>
					<dim>1</dim>
					<dim>3</dim>
					<dim>3</dim>
				</port>
			</output>
		</layer>
		<layer id="256" name="Conv_413/WithoutBiases" type="GroupConvolution" version="opset1">
			<data auto_pad="explicit" strides="1,1" dilations="2,2" pads_begin="0,0" pads_end="0,0"/>
			<input>
				<port id="0">
					<dim>1</dim>
					<dim>960</dim>
					<dim>22</dim>
					<dim>34</dim>
				</port>
				<port id="1">
					<dim>960</dim>
					<dim>1</dim>
					<dim>1</dim>
					<dim>3</dim>
					<dim>3</dim>
				</port>
			</input>
			<output>
				<port id="2" precision="FP16">
					<dim>1</dim>
					<dim>960</dim>
					<dim>18</dim>
					<dim>30</dim>
				</port>
			</output>
		</layer>
		<layer id="257" name="Conv_413/Dims5748" type="Const" version="opset1">
			<data offset="6992436" size="1920" shape="1,960,1,1" element_type="f16"/>
			<output>
				<port id="0" precision="FP16">
					<dim>1</dim>
					<dim>960</dim>
					<dim>1</dim>
					<dim>1</dim>
				</port>
			</output>
		</layer>
		<layer id="258" name="Conv_413" type="Add" version="opset1">
			<data auto_broadcast="numpy"/>
			<input>
				<port id="0">
					<dim>1</dim>
					<dim>960</dim>
					<dim>18</dim>
					<dim>30</dim>
				</port>
				<port id="1">
					<dim>1</dim>
					<dim>960</dim>
					<dim>1</dim>
					<dim>1</dim>
				</port>
			</input>
			<output>
				<port id="2" precision="FP16" names="1220">
					<dim>1</dim>
					<dim>960</dim>
					<dim>18</dim>
					<dim>30</dim>
				</port>
			</output>
		</layer>
		<layer id="259" name="Clip_416" type="Clamp" version="opset1">
			<data max="6.0" min="0.0"/>
			<input>
				<port id="0">
					<dim>1</dim>
					<dim>960</dim>
					<dim>18</dim>
					<dim>30</dim>
				</port>
			</input>
			<output>
				<port id="1" precision="FP16" names="982">
					<dim>1</dim>
					<dim>960</dim>
					<dim>18</dim>
					<dim>30</dim>
				</port>
			</output>
		</layer>
		<layer id="260" name="Conv_417/WithoutBiases" type="Convolution" version="opset1">
			<data auto_pad="explicit" strides="1,1" dilations="1,1" pads_begin="0,0" pads_end="0,0"/>
			<input>
				<port id="0">
					<dim>1</dim>
					<dim>960</dim>
					<dim>18</dim>
					<dim>30</dim>
				</port>
				<port id="1">
					<dim>320</dim>
					<dim>960</dim>
					<dim>1</dim>
					<dim>1</dim>
				</port>
			</input>
			<output>
				<port id="2" precision="FP16">
					<dim>1</dim>
					<dim>320</dim>
					<dim>18</dim>
					<dim>30</dim>
				</port>
			</output>
		</layer>
		<layer id="261" name="Conv_417/Dims5778" type="Const" version="opset1">
			<data offset="6994356" size="640" shape="1,320,1,1" element_type="f16"/>
			<output>
				<port id="0" precision="FP16">
					<dim>1</dim>
					<dim>320</dim>
					<dim>1</dim>
					<dim>1</dim>
				</port>
			</output>
		</layer>
		<layer id="262" name="Conv_417" type="Add" version="opset1">
			<data auto_broadcast="numpy"/>
			<input>
				<port id="0">
					<dim>1</dim>
					<dim>320</dim>
					<dim>18</dim>
					<dim>30</dim>
				</port>
				<port id="1">
					<dim>1</dim>
					<dim>320</dim>
					<dim>1</dim>
					<dim>1</dim>
				</port>
			</input>
			<output>
				<port id="2" precision="FP16" names="1223">
					<dim>1</dim>
					<dim>320</dim>
					<dim>18</dim>
					<dim>30</dim>
				</port>
			</output>
		</layer>
		<layer id="263" name="Conv_418/WithoutBiases" type="Convolution" version="opset1">
			<data auto_pad="explicit" strides="1,1" dilations="1,1" pads_begin="0,0" pads_end="0,0"/>
			<input>
				<port id="0">
					<dim>1</dim>
					<dim>320</dim>
					<dim>18</dim>
					<dim>30</dim>
				</port>
				<port id="1">
					<dim>256</dim>
					<dim>320</dim>
					<dim>1</dim>
					<dim>1</dim>
				</port>
			</input>
			<output>
				<port id="2" precision="FP16">
					<dim>1</dim>
					<dim>256</dim>
					<dim>18</dim>
					<dim>30</dim>
				</port>
			</output>
		</layer>
		<layer id="264" name="Conv_418/Dims5832" type="Const" version="opset1">
			<data offset="6994996" size="512" shape="1,256,1,1" element_type="f16"/>
			<output>
				<port id="0" precision="FP16">
					<dim>1</dim>
					<dim>256</dim>
					<dim>1</dim>
					<dim>1</dim>
				</port>
			</output>
		</layer>
		<layer id="265" name="Conv_418" type="Add" version="opset1">
			<data auto_broadcast="numpy"/>
			<input>
				<port id="0">
					<dim>1</dim>
					<dim>256</dim>
					<dim>18</dim>
					<dim>30</dim>
				</port>
				<port id="1">
					<dim>1</dim>
					<dim>256</dim>
					<dim>1</dim>
					<dim>1</dim>
				</port>
			</input>
			<output>
				<port id="2" precision="FP16" names="1226">
					<dim>1</dim>
					<dim>256</dim>
					<dim>18</dim>
					<dim>30</dim>
				</port>
			</output>
		</layer>
		<layer id="266" name="Relu_419" type="ReLU" version="opset1">
			<input>
				<port id="0">
					<dim>1</dim>
					<dim>256</dim>
					<dim>18</dim>
					<dim>30</dim>
				</port>
			</input>
			<output>
				<port id="1" precision="FP16" names="987">
					<dim>1</dim>
					<dim>256</dim>
					<dim>18</dim>
					<dim>30</dim>
				</port>
			</output>
		</layer>
		<layer id="267" name="1230" type="Const" version="opset1">
			<data offset="6995508" size="1474560" shape="256,320,3,3" element_type="f16"/>
			<output>
				<port id="0" precision="FP16" names="1230">
					<dim>256</dim>
					<dim>320</dim>
					<dim>3</dim>
					<dim>3</dim>
				</port>
			</output>
		</layer>
		<layer id="268" name="Conv_420/WithoutBiases" type="Convolution" version="opset1">
			<data auto_pad="explicit" strides="1,1" dilations="6,6" pads_begin="6,6" pads_end="6,6"/>
			<input>
				<port id="0">
					<dim>1</dim>
					<dim>320</dim>
					<dim>18</dim>
					<dim>30</dim>
				</port>
				<port id="1">
					<dim>256</dim>
					<dim>320</dim>
					<dim>3</dim>
					<dim>3</dim>
				</port>
			</input>
			<output>
				<port id="2" precision="FP16">
					<dim>1</dim>
					<dim>256</dim>
					<dim>18</dim>
					<dim>30</dim>
				</port>
			</output>
		</layer>
		<layer id="269" name="Conv_420/Dims5670" type="Const" version="opset1">
			<data offset="8470068" size="512" shape="1,256,1,1" element_type="f16"/>
			<output>
				<port id="0" precision="FP16">
					<dim>1</dim>
					<dim>256</dim>
					<dim>1</dim>
					<dim>1</dim>
				</port>
			</output>
		</layer>
		<layer id="270" name="Conv_420" type="Add" version="opset1">
			<data auto_broadcast="numpy"/>
			<input>
				<port id="0">
					<dim>1</dim>
					<dim>256</dim>
					<dim>18</dim>
					<dim>30</dim>
				</port>
				<port id="1">
					<dim>1</dim>
					<dim>256</dim>
					<dim>1</dim>
					<dim>1</dim>
				</port>
			</input>
			<output>
				<port id="2" precision="FP16" names="1229">
					<dim>1</dim>
					<dim>256</dim>
					<dim>18</dim>
					<dim>30</dim>
				</port>
			</output>
		</layer>
		<layer id="271" name="Relu_421" type="ReLU" version="opset1">
			<input>
				<port id="0">
					<dim>1</dim>
					<dim>256</dim>
					<dim>18</dim>
					<dim>30</dim>
				</port>
			</input>
			<output>
				<port id="1" precision="FP16" names="990">
					<dim>1</dim>
					<dim>256</dim>
					<dim>18</dim>
					<dim>30</dim>
				</port>
			</output>
		</layer>
		<layer id="272" name="1233" type="Const" version="opset1">
			<data offset="8470580" size="1474560" shape="256,320,3,3" element_type="f16"/>
			<output>
				<port id="0" precision="FP16" names="1233">
					<dim>256</dim>
					<dim>320</dim>
					<dim>3</dim>
					<dim>3</dim>
				</port>
			</output>
		</layer>
		<layer id="273" name="Conv_422/WithoutBiases" type="Convolution" version="opset1">
			<data auto_pad="explicit" strides="1,1" dilations="12,12" pads_begin="12,12" pads_end="12,12"/>
			<input>
				<port id="0">
					<dim>1</dim>
					<dim>320</dim>
					<dim>18</dim>
					<dim>30</dim>
				</port>
				<port id="1">
					<dim>256</dim>
					<dim>320</dim>
					<dim>3</dim>
					<dim>3</dim>
				</port>
			</input>
			<output>
				<port id="2" precision="FP16">
					<dim>1</dim>
					<dim>256</dim>
					<dim>18</dim>
					<dim>30</dim>
				</port>
			</output>
		</layer>
		<layer id="274" name="Conv_422/Dims5934" type="Const" version="opset1">
			<data offset="9945140" size="512" shape="1,256,1,1" element_type="f16"/>
			<output>
				<port id="0" precision="FP16">
					<dim>1</dim>
					<dim>256</dim>
					<dim>1</dim>
					<dim>1</dim>
				</port>
			</output>
		</layer>
		<layer id="275" name="Conv_422" type="Add" version="opset1">
			<data auto_broadcast="numpy"/>
			<input>
				<port id="0">
					<dim>1</dim>
					<dim>256</dim>
					<dim>18</dim>
					<dim>30</dim>
				</port>
				<port id="1">
					<dim>1</dim>
					<dim>256</dim>
					<dim>1</dim>
					<dim>1</dim>
				</port>
			</input>
			<output>
				<port id="2" precision="FP16" names="1232">
					<dim>1</dim>
					<dim>256</dim>
					<dim>18</dim>
					<dim>30</dim>
				</port>
			</output>
		</layer>
		<layer id="276" name="Relu_423" type="ReLU" version="opset1">
			<input>
				<port id="0">
					<dim>1</dim>
					<dim>256</dim>
					<dim>18</dim>
					<dim>30</dim>
				</port>
			</input>
			<output>
				<port id="1" precision="FP16" names="993">
					<dim>1</dim>
					<dim>256</dim>
					<dim>18</dim>
					<dim>30</dim>
				</port>
			</output>
		</layer>
		<layer id="277" name="1236" type="Const" version="opset1">
			<data offset="9945652" size="1474560" shape="256,320,3,3" element_type="f16"/>
			<output>
				<port id="0" precision="FP16" names="1236">
					<dim>256</dim>
					<dim>320</dim>
					<dim>3</dim>
					<dim>3</dim>
				</port>
			</output>
		</layer>
		<layer id="278" name="Conv_424/WithoutBiases" type="Convolution" version="opset1">
			<data auto_pad="explicit" strides="1,1" dilations="18,18" pads_begin="18,18" pads_end="18,18"/>
			<input>
				<port id="0">
					<dim>1</dim>
					<dim>320</dim>
					<dim>18</dim>
					<dim>30</dim>
				</port>
				<port id="1">
					<dim>256</dim>
					<dim>320</dim>
					<dim>3</dim>
					<dim>3</dim>
				</port>
			</input>
			<output>
				<port id="2" precision="FP16">
					<dim>1</dim>
					<dim>256</dim>
					<dim>18</dim>
					<dim>30</dim>
				</port>
			</output>
		</layer>
		<layer id="279" name="Conv_424/Dims5604" type="Const" version="opset1">
			<data offset="11420212" size="512" shape="1,256,1,1" element_type="f16"/>
			<output>
				<port id="0" precision="FP16">
					<dim>1</dim>
					<dim>256</dim>
					<dim>1</dim>
					<dim>1</dim>
				</port>
			</output>
		</layer>
		<layer id="280" name="Conv_424" type="Add" version="opset1">
			<data auto_broadcast="numpy"/>
			<input>
				<port id="0">
					<dim>1</dim>
					<dim>256</dim>
					<dim>18</dim>
					<dim>30</dim>
				</port>
				<port id="1">
					<dim>1</dim>
					<dim>256</dim>
					<dim>1</dim>
					<dim>1</dim>
				</port>
			</input>
			<output>
				<port id="2" precision="FP16" names="1235">
					<dim>1</dim>
					<dim>256</dim>
					<dim>18</dim>
					<dim>30</dim>
				</port>
			</output>
		</layer>
		<layer id="281" name="Relu_425" type="ReLU" version="opset1">
			<input>
				<port id="0">
					<dim>1</dim>
					<dim>256</dim>
					<dim>18</dim>
					<dim>30</dim>
				</port>
			</input>
			<output>
				<port id="1" precision="FP16" names="996">
					<dim>1</dim>
					<dim>256</dim>
					<dim>18</dim>
					<dim>30</dim>
				</port>
			</output>
		</layer>
		<layer id="282" name="Resize_447/axis461619454" type="Const" version="opset1">
			<data offset="0" size="16" shape="2" element_type="i64"/>
			<output>
				<port id="0" precision="I64">
					<dim>2</dim>
				</port>
			</output>
		</layer>
		<layer id="283" name="Resize_447/Add_input_port_1/value462019634" type="Const" version="opset1">
			<data offset="16" size="4" shape="1" element_type="f32"/>
			<output>
				<port id="0" precision="FP32">
					<dim>1</dim>
				</port>
			</output>
		</layer>
		<layer id="284" name="1239" type="Const" version="opset1">
			<data offset="11420724" size="163840" shape="256,320,1,1" element_type="f16"/>
			<output>
				<port id="0" precision="FP16" names="1239">
					<dim>256</dim>
					<dim>320</dim>
					<dim>1</dim>
					<dim>1</dim>
				</port>
			</output>
		</layer>
		<layer id="285" name="739" type="Const" version="opset1">
			<data offset="11584564" size="8" shape="" element_type="i64"/>
			<output>
				<port id="0" precision="I64"/>
			</output>
		</layer>
		<layer id="286" name="741" type="Const" version="opset1">
			<data offset="11584572" size="8" shape="" element_type="i64"/>
			<output>
				<port id="0" precision="I64"/>
			</output>
		</layer>
		<layer id="287" name="GlobalAveragePool_426/input_rank/shape_of" type="ShapeOf" version="opset3">
			<data output_type="i64"/>
			<input>
				<port id="0">
					<dim>1</dim>
					<dim>320</dim>
					<dim>18</dim>
					<dim>30</dim>
				</port>
			</input>
			<output>
				<port id="1" precision="I64">
					<dim>4</dim>
				</port>
			</output>
		</layer>
		<layer id="288" name="GlobalAveragePool_426/input_rank/rank_of" type="ShapeOf" version="opset3">
			<data output_type="i64"/>
			<input>
				<port id="0">
					<dim>4</dim>
				</port>
			</input>
			<output>
				<port id="1" precision="I64">
					<dim>1</dim>
				</port>
			</output>
		</layer>
		<layer id="289" name="GlobalAveragePool_426/input_rank/0d_rank_of/value" type="Const" version="opset1">
			<data offset="11584580" size="8" shape="1" element_type="i64"/>
			<output>
				<port id="0" precision="I64">
					<dim>1</dim>
				</port>
			</output>
		</layer>
		<layer id="290" name="GlobalAveragePool_426/input_rank" type="Squeeze" version="opset1">
			<input>
				<port id="0">
					<dim>1</dim>
				</port>
				<port id="1">
					<dim>1</dim>
				</port>
			</input>
			<output>
				<port id="2" precision="I64"/>
			</output>
		</layer>
		<layer id="291" name="GlobalAveragePool_426/global_pooling_reduce_axis" type="Range" version="opset4">
			<data output_type="i64"/>
			<input>
				<port id="0"/>
				<port id="1"/>
				<port id="2"/>
			</input>
			<output>
				<port id="3" precision="I64">
					<dim>2</dim>
				</port>
			</output>
		</layer>
		<layer id="292" name="GlobalAveragePool_426/reduce" type="ReduceMean" version="opset1">
			<data keep_dims="true"/>
			<input>
				<port id="0">
					<dim>1</dim>
					<dim>320</dim>
					<dim>18</dim>
					<dim>30</dim>
				</port>
				<port id="1">
					<dim>2</dim>
				</port>
			</input>
			<output>
				<port id="2" precision="FP16" names="997">
					<dim>1</dim>
					<dim>320</dim>
					<dim>1</dim>
					<dim>1</dim>
				</port>
			</output>
		</layer>
		<layer id="293" name="Conv_427/WithoutBiases" type="Convolution" version="opset1">
			<data auto_pad="explicit" strides="1,1" dilations="1,1" pads_begin="0,0" pads_end="0,0"/>
			<input>
				<port id="0">
					<dim>1</dim>
					<dim>320</dim>
					<dim>1</dim>
					<dim>1</dim>
				</port>
				<port id="1">
					<dim>256</dim>
					<dim>320</dim>
					<dim>1</dim>
					<dim>1</dim>
				</port>
			</input>
			<output>
				<port id="2" precision="FP16">
					<dim>1</dim>
					<dim>256</dim>
					<dim>1</dim>
					<dim>1</dim>
				</port>
			</output>
		</layer>
		<layer id="294" name="Conv_427/Dims5730" type="Const" version="opset1">
			<data offset="11584588" size="512" shape="1,256,1,1" element_type="f16"/>
			<output>
				<port id="0" precision="FP16">
					<dim>1</dim>
					<dim>256</dim>
					<dim>1</dim>
					<dim>1</dim>
				</port>
			</output>
		</layer>
		<layer id="295" name="Conv_427" type="Add" version="opset1">
			<data auto_broadcast="numpy"/>
			<input>
				<port id="0">
					<dim>1</dim>
					<dim>256</dim>
					<dim>1</dim>
					<dim>1</dim>
				</port>
				<port id="1">
					<dim>1</dim>
					<dim>256</dim>
					<dim>1</dim>
					<dim>1</dim>
				</port>
			</input>
			<output>
				<port id="2" precision="FP16" names="1238">
					<dim>1</dim>
					<dim>256</dim>
					<dim>1</dim>
					<dim>1</dim>
				</port>
			</output>
		</layer>
		<layer id="296" name="Relu_428" type="ReLU" version="opset1">
			<input>
				<port id="0">
					<dim>1</dim>
					<dim>256</dim>
					<dim>1</dim>
					<dim>1</dim>
				</port>
			</input>
			<output>
				<port id="1" precision="FP16" names="1000">
					<dim>1</dim>
					<dim>256</dim>
					<dim>1</dim>
					<dim>1</dim>
				</port>
			</output>
		</layer>
		<layer id="297" name="Shape_438" type="ShapeOf" version="opset3">
			<data output_type="i64"/>
			<input>
				<port id="0">
					<dim>1</dim>
					<dim>256</dim>
					<dim>1</dim>
					<dim>1</dim>
				</port>
			</input>
			<output>
				<port id="1" precision="I64" names="1010">
					<dim>4</dim>
				</port>
			</output>
		</layer>
		<layer id="298" name="Slice_442/Concat627419427" type="Const" version="opset1">
			<data offset="11584580" size="8" shape="1" element_type="i64"/>
			<output>
				<port id="0" precision="I64">
					<dim>1</dim>
				</port>
			</output>
		</layer>
		<layer id="299" name="Slice_442/Concat6264627519430" type="Const" version="opset1">
			<data offset="11584564" size="8" shape="1" element_type="i64"/>
			<output>
				<port id="0" precision="I64">
					<dim>1</dim>
				</port>
			</output>
		</layer>
		<layer id="300" name="Slice_442/Strides627619757" type="Const" version="opset1">
			<data offset="11584572" size="8" shape="1" element_type="i64"/>
			<output>
				<port id="0" precision="I64">
					<dim>1</dim>
				</port>
			</output>
		</layer>
		<layer id="301" name="Slice_442" type="StridedSlice" version="opset1">
			<data begin_mask="0" end_mask="0" new_axis_mask="0" shrink_axis_mask="0" ellipsis_mask="0"/>
			<input>
				<port id="0">
					<dim>4</dim>
				</port>
				<port id="1">
					<dim>1</dim>
				</port>
				<port id="2">
					<dim>1</dim>
				</port>
				<port id="3">
					<dim>1</dim>
				</port>
			</input>
			<output>
				<port id="4" precision="I64" names="1014">
					<dim>2</dim>
				</port>
			</output>
		</layer>
		<layer id="302" name="Unsqueeze_435/Dims" type="Const" version="opset1">
			<data offset="11584580" size="8" shape="1" element_type="i64"/>
			<output>
				<port id="0" precision="I64">
					<dim>1</dim>
				</port>
			</output>
		</layer>
		<layer id="303" name="Shape_429" type="ShapeOf" version="opset3">
			<data output_type="i64"/>
			<input>
				<port id="0">
					<dim>1</dim>
					<dim>256</dim>
					<dim>18</dim>
					<dim>30</dim>
				</port>
			</input>
			<output>
				<port id="1" precision="I64" names="1001">
					<dim>4</dim>
				</port>
			</output>
		</layer>
		<layer id="304" name="Constant_430" type="Const" version="opset1">
			<data offset="11585100" size="4" shape="" element_type="i32"/>
			<output>
				<port id="0" precision="I32" names="1002"/>
			</output>
		</layer>
		<layer id="305" name="Gather_431/axis" type="Const" version="opset1">
			<data offset="11584580" size="8" shape="" element_type="i64"/>
			<output>
				<port id="0" precision="I64"/>
			</output>
		</layer>
		<layer id="306" name="Gather_431788" type="Gather" version="opset7">
			<data batch_dims="0"/>
			<input>
				<port id="0">
					<dim>4</dim>
				</port>
				<port id="1"/>
				<port id="2"/>
			</input>
			<output>
				<port id="3" precision="I64" names="1003"/>
			</output>
		</layer>
		<layer id="307" name="Unsqueeze_435/Unsqueeze" type="Unsqueeze" version="opset1">
			<input>
				<port id="0"/>
				<port id="1">
					<dim>1</dim>
				</port>
			</input>
			<output>
				<port id="2" precision="I64" names="1007">
					<dim>1</dim>
				</port>
			</output>
		</layer>
		<layer id="308" name="Unsqueeze_436/Dims" type="Const" version="opset1">
			<data offset="11584580" size="8" shape="1" element_type="i64"/>
			<output>
				<port id="0" precision="I64">
					<dim>1</dim>
				</port>
			</output>
		</layer>
		<layer id="309" name="Shape_432" type="ShapeOf" version="opset3">
			<data output_type="i64"/>
			<input>
				<port id="0">
					<dim>1</dim>
					<dim>256</dim>
					<dim>18</dim>
					<dim>30</dim>
				</port>
			</input>
			<output>
				<port id="1" precision="I64" names="1004">
					<dim>4</dim>
				</port>
			</output>
		</layer>
		<layer id="310" name="Constant_433" type="Const" version="opset1">
			<data offset="11585104" size="4" shape="" element_type="i32"/>
			<output>
				<port id="0" precision="I32" names="1005"/>
			</output>
		</layer>
		<layer id="311" name="Gather_434/axis" type="Const" version="opset1">
			<data offset="11584580" size="8" shape="" element_type="i64"/>
			<output>
				<port id="0" precision="I64"/>
			</output>
		</layer>
		<layer id="312" name="Gather_434792" type="Gather" version="opset7">
			<data batch_dims="0"/>
			<input>
				<port id="0">
					<dim>4</dim>
				</port>
				<port id="1"/>
				<port id="2"/>
			</input>
			<output>
				<port id="3" precision="I64" names="1006"/>
			</output>
		</layer>
		<layer id="313" name="Unsqueeze_436/Unsqueeze" type="Unsqueeze" version="opset1">
			<input>
				<port id="0"/>
				<port id="1">
					<dim>1</dim>
				</port>
			</input>
			<output>
				<port id="2" precision="I64" names="1008">
					<dim>1</dim>
				</port>
			</output>
		</layer>
		<layer id="314" name="Concat_437" type="Concat" version="opset1">
			<data axis="0"/>
			<input>
				<port id="0">
					<dim>1</dim>
				</port>
				<port id="1">
					<dim>1</dim>
				</port>
			</input>
			<output>
				<port id="2" precision="I64" names="1009,1015">
					<dim>2</dim>
				</port>
			</output>
		</layer>
		<layer id="315" name="Concat_444" type="Concat" version="opset1">
			<data axis="0"/>
			<input>
				<port id="0">
					<dim>2</dim>
				</port>
				<port id="1">
					<dim>2</dim>
				</port>
			</input>
			<output>
				<port id="2" precision="I64" names="1016">
					<dim>4</dim>
				</port>
			</output>
		</layer>
		<layer id="316" name="4622" type="Convert" version="opset1">
			<data destination_type="f32"/>
			<input>
				<port id="0">
					<dim>4</dim>
				</port>
			</input>
			<output>
				<port id="1" precision="FP32">
					<dim>4</dim>
				</port>
			</output>
		</layer>
		<layer id="317" name="Resize_447/ShapeOf" type="ShapeOf" version="opset3">
			<data output_type="i64"/>
			<input>
				<port id="0">
					<dim>1</dim>
					<dim>256</dim>
					<dim>1</dim>
					<dim>1</dim>
				</port>
			</input>
			<output>
				<port id="1" precision="I64">
					<dim>4</dim>
				</port>
			</output>
		</layer>
		<layer id="318" name="4621" type="Convert" version="opset1">
			<data destination_type="f32"/>
			<input>
				<port id="0">
					<dim>4</dim>
				</port>
			</input>
			<output>
				<port id="1" precision="FP32">
					<dim>4</dim>
				</port>
			</output>
		</layer>
		<layer id="319" name="Resize_447/Div" type="Divide" version="opset1">
			<data auto_broadcast="numpy"/>
			<input>
				<port id="0">
					<dim>4</dim>
				</port>
				<port id="1">
					<dim>4</dim>
				</port>
			</input>
			<output>
				<port id="2" precision="FP32">
					<dim>4</dim>
				</port>
			</output>
		</layer>
		<layer id="320" name="Resize_447/Add" type="Add" version="opset1">
			<data auto_broadcast="numpy"/>
			<input>
				<port id="0">
					<dim>4</dim>
				</port>
				<port id="1">
					<dim>1</dim>
				</port>
			</input>
			<output>
				<port id="2" precision="FP32">
					<dim>4</dim>
				</port>
			</output>
		</layer>
		<layer id="321" name="Resize_447/StridedSlice_scales_input_port_1/value460919460" type="Const" version="opset1">
			<data offset="11584564" size="8" shape="1" element_type="i64"/>
			<output>
				<port id="0" precision="I64">
					<dim>1</dim>
				</port>
			</output>
		</layer>
		<layer id="322" name="Resize_447/StridedSlice_scales_input_port_2/value461119439" type="Const" version="opset1">
			<data offset="11585108" size="8" shape="1" element_type="i64"/>
			<output>
				<port id="0" precision="I64">
					<dim>1</dim>
				</port>
			</output>
		</layer>
		<layer id="323" name="Resize_447/StridedSlice_scales_input_port_3/value461319577" type="Const" version="opset1">
			<data offset="11584572" size="8" shape="1" element_type="i64"/>
			<output>
				<port id="0" precision="I64">
					<dim>1</dim>
				</port>
			</output>
		</layer>
		<layer id="324" name="Resize_447/StridedSlice_scales" type="StridedSlice" version="opset1">
			<data begin_mask="0" end_mask="0" new_axis_mask="0" shrink_axis_mask="0" ellipsis_mask="0"/>
			<input>
				<port id="0">
					<dim>4</dim>
				</port>
				<port id="1">
					<dim>1</dim>
				</port>
				<port id="2">
					<dim>1</dim>
				</port>
				<port id="3">
					<dim>1</dim>
				</port>
			</input>
			<output>
				<port id="4" precision="FP32">
					<dim>2</dim>
				</port>
			</output>
		</layer>
		<layer id="325" name="Resize_447/StridedSlice_sizes_input_port_1/value460219766" type="Const" version="opset1">
			<data offset="11584564" size="8" shape="1" element_type="i64"/>
			<output>
				<port id="0" precision="I64">
					<dim>1</dim>
				</port>
			</output>
		</layer>
		<layer id="326" name="Resize_447/StridedSlice_sizes_input_port_2/value460419784" type="Const" version="opset1">
			<data offset="11585108" size="8" shape="1" element_type="i64"/>
			<output>
				<port id="0" precision="I64">
					<dim>1</dim>
				</port>
			</output>
		</layer>
		<layer id="327" name="Resize_447/StridedSlice_sizes_input_port_3/value460619751" type="Const" version="opset1">
			<data offset="11584572" size="8" shape="1" element_type="i64"/>
			<output>
				<port id="0" precision="I64">
					<dim>1</dim>
				</port>
			</output>
		</layer>
		<layer id="328" name="Resize_447/StridedSlice_sizes" type="StridedSlice" version="opset1">
			<data begin_mask="0" end_mask="0" new_axis_mask="0" shrink_axis_mask="0" ellipsis_mask="0"/>
			<input>
				<port id="0">
					<dim>4</dim>
				</port>
				<port id="1">
					<dim>1</dim>
				</port>
				<port id="2">
					<dim>1</dim>
				</port>
				<port id="3">
					<dim>1</dim>
				</port>
			</input>
			<output>
				<port id="4" precision="I64">
					<dim>2</dim>
				</port>
			</output>
		</layer>
		<layer id="329" name="Resize_447" type="Interpolate" version="opset4">
			<data mode="linear_onnx" nearest_mode="floor" cube_coeff="-0.75" coordinate_transformation_mode="align_corners" shape_calculation_mode="sizes" antialias="false" pads_begin="0,0,0,0" pads_end="0,0,0,0"/>
			<input>
				<port id="0">
					<dim>1</dim>
					<dim>256</dim>
					<dim>1</dim>
					<dim>1</dim>
				</port>
				<port id="1">
					<dim>2</dim>
				</port>
				<port id="2">
					<dim>2</dim>
				</port>
				<port id="3">
					<dim>2</dim>
				</port>
			</input>
			<output>
				<port id="4" precision="FP16" names="1019">
					<dim>1</dim>
					<dim>256</dim>
					<dim>18</dim>
					<dim>30</dim>
				</port>
			</output>
		</layer>
		<layer id="330" name="Concat_448" type="Concat" version="opset1">
			<data axis="1"/>
			<input>
				<port id="0">
					<dim>1</dim>
					<dim>256</dim>
					<dim>18</dim>
					<dim>30</dim>
				</port>
				<port id="1">
					<dim>1</dim>
					<dim>256</dim>
					<dim>18</dim>
					<dim>30</dim>
				</port>
				<port id="2">
					<dim>1</dim>
					<dim>256</dim>
					<dim>18</dim>
					<dim>30</dim>
				</port>
				<port id="3">
					<dim>1</dim>
					<dim>256</dim>
					<dim>18</dim>
					<dim>30</dim>
				</port>
				<port id="4">
					<dim>1</dim>
					<dim>256</dim>
					<dim>18</dim>
					<dim>30</dim>
				</port>
			</input>
			<output>
				<port id="5" precision="FP16" names="1020">
					<dim>1</dim>
					<dim>1280</dim>
					<dim>18</dim>
					<dim>30</dim>
				</port>
			</output>
		</layer>
		<layer id="331" name="Conv_449/WithoutBiases" type="Convolution" version="opset1">
			<data auto_pad="explicit" strides="1,1" dilations="1,1" pads_begin="0,0" pads_end="0,0"/>
			<input>
				<port id="0">
					<dim>1</dim>
					<dim>1280</dim>
					<dim>18</dim>
					<dim>30</dim>
				</port>
				<port id="1">
					<dim>256</dim>
					<dim>1280</dim>
					<dim>1</dim>
					<dim>1</dim>
				</port>
			</input>
			<output>
				<port id="2" precision="FP16">
					<dim>1</dim>
					<dim>256</dim>
					<dim>18</dim>
					<dim>30</dim>
				</port>
			</output>
		</layer>
		<layer id="332" name="Conv_449/Dims5676" type="Const" version="opset1">
			<data offset="11585116" size="512" shape="1,256,1,1" element_type="f16"/>
			<output>
				<port id="0" precision="FP16">
					<dim>1</dim>
					<dim>256</dim>
					<dim>1</dim>
					<dim>1</dim>
				</port>
			</output>
		</layer>
		<layer id="333" name="Conv_449" type="Add" version="opset1">
			<data auto_broadcast="numpy"/>
			<input>
				<port id="0">
					<dim>1</dim>
					<dim>256</dim>
					<dim>18</dim>
					<dim>30</dim>
				</port>
				<port id="1">
					<dim>1</dim>
					<dim>256</dim>
					<dim>1</dim>
					<dim>1</dim>
				</port>
			</input>
			<output>
				<port id="2" precision="FP16" names="1241">
					<dim>1</dim>
					<dim>256</dim>
					<dim>18</dim>
					<dim>30</dim>
				</port>
			</output>
		</layer>
		<layer id="334" name="Relu_450" type="ReLU" version="opset1">
			<input>
				<port id="0">
					<dim>1</dim>
					<dim>256</dim>
					<dim>18</dim>
					<dim>30</dim>
				</port>
			</input>
			<output>
				<port id="1" precision="FP16" names="1023">
					<dim>1</dim>
					<dim>256</dim>
					<dim>18</dim>
					<dim>30</dim>
				</port>
			</output>
		</layer>
		<layer id="335" name="Shape_462" type="ShapeOf" version="opset3">
			<data output_type="i64"/>
			<input>
				<port id="0">
					<dim>1</dim>
					<dim>256</dim>
					<dim>18</dim>
					<dim>30</dim>
				</port>
			</input>
			<output>
				<port id="1" precision="I64" names="1036">
					<dim>4</dim>
				</port>
			</output>
		</layer>
		<layer id="336" name="Slice_466/Concat631019568" type="Const" version="opset1">
			<data offset="11584580" size="8" shape="1" element_type="i64"/>
			<output>
				<port id="0" precision="I64">
					<dim>1</dim>
				</port>
			</output>
		</layer>
		<layer id="337" name="Slice_466/Concat6300631119796" type="Const" version="opset1">
			<data offset="11584564" size="8" shape="1" element_type="i64"/>
			<output>
				<port id="0" precision="I64">
					<dim>1</dim>
				</port>
			</output>
		</layer>
		<layer id="338" name="Slice_466/Strides631219715" type="Const" version="opset1">
			<data offset="11584572" size="8" shape="1" element_type="i64"/>
			<output>
				<port id="0" precision="I64">
					<dim>1</dim>
				</port>
			</output>
		</layer>
		<layer id="339" name="Slice_466" type="StridedSlice" version="opset1">
			<data begin_mask="0" end_mask="0" new_axis_mask="0" shrink_axis_mask="0" ellipsis_mask="0"/>
			<input>
				<port id="0">
					<dim>4</dim>
				</port>
				<port id="1">
					<dim>1</dim>
				</port>
				<port id="2">
					<dim>1</dim>
				</port>
				<port id="3">
					<dim>1</dim>
				</port>
			</input>
			<output>
				<port id="4" precision="I64" names="1040">
					<dim>2</dim>
				</port>
			</output>
		</layer>
		<layer id="340" name="Unsqueeze_459/Dims" type="Const" version="opset1">
			<data offset="11584580" size="8" shape="1" element_type="i64"/>
			<output>
				<port id="0" precision="I64">
					<dim>1</dim>
				</port>
			</output>
		</layer>
		<layer id="341" name="Shape_453" type="ShapeOf" version="opset3">
			<data output_type="i64"/>
			<input>
				<port id="0">
					<dim>1</dim>
					<dim>48</dim>
					<dim>72</dim>
					<dim>120</dim>
				</port>
			</input>
			<output>
				<port id="1" precision="I64" names="1027">
					<dim>4</dim>
				</port>
			</output>
		</layer>
		<layer id="342" name="Constant_454" type="Const" version="opset1">
			<data offset="11585100" size="4" shape="" element_type="i32"/>
			<output>
				<port id="0" precision="I32" names="1028"/>
			</output>
		</layer>
		<layer id="343" name="Gather_455/axis" type="Const" version="opset1">
			<data offset="11584580" size="8" shape="" element_type="i64"/>
			<output>
				<port id="0" precision="I64"/>
			</output>
		</layer>
		<layer id="344" name="Gather_455784" type="Gather" version="opset7">
			<data batch_dims="0"/>
			<input>
				<port id="0">
					<dim>4</dim>
				</port>
				<port id="1"/>
				<port id="2"/>
			</input>
			<output>
				<port id="3" precision="I64" names="1029"/>
			</output>
		</layer>
		<layer id="345" name="Unsqueeze_459/Unsqueeze" type="Unsqueeze" version="opset1">
			<input>
				<port id="0"/>
				<port id="1">
					<dim>1</dim>
				</port>
			</input>
			<output>
				<port id="2" precision="I64" names="1033">
					<dim>1</dim>
				</port>
			</output>
		</layer>
		<layer id="346" name="Unsqueeze_460/Dims" type="Const" version="opset1">
			<data offset="11584580" size="8" shape="1" element_type="i64"/>
			<output>
				<port id="0" precision="I64">
					<dim>1</dim>
				</port>
			</output>
		</layer>
		<layer id="347" name="Shape_456" type="ShapeOf" version="opset3">
			<data output_type="i64"/>
			<input>
				<port id="0">
					<dim>1</dim>
					<dim>48</dim>
					<dim>72</dim>
					<dim>120</dim>
				</port>
			</input>
			<output>
				<port id="1" precision="I64" names="1030">
					<dim>4</dim>
				</port>
			</output>
		</layer>
		<layer id="348" name="Constant_457" type="Const" version="opset1">
			<data offset="11585104" size="4" shape="" element_type="i32"/>
			<output>
				<port id="0" precision="I32" names="1031"/>
			</output>
		</layer>
		<layer id="349" name="Gather_458/axis" type="Const" version="opset1">
			<data offset="11584580" size="8" shape="" element_type="i64"/>
			<output>
				<port id="0" precision="I64"/>
			</output>
		</layer>
		<layer id="350" name="Gather_458782" type="Gather" version="opset7">
			<data batch_dims="0"/>
			<input>
				<port id="0">
					<dim>4</dim>
				</port>
				<port id="1"/>
				<port id="2"/>
			</input>
			<output>
				<port id="3" precision="I64" names="1032"/>
			</output>
		</layer>
		<layer id="351" name="Unsqueeze_460/Unsqueeze" type="Unsqueeze" version="opset1">
			<input>
				<port id="0"/>
				<port id="1">
					<dim>1</dim>
				</port>
			</input>
			<output>
				<port id="2" precision="I64" names="1034">
					<dim>1</dim>
				</port>
			</output>
		</layer>
		<layer id="352" name="Concat_461" type="Concat" version="opset1">
			<data axis="0"/>
			<input>
				<port id="0">
					<dim>1</dim>
				</port>
				<port id="1">
					<dim>1</dim>
				</port>
			</input>
			<output>
				<port id="2" precision="I64" names="1035,1041">
					<dim>2</dim>
				</port>
			</output>
		</layer>
		<layer id="353" name="Concat_468" type="Concat" version="opset1">
			<data axis="0"/>
			<input>
				<port id="0">
					<dim>2</dim>
				</port>
				<port id="1">
					<dim>2</dim>
				</port>
			</input>
			<output>
				<port id="2" precision="I64" names="1042">
					<dim>4</dim>
				</port>
			</output>
		</layer>
		<layer id="354" name="4654" type="Convert" version="opset1">
			<data destination_type="f32"/>
			<input>
				<port id="0">
					<dim>4</dim>
				</port>
			</input>
			<output>
				<port id="1" precision="FP32">
					<dim>4</dim>
				</port>
			</output>
		</layer>
		<layer id="355" name="Resize_471/ShapeOf" type="ShapeOf" version="opset3">
			<data output_type="i64"/>
			<input>
				<port id="0">
					<dim>1</dim>
					<dim>256</dim>
					<dim>18</dim>
					<dim>30</dim>
				</port>
			</input>
			<output>
				<port id="1" precision="I64">
					<dim>4</dim>
				</port>
			</output>
		</layer>
		<layer id="356" name="4653" type="Convert" version="opset1">
			<data destination_type="f32"/>
			<input>
				<port id="0">
					<dim>4</dim>
				</port>
			</input>
			<output>
				<port id="1" precision="FP32">
					<dim>4</dim>
				</port>
			</output>
		</layer>
		<layer id="357" name="Resize_471/Div" type="Divide" version="opset1">
			<data auto_broadcast="numpy"/>
			<input>
				<port id="0">
					<dim>4</dim>
				</port>
				<port id="1">
					<dim>4</dim>
				</port>
			</input>
			<output>
				<port id="2" precision="FP32">
					<dim>4</dim>
				</port>
			</output>
		</layer>
		<layer id="358" name="Resize_471/Add" type="Add" version="opset1">
			<data auto_broadcast="numpy"/>
			<input>
				<port id="0">
					<dim>4</dim>
				</port>
				<port id="1">
					<dim>1</dim>
				</port>
			</input>
			<output>
				<port id="2" precision="FP32">
					<dim>4</dim>
				</port>
			</output>
		</layer>
		<layer id="359" name="Resize_471/StridedSlice_scales_input_port_1/value464119790" type="Const" version="opset1">
			<data offset="11584564" size="8" shape="1" element_type="i64"/>
			<output>
				<port id="0" precision="I64">
					<dim>1</dim>
				</port>
			</output>
		</layer>
		<layer id="360" name="Resize_471/StridedSlice_scales_input_port_2/value464319511" type="Const" version="opset1">
			<data offset="11585108" size="8" shape="1" element_type="i64"/>
			<output>
				<port id="0" precision="I64">
					<dim>1</dim>
				</port>
			</output>
		</layer>
		<layer id="361" name="Resize_471/StridedSlice_scales_input_port_3/value464519736" type="Const" version="opset1">
			<data offset="11584572" size="8" shape="1" element_type="i64"/>
			<output>
				<port id="0" precision="I64">
					<dim>1</dim>
				</port>
			</output>
		</layer>
		<layer id="362" name="Resize_471/StridedSlice_scales" type="StridedSlice" version="opset1">
			<data begin_mask="0" end_mask="0" new_axis_mask="0" shrink_axis_mask="0" ellipsis_mask="0"/>
			<input>
				<port id="0">
					<dim>4</dim>
				</port>
				<port id="1">
					<dim>1</dim>
				</port>
				<port id="2">
					<dim>1</dim>
				</port>
				<port id="3">
					<dim>1</dim>
				</port>
			</input>
			<output>
				<port id="4" precision="FP32">
					<dim>2</dim>
				</port>
			</output>
		</layer>
		<layer id="363" name="Resize_471/StridedSlice_sizes_input_port_1/value463419604" type="Const" version="opset1">
			<data offset="11584564" size="8" shape="1" element_type="i64"/>
			<output>
				<port id="0" precision="I64">
					<dim>1</dim>
				</port>
			</output>
		</layer>
		<layer id="364" name="Resize_471/StridedSlice_sizes_input_port_2/value463619679" type="Const" version="opset1">
			<data offset="11585108" size="8" shape="1" element_type="i64"/>
			<output>
				<port id="0" precision="I64">
					<dim>1</dim>
				</port>
			</output>
		</layer>
		<layer id="365" name="Resize_471/StridedSlice_sizes_input_port_3/value463819703" type="Const" version="opset1">
			<data offset="11584572" size="8" shape="1" element_type="i64"/>
			<output>
				<port id="0" precision="I64">
					<dim>1</dim>
				</port>
			</output>
		</layer>
		<layer id="366" name="Resize_471/StridedSlice_sizes" type="StridedSlice" version="opset1">
			<data begin_mask="0" end_mask="0" new_axis_mask="0" shrink_axis_mask="0" ellipsis_mask="0"/>
			<input>
				<port id="0">
					<dim>4</dim>
				</port>
				<port id="1">
					<dim>1</dim>
				</port>
				<port id="2">
					<dim>1</dim>
				</port>
				<port id="3">
					<dim>1</dim>
				</port>
			</input>
			<output>
				<port id="4" precision="I64">
					<dim>2</dim>
				</port>
			</output>
		</layer>
		<layer id="367" name="Resize_471" type="Interpolate" version="opset4">
			<data mode="linear_onnx" nearest_mode="floor" cube_coeff="-0.75" coordinate_transformation_mode="align_corners" shape_calculation_mode="sizes" antialias="false" pads_begin="0,0,0,0" pads_end="0,0,0,0"/>
			<input>
				<port id="0">
					<dim>1</dim>
					<dim>256</dim>
					<dim>18</dim>
					<dim>30</dim>
				</port>
				<port id="1">
					<dim>2</dim>
				</port>
				<port id="2">
					<dim>2</dim>
				</port>
				<port id="3">
					<dim>2</dim>
				</port>
			</input>
			<output>
				<port id="4" precision="FP16" names="1045">
					<dim>1</dim>
					<dim>256</dim>
					<dim>72</dim>
					<dim>120</dim>
				</port>
			</output>
		</layer>
		<layer id="368" name="Concat_472" type="Concat" version="opset1">
			<data axis="1"/>
			<input>
				<port id="0">
					<dim>1</dim>
					<dim>256</dim>
					<dim>72</dim>
					<dim>120</dim>
				</port>
				<port id="1">
					<dim>1</dim>
					<dim>48</dim>
					<dim>72</dim>
					<dim>120</dim>
				</port>
			</input>
			<output>
				<port id="2" precision="FP16" names="1046">
					<dim>1</dim>
					<dim>304</dim>
					<dim>72</dim>
					<dim>120</dim>
				</port>
			</output>
		</layer>
		<layer id="369" name="Conv_473/WithoutBiases" type="Convolution" version="opset1">
			<data auto_pad="explicit" strides="1,1" dilations="1,1" pads_begin="1,1" pads_end="1,1"/>
			<input>
				<port id="0">
					<dim>1</dim>
					<dim>304</dim>
					<dim>72</dim>
					<dim>120</dim>
				</port>
				<port id="1">
					<dim>256</dim>
					<dim>304</dim>
					<dim>3</dim>
					<dim>3</dim>
				</port>
			</input>
			<output>
				<port id="2" precision="FP16">
					<dim>1</dim>
					<dim>256</dim>
					<dim>72</dim>
					<dim>120</dim>
				</port>
			</output>
		</layer>
		<layer id="370" name="Conv_473/Dims5718" type="Const" version="opset1">
			<data offset="11585628" size="512" shape="1,256,1,1" element_type="f16"/>
			<output>
				<port id="0" precision="FP16">
					<dim>1</dim>
					<dim>256</dim>
					<dim>1</dim>
					<dim>1</dim>
				</port>
			</output>
		</layer>
		<layer id="371" name="Conv_473" type="Add" version="opset1">
			<data auto_broadcast="numpy"/>
			<input>
				<port id="0">
					<dim>1</dim>
					<dim>256</dim>
					<dim>72</dim>
					<dim>120</dim>
				</port>
				<port id="1">
					<dim>1</dim>
					<dim>256</dim>
					<dim>1</dim>
					<dim>1</dim>
				</port>
			</input>
			<output>
				<port id="2" precision="FP16" names="1247">
					<dim>1</dim>
					<dim>256</dim>
					<dim>72</dim>
					<dim>120</dim>
				</port>
			</output>
		</layer>
		<layer id="372" name="Relu_474" type="ReLU" version="opset1">
			<input>
				<port id="0">
					<dim>1</dim>
					<dim>256</dim>
					<dim>72</dim>
					<dim>120</dim>
				</port>
			</input>
			<output>
				<port id="1" precision="FP16" names="1049">
					<dim>1</dim>
					<dim>256</dim>
					<dim>72</dim>
					<dim>120</dim>
				</port>
			</output>
		</layer>
		<layer id="373" name="Conv_475/WithoutBiases" type="Convolution" version="opset1">
			<data auto_pad="explicit" strides="1,1" dilations="1,1" pads_begin="1,1" pads_end="1,1"/>
			<input>
				<port id="0">
					<dim>1</dim>
					<dim>256</dim>
					<dim>72</dim>
					<dim>120</dim>
				</port>
				<port id="1">
					<dim>256</dim>
					<dim>256</dim>
					<dim>3</dim>
					<dim>3</dim>
				</port>
			</input>
			<output>
				<port id="2" precision="FP16">
					<dim>1</dim>
					<dim>256</dim>
					<dim>72</dim>
					<dim>120</dim>
				</port>
			</output>
		</layer>
		<layer id="374" name="Conv_475/Dims5808" type="Const" version="opset1">
			<data offset="11586140" size="512" shape="1,256,1,1" element_type="f16"/>
			<output>
				<port id="0" precision="FP16">
					<dim>1</dim>
					<dim>256</dim>
					<dim>1</dim>
					<dim>1</dim>
				</port>
			</output>
		</layer>
		<layer id="375" name="Conv_475" type="Add" version="opset1">
			<data auto_broadcast="numpy"/>
			<input>
				<port id="0">
					<dim>1</dim>
					<dim>256</dim>
					<dim>72</dim>
					<dim>120</dim>
				</port>
				<port id="1">
					<dim>1</dim>
					<dim>256</dim>
					<dim>1</dim>
					<dim>1</dim>
				</port>
			</input>
			<output>
				<port id="2" precision="FP16" names="1250">
					<dim>1</dim>
					<dim>256</dim>
					<dim>72</dim>
					<dim>120</dim>
				</port>
			</output>
		</layer>
		<layer id="376" name="Relu_476" type="ReLU" version="opset1">
			<input>
				<port id="0">
					<dim>1</dim>
					<dim>256</dim>
					<dim>72</dim>
					<dim>120</dim>
				</port>
			</input>
			<output>
				<port id="1" precision="FP16" names="1052">
					<dim>1</dim>
					<dim>256</dim>
					<dim>72</dim>
					<dim>120</dim>
				</port>
			</output>
		</layer>
		<layer id="377" name="Conv_477/WithoutBiases" type="Convolution" version="opset1">
			<data auto_pad="explicit" strides="1,1" dilations="1,1" pads_begin="0,0" pads_end="0,0"/>
			<input>
				<port id="0">
					<dim>1</dim>
					<dim>256</dim>
					<dim>72</dim>
					<dim>120</dim>
				</port>
				<port id="1">
					<dim>2</dim>
					<dim>256</dim>
					<dim>1</dim>
					<dim>1</dim>
				</port>
			</input>
			<output>
				<port id="2" precision="FP16">
					<dim>1</dim>
					<dim>2</dim>
					<dim>72</dim>
					<dim>120</dim>
				</port>
			</output>
		</layer>
		<layer id="378" name="Conv_477/Dims5946" type="Const" version="opset1">
			<data offset="11586652" size="4" shape="1,2,1,1" element_type="f16"/>
			<output>
				<port id="0" precision="FP16">
					<dim>1</dim>
					<dim>2</dim>
					<dim>1</dim>
					<dim>1</dim>
				</port>
			</output>
		</layer>
		<layer id="379" name="Conv_477" type="Add" version="opset1">
			<data auto_broadcast="numpy"/>
			<input>
				<port id="0">
					<dim>1</dim>
					<dim>2</dim>
					<dim>72</dim>
					<dim>120</dim>
				</port>
				<port id="1">
					<dim>1</dim>
					<dim>2</dim>
					<dim>1</dim>
					<dim>1</dim>
				</port>
			</input>
			<output>
				<port id="2" precision="FP16" names="1053">
					<dim>1</dim>
					<dim>2</dim>
					<dim>72</dim>
					<dim>120</dim>
				</port>
			</output>
		</layer>
		<layer id="380" name="Shape_487" type="ShapeOf" version="opset3">
			<data output_type="i64"/>
			<input>
				<port id="0">
					<dim>1</dim>
					<dim>2</dim>
					<dim>72</dim>
					<dim>120</dim>
				</port>
			</input>
			<output>
				<port id="1" precision="I64" names="1063">
					<dim>4</dim>
				</port>
			</output>
		</layer>
		<layer id="381" name="Slice_491/Concat634619586" type="Const" version="opset1">
			<data offset="11584580" size="8" shape="1" element_type="i64"/>
			<output>
				<port id="0" precision="I64">
					<dim>1</dim>
				</port>
			</output>
		</layer>
		<layer id="382" name="Slice_491/Concat6336634719364" type="Const" version="opset1">
			<data offset="11584564" size="8" shape="1" element_type="i64"/>
			<output>
				<port id="0" precision="I64">
					<dim>1</dim>
				</port>
			</output>
		</layer>
		<layer id="383" name="Slice_491/Strides634819532" type="Const" version="opset1">
			<data offset="11584572" size="8" shape="1" element_type="i64"/>
			<output>
				<port id="0" precision="I64">
					<dim>1</dim>
				</port>
			</output>
		</layer>
		<layer id="384" name="Slice_491" type="StridedSlice" version="opset1">
			<data begin_mask="0" end_mask="0" new_axis_mask="0" shrink_axis_mask="0" ellipsis_mask="0"/>
			<input>
				<port id="0">
					<dim>4</dim>
				</port>
				<port id="1">
					<dim>1</dim>
				</port>
				<port id="2">
					<dim>1</dim>
				</port>
				<port id="3">
					<dim>1</dim>
				</port>
			</input>
			<output>
				<port id="4" precision="I64" names="1067">
					<dim>2</dim>
				</port>
			</output>
		</layer>
		<layer id="385" name="Unsqueeze_484/Dims" type="Const" version="opset1">
			<data offset="11584580" size="8" shape="1" element_type="i64"/>
			<output>
				<port id="0" precision="I64">
					<dim>1</dim>
				</port>
			</output>
		</layer>
		<layer id="386" name="Shape_478" type="ShapeOf" version="opset3">
			<data output_type="i64"/>
			<input>
				<port id="0">
					<dim>1</dim>
					<dim>3</dim>
					<dim>288</dim>
					<dim>480</dim>
				</port>
			</input>
			<output>
				<port id="1" precision="I64" names="1054">
					<dim>4</dim>
				</port>
			</output>
		</layer>
		<layer id="387" name="Constant_479" type="Const" version="opset1">
			<data offset="11585100" size="4" shape="" element_type="i32"/>
			<output>
				<port id="0" precision="I32" names="1055"/>
			</output>
		</layer>
		<layer id="388" name="Gather_480/axis" type="Const" version="opset1">
			<data offset="11584580" size="8" shape="" element_type="i64"/>
			<output>
				<port id="0" precision="I64"/>
			</output>
		</layer>
		<layer id="389" name="Gather_480790" type="Gather" version="opset7">
			<data batch_dims="0"/>
			<input>
				<port id="0">
					<dim>4</dim>
				</port>
				<port id="1"/>
				<port id="2"/>
			</input>
			<output>
				<port id="3" precision="I64" names="1056"/>
			</output>
		</layer>
		<layer id="390" name="Unsqueeze_484/Unsqueeze" type="Unsqueeze" version="opset1">
			<input>
				<port id="0"/>
				<port id="1">
					<dim>1</dim>
				</port>
			</input>
			<output>
				<port id="2" precision="I64" names="1060">
					<dim>1</dim>
				</port>
			</output>
		</layer>
		<layer id="391" name="Unsqueeze_485/Dims" type="Const" version="opset1">
			<data offset="11584580" size="8" shape="1" element_type="i64"/>
			<output>
				<port id="0" precision="I64">
					<dim>1</dim>
				</port>
			</output>
		</layer>
		<layer id="392" name="Shape_481" type="ShapeOf" version="opset3">
			<data output_type="i64"/>
			<input>
				<port id="0">
					<dim>1</dim>
					<dim>3</dim>
					<dim>288</dim>
					<dim>480</dim>
				</port>
			</input>
			<output>
				<port id="1" precision="I64" names="1057">
					<dim>4</dim>
				</port>
			</output>
		</layer>
		<layer id="393" name="Constant_482" type="Const" version="opset1">
			<data offset="11585104" size="4" shape="" element_type="i32"/>
			<output>
				<port id="0" precision="I32" names="1058"/>
			</output>
		</layer>
		<layer id="394" name="Gather_483/axis" type="Const" version="opset1">
			<data offset="11584580" size="8" shape="" element_type="i64"/>
			<output>
				<port id="0" precision="I64"/>
			</output>
		</layer>
		<layer id="395" name="Gather_483786" type="Gather" version="opset7">
			<data batch_dims="0"/>
			<input>
				<port id="0">
					<dim>4</dim>
				</port>
				<port id="1"/>
				<port id="2"/>
			</input>
			<output>
				<port id="3" precision="I64" names="1059"/>
			</output>
		</layer>
		<layer id="396" name="Unsqueeze_485/Unsqueeze" type="Unsqueeze" version="opset1">
			<input>
				<port id="0"/>
				<port id="1">
					<dim>1</dim>
				</port>
			</input>
			<output>
				<port id="2" precision="I64" names="1061">
					<dim>1</dim>
				</port>
			</output>
		</layer>
		<layer id="397" name="Concat_486" type="Concat" version="opset1">
			<data axis="0"/>
			<input>
				<port id="0">
					<dim>1</dim>
				</port>
				<port id="1">
					<dim>1</dim>
				</port>
			</input>
			<output>
				<port id="2" precision="I64" names="1062,1068">
					<dim>2</dim>
				</port>
			</output>
		</layer>
		<layer id="398" name="Concat_493" type="Concat" version="opset1">
			<data axis="0"/>
			<input>
				<port id="0">
					<dim>2</dim>
				</port>
				<port id="1">
					<dim>2</dim>
				</port>
			</input>
			<output>
				<port id="2" precision="I64" names="1069">
					<dim>4</dim>
				</port>
			</output>
		</layer>
		<layer id="399" name="4686" type="Convert" version="opset1">
			<data destination_type="f32"/>
			<input>
				<port id="0">
					<dim>4</dim>
				</port>
			</input>
			<output>
				<port id="1" precision="FP32">
					<dim>4</dim>
				</port>
			</output>
		</layer>
		<layer id="400" name="Resize_496/ShapeOf" type="ShapeOf" version="opset3">
			<data output_type="i64"/>
			<input>
				<port id="0">
					<dim>1</dim>
					<dim>2</dim>
					<dim>72</dim>
					<dim>120</dim>
				</port>
			</input>
			<output>
				<port id="1" precision="I64">
					<dim>4</dim>
				</port>
			</output>
		</layer>
		<layer id="401" name="4685" type="Convert" version="opset1">
			<data destination_type="f32"/>
			<input>
				<port id="0">
					<dim>4</dim>
				</port>
			</input>
			<output>
				<port id="1" precision="FP32">
					<dim>4</dim>
				</port>
			</output>
		</layer>
		<layer id="402" name="Resize_496/Div" type="Divide" version="opset1">
			<data auto_broadcast="numpy"/>
			<input>
				<port id="0">
					<dim>4</dim>
				</port>
				<port id="1">
					<dim>4</dim>
				</port>
			</input>
			<output>
				<port id="2" precision="FP32">
					<dim>4</dim>
				</port>
			</output>
		</layer>
		<layer id="403" name="Resize_496/Add" type="Add" version="opset1">
			<data auto_broadcast="numpy"/>
			<input>
				<port id="0">
					<dim>4</dim>
				</port>
				<port id="1">
					<dim>1</dim>
				</port>
			</input>
			<output>
				<port id="2" precision="FP32">
					<dim>4</dim>
				</port>
			</output>
		</layer>
		<layer id="404" name="Resize_496/StridedSlice_scales_input_port_1/value467319412" type="Const" version="opset1">
			<data offset="11584564" size="8" shape="1" element_type="i64"/>
			<output>
				<port id="0" precision="I64">
					<dim>1</dim>
				</port>
			</output>
		</layer>
		<layer id="405" name="Resize_496/StridedSlice_scales_input_port_2/value467519541" type="Const" version="opset1">
			<data offset="11585108" size="8" shape="1" element_type="i64"/>
			<output>
				<port id="0" precision="I64">
					<dim>1</dim>
				</port>
			</output>
		</layer>
		<layer id="406" name="Resize_496/StridedSlice_scales_input_port_3/value467719307" type="Const" version="opset1">
			<data offset="11584572" size="8" shape="1" element_type="i64"/>
			<output>
				<port id="0" precision="I64">
					<dim>1</dim>
				</port>
			</output>
		</layer>
		<layer id="407" name="Resize_496/StridedSlice_scales" type="StridedSlice" version="opset1">
			<data begin_mask="0" end_mask="0" new_axis_mask="0" shrink_axis_mask="0" ellipsis_mask="0"/>
			<input>
				<port id="0">
					<dim>4</dim>
				</port>
				<port id="1">
					<dim>1</dim>
				</port>
				<port id="2">
					<dim>1</dim>
				</port>
				<port id="3">
					<dim>1</dim>
				</port>
			</input>
			<output>
				<port id="4" precision="FP32">
					<dim>2</dim>
				</port>
			</output>
		</layer>
		<layer id="408" name="Resize_496/StridedSlice_sizes_input_port_1/value466619706" type="Const" version="opset1">
			<data offset="11584564" size="8" shape="1" element_type="i64"/>
			<output>
				<port id="0" precision="I64">
					<dim>1</dim>
				</port>
			</output>
		</layer>
		<layer id="409" name="Resize_496/StridedSlice_sizes_input_port_2/value466819328" type="Const" version="opset1">
			<data offset="11585108" size="8" shape="1" element_type="i64"/>
			<output>
				<port id="0" precision="I64">
					<dim>1</dim>
				</port>
			</output>
		</layer>
		<layer id="410" name="Resize_496/StridedSlice_sizes_input_port_3/value467019619" type="Const" version="opset1">
			<data offset="11584572" size="8" shape="1" element_type="i64"/>
			<output>
				<port id="0" precision="I64">
					<dim>1</dim>
				</port>
			</output>
		</layer>
		<layer id="411" name="Resize_496/StridedSlice_sizes" type="StridedSlice" version="opset1">
			<data begin_mask="0" end_mask="0" new_axis_mask="0" shrink_axis_mask="0" ellipsis_mask="0"/>
			<input>
				<port id="0">
					<dim>4</dim>
				</port>
				<port id="1">
					<dim>1</dim>
				</port>
				<port id="2">
					<dim>1</dim>
				</port>
				<port id="3">
					<dim>1</dim>
				</port>
			</input>
			<output>
				<port id="4" precision="I64">
					<dim>2</dim>
				</port>
			</output>
		</layer>
		<layer id="412" name="Resize_496" type="Interpolate" version="opset4">
			<data mode="linear_onnx" nearest_mode="floor" cube_coeff="-0.75" coordinate_transformation_mode="align_corners" shape_calculation_mode="sizes" antialias="false" pads_begin="0,0,0,0" pads_end="0,0,0,0"/>
			<input>
				<port id="0">
					<dim>1</dim>
					<dim>2</dim>
					<dim>72</dim>
					<dim>120</dim>
				</port>
				<port id="1">
					<dim>2</dim>
				</port>
				<port id="2">
					<dim>2</dim>
				</port>
				<port id="3">
					<dim>2</dim>
				</port>
			</input>
			<output>
				<port id="4" precision="FP16" names="1072,Resize_496_output_cast_0">
					<dim>1</dim>
					<dim>2</dim>
					<dim>288</dim>
					<dim>480</dim>
				</port>
			</output>
		</layer>
		<layer id="413" name="1072" type="Result" version="opset1">
			<input>
				<port id="0">
					<dim>1</dim>
					<dim>2</dim>
					<dim>288</dim>
					<dim>480</dim>
				</port>
			</input>
		</layer>
	</layers>
	<edges>
		<edge from-layer="11" from-port="0" to-layer="13" to-port="0"/>
		<edge from-layer="12" from-port="0" to-layer="13" to-port="1"/>
		<edge from-layer="13" from-port="2" to-layer="15" to-port="0"/>
		<edge from-layer="14" from-port="0" to-layer="15" to-port="1"/>
		<edge from-layer="15" from-port="2" to-layer="16" to-port="0"/>
		<edge from-layer="16" from-port="1" to-layer="18" to-port="0"/>
		<edge from-layer="17" from-port="0" to-layer="18" to-port="1"/>
		<edge from-layer="18" from-port="2" to-layer="20" to-port="0"/>
		<edge from-layer="19" from-port="0" to-layer="20" to-port="1"/>
		<edge from-layer="20" from-port="2" to-layer="21" to-port="0"/>
		<edge from-layer="21" from-port="1" to-layer="22" to-port="0"/>
		<edge from-layer="10" from-port="0" to-layer="22" to-port="1"/>
		<edge from-layer="22" from-port="2" to-layer="24" to-port="0"/>
		<edge from-layer="23" from-port="0" to-layer="24" to-port="1"/>
		<edge from-layer="24" from-port="2" to-layer="25" to-port="0"/>
		<edge from-layer="9" from-port="0" to-layer="25" to-port="1"/>
		<edge from-layer="25" from-port="2" to-layer="27" to-port="0"/>
		<edge from-layer="26" from-port="0" to-layer="27" to-port="1"/>
		<edge from-layer="27" from-port="2" to-layer="28" to-port="0"/>
		<edge from-layer="28" from-port="1" to-layer="30" to-port="0"/>
		<edge from-layer="29" from-port="0" to-layer="30" to-port="1"/>
		<edge from-layer="30" from-port="2" to-layer="32" to-port="0"/>
		<edge from-layer="31" from-port="0" to-layer="32" to-port="1"/>
		<edge from-layer="32" from-port="2" to-layer="33" to-port="0"/>
		<edge from-layer="33" from-port="1" to-layer="34" to-port="0"/>
		<edge from-layer="8" from-port="0" to-layer="34" to-port="1"/>
		<edge from-layer="34" from-port="2" to-layer="36" to-port="0"/>
		<edge from-layer="35" from-port="0" to-layer="36" to-port="1"/>
		<edge from-layer="36" from-port="2" to-layer="37" to-port="0"/>
		<edge from-layer="7" from-port="0" to-layer="37" to-port="1"/>
		<edge from-layer="37" from-port="2" to-layer="39" to-port="0"/>
		<edge from-layer="38" from-port="0" to-layer="39" to-port="1"/>
		<edge from-layer="39" from-port="2" to-layer="40" to-port="0"/>
		<edge from-layer="40" from-port="1" to-layer="42" to-port="0"/>
		<edge from-layer="41" from-port="0" to-layer="42" to-port="1"/>
		<edge from-layer="42" from-port="2" to-layer="44" to-port="0"/>
		<edge from-layer="43" from-port="0" to-layer="44" to-port="1"/>
		<edge from-layer="44" from-port="2" to-layer="45" to-port="0"/>
		<edge from-layer="45" from-port="1" to-layer="46" to-port="0"/>
		<edge from-layer="6" from-port="0" to-layer="46" to-port="1"/>
		<edge from-layer="46" from-port="2" to-layer="48" to-port="0"/>
		<edge from-layer="47" from-port="0" to-layer="48" to-port="1"/>
		<edge from-layer="36" from-port="2" to-layer="49" to-port="0"/>
		<edge from-layer="48" from-port="2" to-layer="49" to-port="1"/>
		<edge from-layer="49" from-port="2" to-layer="50" to-port="0"/>
		<edge from-layer="5" from-port="0" to-layer="50" to-port="1"/>
		<edge from-layer="50" from-port="2" to-layer="52" to-port="0"/>
		<edge from-layer="51" from-port="0" to-layer="52" to-port="1"/>
		<edge from-layer="52" from-port="2" to-layer="53" to-port="0"/>
		<edge from-layer="49" from-port="2" to-layer="72" to-port="0"/>
		<edge from-layer="71" from-port="0" to-layer="72" to-port="1"/>
		<edge from-layer="72" from-port="2" to-layer="74" to-port="0"/>
		<edge from-layer="73" from-port="0" to-layer="74" to-port="1"/>
		<edge from-layer="74" from-port="2" to-layer="75" to-port="0"/>
		<edge from-layer="75" from-port="1" to-layer="77" to-port="0"/>
		<edge from-layer="76" from-port="0" to-layer="77" to-port="1"/>
		<edge from-layer="77" from-port="2" to-layer="79" to-port="0"/>
		<edge from-layer="78" from-port="0" to-layer="79" to-port="1"/>
		<edge from-layer="79" from-port="2" to-layer="80" to-port="0"/>
		<edge from-layer="80" from-port="1" to-layer="81" to-port="0"/>
		<edge from-layer="70" from-port="0" to-layer="81" to-port="1"/>
		<edge from-layer="81" from-port="2" to-layer="83" to-port="0"/>
		<edge from-layer="82" from-port="0" to-layer="83" to-port="1"/>
		<edge from-layer="83" from-port="2" to-layer="86" to-port="0"/>
		<edge from-layer="85" from-port="0" to-layer="86" to-port="1"/>
		<edge from-layer="86" from-port="2" to-layer="88" to-port="0"/>
		<edge from-layer="87" from-port="0" to-layer="88" to-port="1"/>
		<edge from-layer="88" from-port="2" to-layer="89" to-port="0"/>
		<edge from-layer="89" from-port="1" to-layer="91" to-port="0"/>
		<edge from-layer="90" from-port="0" to-layer="91" to-port="1"/>
		<edge from-layer="91" from-port="2" to-layer="93" to-port="0"/>
		<edge from-layer="92" from-port="0" to-layer="93" to-port="1"/>
		<edge from-layer="93" from-port="2" to-layer="94" to-port="0"/>
		<edge from-layer="94" from-port="1" to-layer="95" to-port="0"/>
		<edge from-layer="84" from-port="0" to-layer="95" to-port="1"/>
		<edge from-layer="95" from-port="2" to-layer="97" to-port="0"/>
		<edge from-layer="96" from-port="0" to-layer="97" to-port="1"/>
		<edge from-layer="83" from-port="2" to-layer="98" to-port="0"/>
		<edge from-layer="97" from-port="2" to-layer="98" to-port="1"/>
		<edge from-layer="98" from-port="2" to-layer="101" to-port="0"/>
		<edge from-layer="100" from-port="0" to-layer="101" to-port="1"/>
		<edge from-layer="101" from-port="2" to-layer="103" to-port="0"/>
		<edge from-layer="102" from-port="0" to-layer="103" to-port="1"/>
		<edge from-layer="103" from-port="2" to-layer="104" to-port="0"/>
		<edge from-layer="104" from-port="1" to-layer="106" to-port="0"/>
		<edge from-layer="105" from-port="0" to-layer="106" to-port="1"/>
		<edge from-layer="106" from-port="2" to-layer="108" to-port="0"/>
		<edge from-layer="107" from-port="0" to-layer="108" to-port="1"/>
		<edge from-layer="108" from-port="2" to-layer="109" to-port="0"/>
		<edge from-layer="109" from-port="1" to-layer="110" to-port="0"/>
		<edge from-layer="99" from-port="0" to-layer="110" to-port="1"/>
		<edge from-layer="110" from-port="2" to-layer="112" to-port="0"/>
		<edge from-layer="111" from-port="0" to-layer="112" to-port="1"/>
		<edge from-layer="98" from-port="2" to-layer="113" to-port="0"/>
		<edge from-layer="112" from-port="2" to-layer="113" to-port="1"/>
		<edge from-layer="113" from-port="2" to-layer="114" to-port="0"/>
		<edge from-layer="69" from-port="0" to-layer="114" to-port="1"/>
		<edge from-layer="114" from-port="2" to-layer="116" to-port="0"/>
		<edge from-layer="115" from-port="0" to-layer="116" to-port="1"/>
		<edge from-layer="116" from-port="2" to-layer="117" to-port="0"/>
		<edge from-layer="117" from-port="1" to-layer="119" to-port="0"/>
		<edge from-layer="118" from-port="0" to-layer="119" to-port="1"/>
		<edge from-layer="119" from-port="2" to-layer="121" to-port="0"/>
		<edge from-layer="120" from-port="0" to-layer="121" to-port="1"/>
		<edge from-layer="121" from-port="2" to-layer="122" to-port="0"/>
		<edge from-layer="122" from-port="1" to-layer="123" to-port="0"/>
		<edge from-layer="68" from-port="0" to-layer="123" to-port="1"/>
		<edge from-layer="123" from-port="2" to-layer="125" to-port="0"/>
		<edge from-layer="124" from-port="0" to-layer="125" to-port="1"/>
		<edge from-layer="125" from-port="2" to-layer="126" to-port="0"/>
		<edge from-layer="67" from-port="0" to-layer="126" to-port="1"/>
		<edge from-layer="126" from-port="2" to-layer="128" to-port="0"/>
		<edge from-layer="127" from-port="0" to-layer="128" to-port="1"/>
		<edge from-layer="128" from-port="2" to-layer="129" to-port="0"/>
		<edge from-layer="129" from-port="1" to-layer="131" to-port="0"/>
		<edge from-layer="130" from-port="0" to-layer="131" to-port="1"/>
		<edge from-layer="131" from-port="2" to-layer="133" to-port="0"/>
		<edge from-layer="132" from-port="0" to-layer="133" to-port="1"/>
		<edge from-layer="133" from-port="2" to-layer="134" to-port="0"/>
		<edge from-layer="134" from-port="1" to-layer="135" to-port="0"/>
		<edge from-layer="66" from-port="0" to-layer="135" to-port="1"/>
		<edge from-layer="135" from-port="2" to-layer="137" to-port="0"/>
		<edge from-layer="136" from-port="0" to-layer="137" to-port="1"/>
		<edge from-layer="125" from-port="2" to-layer="138" to-port="0"/>
		<edge from-layer="137" from-port="2" to-layer="138" to-port="1"/>
		<edge from-layer="138" from-port="2" to-layer="141" to-port="0"/>
		<edge from-layer="140" from-port="0" to-layer="141" to-port="1"/>
		<edge from-layer="141" from-port="2" to-layer="143" to-port="0"/>
		<edge from-layer="142" from-port="0" to-layer="143" to-port="1"/>
		<edge from-layer="143" from-port="2" to-layer="144" to-port="0"/>
		<edge from-layer="144" from-port="1" to-layer="146" to-port="0"/>
		<edge from-layer="145" from-port="0" to-layer="146" to-port="1"/>
		<edge from-layer="146" from-port="2" to-layer="148" to-port="0"/>
		<edge from-layer="147" from-port="0" to-layer="148" to-port="1"/>
		<edge from-layer="148" from-port="2" to-layer="149" to-port="0"/>
		<edge from-layer="149" from-port="1" to-layer="150" to-port="0"/>
		<edge from-layer="139" from-port="0" to-layer="150" to-port="1"/>
		<edge from-layer="150" from-port="2" to-layer="152" to-port="0"/>
		<edge from-layer="151" from-port="0" to-layer="152" to-port="1"/>
		<edge from-layer="138" from-port="2" to-layer="153" to-port="0"/>
		<edge from-layer="152" from-port="2" to-layer="153" to-port="1"/>
		<edge from-layer="153" from-port="2" to-layer="156" to-port="0"/>
		<edge from-layer="155" from-port="0" to-layer="156" to-port="1"/>
		<edge from-layer="156" from-port="2" to-layer="158" to-port="0"/>
		<edge from-layer="157" from-port="0" to-layer="158" to-port="1"/>
		<edge from-layer="158" from-port="2" to-layer="159" to-port="0"/>
		<edge from-layer="159" from-port="1" to-layer="161" to-port="0"/>
		<edge from-layer="160" from-port="0" to-layer="161" to-port="1"/>
		<edge from-layer="161" from-port="2" to-layer="163" to-port="0"/>
		<edge from-layer="162" from-port="0" to-layer="163" to-port="1"/>
		<edge from-layer="163" from-port="2" to-layer="164" to-port="0"/>
		<edge from-layer="164" from-port="1" to-layer="165" to-port="0"/>
		<edge from-layer="154" from-port="0" to-layer="165" to-port="1"/>
		<edge from-layer="165" from-port="2" to-layer="167" to-port="0"/>
		<edge from-layer="166" from-port="0" to-layer="167" to-port="1"/>
		<edge from-layer="153" from-port="2" to-layer="168" to-port="0"/>
		<edge from-layer="167" from-port="2" to-layer="168" to-port="1"/>
		<edge from-layer="168" from-port="2" to-layer="169" to-port="0"/>
		<edge from-layer="65" from-port="0" to-layer="169" to-port="1"/>
		<edge from-layer="169" from-port="2" to-layer="171" to-port="0"/>
		<edge from-layer="170" from-port="0" to-layer="171" to-port="1"/>
		<edge from-layer="171" from-port="2" to-layer="172" to-port="0"/>
		<edge from-layer="172" from-port="1" to-layer="174" to-port="0"/>
		<edge from-layer="173" from-port="0" to-layer="174" to-port="1"/>
		<edge from-layer="174" from-port="2" to-layer="176" to-port="0"/>
		<edge from-layer="175" from-port="0" to-layer="176" to-port="1"/>
		<edge from-layer="176" from-port="2" to-layer="177" to-port="0"/>
		<edge from-layer="177" from-port="1" to-layer="178" to-port="0"/>
		<edge from-layer="64" from-port="0" to-layer="178" to-port="1"/>
		<edge from-layer="178" from-port="2" to-layer="180" to-port="0"/>
		<edge from-layer="179" from-port="0" to-layer="180" to-port="1"/>
		<edge from-layer="180" from-port="2" to-layer="183" to-port="0"/>
		<edge from-layer="182" from-port="0" to-layer="183" to-port="1"/>
		<edge from-layer="183" from-port="2" to-layer="185" to-port="0"/>
		<edge from-layer="184" from-port="0" to-layer="185" to-port="1"/>
		<edge from-layer="185" from-port="2" to-layer="186" to-port="0"/>
		<edge from-layer="186" from-port="1" to-layer="188" to-port="0"/>
		<edge from-layer="187" from-port="0" to-layer="188" to-port="1"/>
		<edge from-layer="188" from-port="2" to-layer="190" to-port="0"/>
		<edge from-layer="189" from-port="0" to-layer="190" to-port="1"/>
		<edge from-layer="190" from-port="2" to-layer="191" to-port="0"/>
		<edge from-layer="191" from-port="1" to-layer="192" to-port="0"/>
		<edge from-layer="181" from-port="0" to-layer="192" to-port="1"/>
		<edge from-layer="192" from-port="2" to-layer="194" to-port="0"/>
		<edge from-layer="193" from-port="0" to-layer="194" to-port="1"/>
		<edge from-layer="180" from-port="2" to-layer="195" to-port="0"/>
		<edge from-layer="194" from-port="2" to-layer="195" to-port="1"/>
		<edge from-layer="195" from-port="2" to-layer="198" to-port="0"/>
		<edge from-layer="197" from-port="0" to-layer="198" to-port="1"/>
		<edge from-layer="198" from-port="2" to-layer="200" to-port="0"/>
		<edge from-layer="199" from-port="0" to-layer="200" to-port="1"/>
		<edge from-layer="200" from-port="2" to-layer="201" to-port="0"/>
		<edge from-layer="201" from-port="1" to-layer="203" to-port="0"/>
		<edge from-layer="202" from-port="0" to-layer="203" to-port="1"/>
		<edge from-layer="203" from-port="2" to-layer="205" to-port="0"/>
		<edge from-layer="204" from-port="0" to-layer="205" to-port="1"/>
		<edge from-layer="205" from-port="2" to-layer="206" to-port="0"/>
		<edge from-layer="206" from-port="1" to-layer="207" to-port="0"/>
		<edge from-layer="196" from-port="0" to-layer="207" to-port="1"/>
		<edge from-layer="207" from-port="2" to-layer="209" to-port="0"/>
		<edge from-layer="208" from-port="0" to-layer="209" to-port="1"/>
		<edge from-layer="195" from-port="2" to-layer="210" to-port="0"/>
		<edge from-layer="209" from-port="2" to-layer="210" to-port="1"/>
		<edge from-layer="210" from-port="2" to-layer="211" to-port="0"/>
		<edge from-layer="63" from-port="0" to-layer="211" to-port="1"/>
		<edge from-layer="211" from-port="2" to-layer="213" to-port="0"/>
		<edge from-layer="212" from-port="0" to-layer="213" to-port="1"/>
		<edge from-layer="213" from-port="2" to-layer="214" to-port="0"/>
		<edge from-layer="214" from-port="1" to-layer="216" to-port="0"/>
		<edge from-layer="215" from-port="0" to-layer="216" to-port="1"/>
		<edge from-layer="216" from-port="2" to-layer="218" to-port="0"/>
		<edge from-layer="217" from-port="0" to-layer="218" to-port="1"/>
		<edge from-layer="218" from-port="2" to-layer="219" to-port="0"/>
		<edge from-layer="219" from-port="1" to-layer="220" to-port="0"/>
		<edge from-layer="62" from-port="0" to-layer="220" to-port="1"/>
		<edge from-layer="220" from-port="2" to-layer="222" to-port="0"/>
		<edge from-layer="221" from-port="0" to-layer="222" to-port="1"/>
		<edge from-layer="222" from-port="2" to-layer="223" to-port="0"/>
		<edge from-layer="61" from-port="0" to-layer="223" to-port="1"/>
		<edge from-layer="223" from-port="2" to-layer="225" to-port="0"/>
		<edge from-layer="224" from-port="0" to-layer="225" to-port="1"/>
		<edge from-layer="225" from-port="2" to-layer="226" to-port="0"/>
		<edge from-layer="226" from-port="1" to-layer="228" to-port="0"/>
		<edge from-layer="227" from-port="0" to-layer="228" to-port="1"/>
		<edge from-layer="228" from-port="2" to-layer="230" to-port="0"/>
		<edge from-layer="229" from-port="0" to-layer="230" to-port="1"/>
		<edge from-layer="230" from-port="2" to-layer="231" to-port="0"/>
		<edge from-layer="231" from-port="1" to-layer="232" to-port="0"/>
		<edge from-layer="60" from-port="0" to-layer="232" to-port="1"/>
		<edge from-layer="232" from-port="2" to-layer="234" to-port="0"/>
		<edge from-layer="233" from-port="0" to-layer="234" to-port="1"/>
		<edge from-layer="222" from-port="2" to-layer="235" to-port="0"/>
		<edge from-layer="234" from-port="2" to-layer="235" to-port="1"/>
		<edge from-layer="235" from-port="2" to-layer="238" to-port="0"/>
		<edge from-layer="237" from-port="0" to-layer="238" to-port="1"/>
		<edge from-layer="238" from-port="2" to-layer="240" to-port="0"/>
		<edge from-layer="239" from-port="0" to-layer="240" to-port="1"/>
		<edge from-layer="240" from-port="2" to-layer="241" to-port="0"/>
		<edge from-layer="241" from-port="1" to-layer="243" to-port="0"/>
		<edge from-layer="242" from-port="0" to-layer="243" to-port="1"/>
		<edge from-layer="243" from-port="2" to-layer="245" to-port="0"/>
		<edge from-layer="244" from-port="0" to-layer="245" to-port="1"/>
		<edge from-layer="245" from-port="2" to-layer="246" to-port="0"/>
		<edge from-layer="246" from-port="1" to-layer="247" to-port="0"/>
		<edge from-layer="236" from-port="0" to-layer="247" to-port="1"/>
		<edge from-layer="247" from-port="2" to-layer="249" to-port="0"/>
		<edge from-layer="248" from-port="0" to-layer="249" to-port="1"/>
		<edge from-layer="235" from-port="2" to-layer="250" to-port="0"/>
		<edge from-layer="249" from-port="2" to-layer="250" to-port="1"/>
		<edge from-layer="250" from-port="2" to-layer="251" to-port="0"/>
		<edge from-layer="59" from-port="0" to-layer="251" to-port="1"/>
		<edge from-layer="251" from-port="2" to-layer="253" to-port="0"/>
		<edge from-layer="252" from-port="0" to-layer="253" to-port="1"/>
		<edge from-layer="253" from-port="2" to-layer="254" to-port="0"/>
		<edge from-layer="254" from-port="1" to-layer="256" to-port="0"/>
		<edge from-layer="255" from-port="0" to-layer="256" to-port="1"/>
		<edge from-layer="256" from-port="2" to-layer="258" to-port="0"/>
		<edge from-layer="257" from-port="0" to-layer="258" to-port="1"/>
		<edge from-layer="258" from-port="2" to-layer="259" to-port="0"/>
		<edge from-layer="259" from-port="1" to-layer="260" to-port="0"/>
		<edge from-layer="58" from-port="0" to-layer="260" to-port="1"/>
		<edge from-layer="260" from-port="2" to-layer="262" to-port="0"/>
		<edge from-layer="261" from-port="0" to-layer="262" to-port="1"/>
		<edge from-layer="262" from-port="2" to-layer="263" to-port="0"/>
		<edge from-layer="57" from-port="0" to-layer="263" to-port="1"/>
		<edge from-layer="263" from-port="2" to-layer="265" to-port="0"/>
		<edge from-layer="264" from-port="0" to-layer="265" to-port="1"/>
		<edge from-layer="265" from-port="2" to-layer="266" to-port="0"/>
		<edge from-layer="262" from-port="2" to-layer="268" to-port="0"/>
		<edge from-layer="267" from-port="0" to-layer="268" to-port="1"/>
		<edge from-layer="268" from-port="2" to-layer="270" to-port="0"/>
		<edge from-layer="269" from-port="0" to-layer="270" to-port="1"/>
		<edge from-layer="270" from-port="2" to-layer="271" to-port="0"/>
		<edge from-layer="262" from-port="2" to-layer="273" to-port="0"/>
		<edge from-layer="272" from-port="0" to-layer="273" to-port="1"/>
		<edge from-layer="273" from-port="2" to-layer="275" to-port="0"/>
		<edge from-layer="274" from-port="0" to-layer="275" to-port="1"/>
		<edge from-layer="275" from-port="2" to-layer="276" to-port="0"/>
		<edge from-layer="262" from-port="2" to-layer="278" to-port="0"/>
		<edge from-layer="277" from-port="0" to-layer="278" to-port="1"/>
		<edge from-layer="278" from-port="2" to-layer="280" to-port="0"/>
		<edge from-layer="279" from-port="0" to-layer="280" to-port="1"/>
		<edge from-layer="280" from-port="2" to-layer="281" to-port="0"/>
		<edge from-layer="262" from-port="2" to-layer="287" to-port="0"/>
		<edge from-layer="287" from-port="1" to-layer="288" to-port="0"/>
		<edge from-layer="288" from-port="1" to-layer="290" to-port="0"/>
		<edge from-layer="289" from-port="0" to-layer="290" to-port="1"/>
		<edge from-layer="285" from-port="0" to-layer="291" to-port="0"/>
		<edge from-layer="290" from-port="2" to-layer="291" to-port="1"/>
		<edge from-layer="286" from-port="0" to-layer="291" to-port="2"/>
		<edge from-layer="262" from-port="2" to-layer="292" to-port="0"/>
		<edge from-layer="291" from-port="3" to-layer="292" to-port="1"/>
		<edge from-layer="292" from-port="2" to-layer="293" to-port="0"/>
		<edge from-layer="284" from-port="0" to-layer="293" to-port="1"/>
		<edge from-layer="293" from-port="2" to-layer="295" to-port="0"/>
		<edge from-layer="294" from-port="0" to-layer="295" to-port="1"/>
		<edge from-layer="295" from-port="2" to-layer="296" to-port="0"/>
		<edge from-layer="296" from-port="1" to-layer="297" to-port="0"/>
		<edge from-layer="297" from-port="1" to-layer="301" to-port="0"/>
		<edge from-layer="298" from-port="0" to-layer="301" to-port="1"/>
		<edge from-layer="299" from-port="0" to-layer="301" to-port="2"/>
		<edge from-layer="300" from-port="0" to-layer="301" to-port="3"/>
		<edge from-layer="266" from-port="1" to-layer="303" to-port="0"/>
		<edge from-layer="303" from-port="1" to-layer="306" to-port="0"/>
		<edge from-layer="304" from-port="0" to-layer="306" to-port="1"/>
		<edge from-layer="305" from-port="0" to-layer="306" to-port="2"/>
		<edge from-layer="306" from-port="3" to-layer="307" to-port="0"/>
		<edge from-layer="302" from-port="0" to-layer="307" to-port="1"/>
		<edge from-layer="266" from-port="1" to-layer="309" to-port="0"/>
		<edge from-layer="309" from-port="1" to-layer="312" to-port="0"/>
		<edge from-layer="310" from-port="0" to-layer="312" to-port="1"/>
		<edge from-layer="311" from-port="0" to-layer="312" to-port="2"/>
		<edge from-layer="312" from-port="3" to-layer="313" to-port="0"/>
		<edge from-layer="308" from-port="0" to-layer="313" to-port="1"/>
		<edge from-layer="307" from-port="2" to-layer="314" to-port="0"/>
		<edge from-layer="313" from-port="2" to-layer="314" to-port="1"/>
		<edge from-layer="301" from-port="4" to-layer="315" to-port="0"/>
		<edge from-layer="314" from-port="2" to-layer="315" to-port="1"/>
		<edge from-layer="315" from-port="2" to-layer="316" to-port="0"/>
		<edge from-layer="296" from-port="1" to-layer="317" to-port="0"/>
		<edge from-layer="317" from-port="1" to-layer="318" to-port="0"/>
		<edge from-layer="316" from-port="1" to-layer="319" to-port="0"/>
		<edge from-layer="318" from-port="1" to-layer="319" to-port="1"/>
		<edge from-layer="319" from-port="2" to-layer="320" to-port="0"/>
		<edge from-layer="283" from-port="0" to-layer="320" to-port="1"/>
		<edge from-layer="320" from-port="2" to-layer="324" to-port="0"/>
		<edge from-layer="321" from-port="0" to-layer="324" to-port="1"/>
		<edge from-layer="322" from-port="0" to-layer="324" to-port="2"/>
		<edge from-layer="323" from-port="0" to-layer="324" to-port="3"/>
		<edge from-layer="315" from-port="2" to-layer="328" to-port="0"/>
		<edge from-layer="325" from-port="0" to-layer="328" to-port="1"/>
		<edge from-layer="326" from-port="0" to-layer="328" to-port="2"/>
		<edge from-layer="327" from-port="0" to-layer="328" to-port="3"/>
		<edge from-layer="296" from-port="1" to-layer="329" to-port="0"/>
		<edge from-layer="328" from-port="4" to-layer="329" to-port="1"/>
		<edge from-layer="324" from-port="4" to-layer="329" to-port="2"/>
		<edge from-layer="282" from-port="0" to-layer="329" to-port="3"/>
		<edge from-layer="266" from-port="1" to-layer="330" to-port="0"/>
		<edge from-layer="271" from-port="1" to-layer="330" to-port="1"/>
		<edge from-layer="276" from-port="1" to-layer="330" to-port="2"/>
		<edge from-layer="281" from-port="1" to-layer="330" to-port="3"/>
		<edge from-layer="329" from-port="4" to-layer="330" to-port="4"/>
		<edge from-layer="330" from-port="5" to-layer="331" to-port="0"/>
		<edge from-layer="56" from-port="0" to-layer="331" to-port="1"/>
		<edge from-layer="331" from-port="2" to-layer="333" to-port="0"/>
		<edge from-layer="332" from-port="0" to-layer="333" to-port="1"/>
		<edge from-layer="333" from-port="2" to-layer="334" to-port="0"/>
		<edge from-layer="334" from-port="1" to-layer="335" to-port="0"/>
		<edge from-layer="335" from-port="1" to-layer="339" to-port="0"/>
		<edge from-layer="336" from-port="0" to-layer="339" to-port="1"/>
		<edge from-layer="337" from-port="0" to-layer="339" to-port="2"/>
		<edge from-layer="338" from-port="0" to-layer="339" to-port="3"/>
		<edge from-layer="53" from-port="1" to-layer="341" to-port="0"/>
		<edge from-layer="341" from-port="1" to-layer="344" to-port="0"/>
		<edge from-layer="342" from-port="0" to-layer="344" to-port="1"/>
		<edge from-layer="343" from-port="0" to-layer="344" to-port="2"/>
		<edge from-layer="344" from-port="3" to-layer="345" to-port="0"/>
		<edge from-layer="340" from-port="0" to-layer="345" to-port="1"/>
		<edge from-layer="53" from-port="1" to-layer="347" to-port="0"/>
		<edge from-layer="347" from-port="1" to-layer="350" to-port="0"/>
		<edge from-layer="348" from-port="0" to-layer="350" to-port="1"/>
		<edge from-layer="349" from-port="0" to-layer="350" to-port="2"/>
		<edge from-layer="350" from-port="3" to-layer="351" to-port="0"/>
		<edge from-layer="346" from-port="0" to-layer="351" to-port="1"/>
		<edge from-layer="345" from-port="2" to-layer="352" to-port="0"/>
		<edge from-layer="351" from-port="2" to-layer="352" to-port="1"/>
		<edge from-layer="339" from-port="4" to-layer="353" to-port="0"/>
		<edge from-layer="352" from-port="2" to-layer="353" to-port="1"/>
		<edge from-layer="353" from-port="2" to-layer="354" to-port="0"/>
		<edge from-layer="334" from-port="1" to-layer="355" to-port="0"/>
		<edge from-layer="355" from-port="1" to-layer="356" to-port="0"/>
		<edge from-layer="354" from-port="1" to-layer="357" to-port="0"/>
		<edge from-layer="356" from-port="1" to-layer="357" to-port="1"/>
		<edge from-layer="357" from-port="2" to-layer="358" to-port="0"/>
		<edge from-layer="55" from-port="0" to-layer="358" to-port="1"/>
		<edge from-layer="358" from-port="2" to-layer="362" to-port="0"/>
		<edge from-layer="359" from-port="0" to-layer="362" to-port="1"/>
		<edge from-layer="360" from-port="0" to-layer="362" to-port="2"/>
		<edge from-layer="361" from-port="0" to-layer="362" to-port="3"/>
		<edge from-layer="353" from-port="2" to-layer="366" to-port="0"/>
		<edge from-layer="363" from-port="0" to-layer="366" to-port="1"/>
		<edge from-layer="364" from-port="0" to-layer="366" to-port="2"/>
		<edge from-layer="365" from-port="0" to-layer="366" to-port="3"/>
		<edge from-layer="334" from-port="1" to-layer="367" to-port="0"/>
		<edge from-layer="366" from-port="4" to-layer="367" to-port="1"/>
		<edge from-layer="362" from-port="4" to-layer="367" to-port="2"/>
		<edge from-layer="54" from-port="0" to-layer="367" to-port="3"/>
		<edge from-layer="367" from-port="4" to-layer="368" to-port="0"/>
		<edge from-layer="53" from-port="1" to-layer="368" to-port="1"/>
		<edge from-layer="368" from-port="2" to-layer="369" to-port="0"/>
		<edge from-layer="4" from-port="0" to-layer="369" to-port="1"/>
		<edge from-layer="369" from-port="2" to-layer="371" to-port="0"/>
		<edge from-layer="370" from-port="0" to-layer="371" to-port="1"/>
		<edge from-layer="371" from-port="2" to-layer="372" to-port="0"/>
		<edge from-layer="372" from-port="1" to-layer="373" to-port="0"/>
		<edge from-layer="3" from-port="0" to-layer="373" to-port="1"/>
		<edge from-layer="373" from-port="2" to-layer="375" to-port="0"/>
		<edge from-layer="374" from-port="0" to-layer="375" to-port="1"/>
		<edge from-layer="375" from-port="2" to-layer="376" to-port="0"/>
		<edge from-layer="376" from-port="1" to-layer="377" to-port="0"/>
		<edge from-layer="2" from-port="0" to-layer="377" to-port="1"/>
		<edge from-layer="377" from-port="2" to-layer="379" to-port="0"/>
		<edge from-layer="378" from-port="0" to-layer="379" to-port="1"/>
		<edge from-layer="379" from-port="2" to-layer="380" to-port="0"/>
		<edge from-layer="380" from-port="1" to-layer="384" to-port="0"/>
		<edge from-layer="381" from-port="0" to-layer="384" to-port="1"/>
		<edge from-layer="382" from-port="0" to-layer="384" to-port="2"/>
		<edge from-layer="383" from-port="0" to-layer="384" to-port="3"/>
		<edge from-layer="11" from-port="0" to-layer="386" to-port="0"/>
		<edge from-layer="386" from-port="1" to-layer="389" to-port="0"/>
		<edge from-layer="387" from-port="0" to-layer="389" to-port="1"/>
		<edge from-layer="388" from-port="0" to-layer="389" to-port="2"/>
		<edge from-layer="389" from-port="3" to-layer="390" to-port="0"/>
		<edge from-layer="385" from-port="0" to-layer="390" to-port="1"/>
		<edge from-layer="11" from-port="0" to-layer="392" to-port="0"/>
		<edge from-layer="392" from-port="1" to-layer="395" to-port="0"/>
		<edge from-layer="393" from-port="0" to-layer="395" to-port="1"/>
		<edge from-layer="394" from-port="0" to-layer="395" to-port="2"/>
		<edge from-layer="395" from-port="3" to-layer="396" to-port="0"/>
		<edge from-layer="391" from-port="0" to-layer="396" to-port="1"/>
		<edge from-layer="390" from-port="2" to-layer="397" to-port="0"/>
		<edge from-layer="396" from-port="2" to-layer="397" to-port="1"/>
		<edge from-layer="384" from-port="4" to-layer="398" to-port="0"/>
		<edge from-layer="397" from-port="2" to-layer="398" to-port="1"/>
		<edge from-layer="398" from-port="2" to-layer="399" to-port="0"/>
		<edge from-layer="379" from-port="2" to-layer="400" to-port="0"/>
		<edge from-layer="400" from-port="1" to-layer="401" to-port="0"/>
		<edge from-layer="399" from-port="1" to-layer="402" to-port="0"/>
		<edge from-layer="401" from-port="1" to-layer="402" to-port="1"/>
		<edge from-layer="402" from-port="2" to-layer="403" to-port="0"/>
		<edge from-layer="1" from-port="0" to-layer="403" to-port="1"/>
		<edge from-layer="403" from-port="2" to-layer="407" to-port="0"/>
		<edge from-layer="404" from-port="0" to-layer="407" to-port="1"/>
		<edge from-layer="405" from-port="0" to-layer="407" to-port="2"/>
		<edge from-layer="406" from-port="0" to-layer="407" to-port="3"/>
		<edge from-layer="398" from-port="2" to-layer="411" to-port="0"/>
		<edge from-layer="408" from-port="0" to-layer="411" to-port="1"/>
		<edge from-layer="409" from-port="0" to-layer="411" to-port="2"/>
		<edge from-layer="410" from-port="0" to-layer="411" to-port="3"/>
		<edge from-layer="379" from-port="2" to-layer="412" to-port="0"/>
		<edge from-layer="411" from-port="4" to-layer="412" to-port="1"/>
		<edge from-layer="407" from-port="4" to-layer="412" to-port="2"/>
		<edge from-layer="0" from-port="0" to-layer="412" to-port="3"/>
		<edge from-layer="412" from-port="4" to-layer="413" to-port="0"/>
	</edges>
	<meta_data>
		<MO_version value="2021.4.2-3974-e2a469a3450-releases/2021/4"/>
		<cli_parameters>
			<caffe_parser_path value="DIR"/>
			<data_type value="FP16"/>
			<disable_nhwc_to_nchw value="False"/>
			<disable_omitting_optional value="False"/>
			<disable_resnet_optimization value="False"/>
			<disable_weights_compression value="False"/>
			<enable_concat_optimization value="False"/>
			<enable_flattening_nested_params value="False"/>
			<enable_ssd_gluoncv value="False"/>
			<extensions value="DIR"/>
			<framework value="onnx"/>
			<freeze_placeholder_with_value value="{}"/>
			<generate_deprecated_IR_V7 value="False"/>
			<input_model value="DIR\deeplab_mobilenet_fp16.onnx"/>
			<input_model_is_text value="False"/>
			<k value="DIR\CustomLayersMapping.xml"/>
			<keep_shape_ops value="True"/>
			<legacy_ir_generation value="False"/>
			<legacy_mxnet_model value="False"/>
			<log_level value="ERROR"/>
			<mean_scale_values value="{}"/>
			<mean_values value="()"/>
			<model_name value="deeplab_mobilenet_fp16"/>
			<output_dir value="DIR"/>
			<placeholder_data_types value="{}"/>
			<progress value="False"/>
			<remove_memory value="False"/>
			<remove_output_softmax value="False"/>
			<reverse_input_channels value="False"/>
			<save_params_from_nd value="False"/>
			<scale_values value="()"/>
			<silent value="False"/>
			<static_shape value="False"/>
			<stream_output value="False"/>
			<transform value=""/>
			<unset unset_cli_parameters="batch, counts, disable_fusing, disable_gfusing, finegrain_fusing, input, input_checkpoint, input_meta_graph, input_proto, input_shape, input_symbol, mean_file, mean_file_offsets, move_to_preprocess, nd_prefix_name, output, placeholder_shapes, pretrained_model_name, saved_model_dir, saved_model_tags, scale, tensorboard_logdir, tensorflow_custom_layer_libraries, tensorflow_custom_operations_config_update, tensorflow_object_detection_api_pipeline_config, tensorflow_use_custom_operations_config, transformations_config"/>
		</cli_parameters>
	</meta_data>
</net>
